main/models/LSTMWithCustoms/best_model.pt (torch, 108857 bytes, 9 tensors)

hist_emb.weight f4 [7, 16]
-1.1323185 0.69163096 1.4235818 -1.5047644 2.199618 0.016398406 -0.34997922 0.8090805
0.1757757 0.18679553 1.1269004 -1.2117015 -0.38222483 0.73904794 0.5419687 1.6159409
-0.62305766 0.95726997 1.2661533 0.7405358 1.0241128 -0.3605205 -0.78393435 -0.2830002
2.3436453 -0.83602417 0.49266878 0.08152297 0.0008437897 0.25079888 0.28994736 0.6199406
0.48971182 0.42285654 0.38120767 -0.6293469 1.4897676 1.0200757 -0.088316716 -1.7025783
-0.015993591 0.46439293 0.5008352 0.7798473 0.52915424 -2.041403 0.11686755 -0.010434985
-0.534246 0.9046108 -1.0832543 0.87713563 0.7727876 0.41339782 -1.3093487 -0.43632647
0.84513634 -0.26418582 0.058366187 0.33606997 0.41762036 1.6542143 -1.2704017 -0.38461328
0.8454417 -0.3873282 1.6531969 -0.39117134 -0.33209392 0.40204188 -0.26229703 -1.8424004
1.4202645 1.7871672 -1.8194847 -0.625248 0.8145419 2.5882075 -1.3643942 -0.53154165
-0.30647138 -1.0394206 1.2998915 -1.5425392 0.029115984 -0.7422213 -0.061818272 0.75248706
-1.0068467 2.0341952 -0.00021423708 0.09802675 0.5770506 -0.77526283 1.3200275 -0.26240918
0.0 0.0 0.0 0.0 0.0 0.0 0.0 0.0
0.0 0.0 0.0 0.0 0.0 0.0 0.0 0.0
00000000: d0ef 90bf ba0e 313f ee37 b63f 1f9c c0bf
00000010: 8bc6 0c40 f355 863c 7a30 b3be e61f 4f3f
00000020: 8cfe 333e 5447 3f3e 463e 903f 0919 9bbf
00000030: f9b2 c3be 3f32 3d3f 76be 0a3f 27d7 ce3f
00000040: b580 1fbf a50f 753f 5011 a23f c193 3d3f
00000050: 2116 833f 2596 b8be ecaf 48bf 67e5 90be
00000060: 49fe 1540 ae05 56bf 153f fc3e 84f5 a63d
00000070: c531 5d3a b668 803e fb73 943e 6db4 1e3f
00000080: 82bb fa3e a780 d83e a72d c33e e11c 21bf
00000090: b4b0 be3f d791 823f 65df b4bd 16ee d9bf
000000a0: fe04 83bc e9c4 ed3e bc36 003f 13a4 473f
000000b0: a776 073f 59a6 02c0 4158 ef3d 80f7 2abc
000000c0: 59c4 08bf 9394 673f 14a8 8abf f68b 603f
000000d0: 68d5 453f e1a8 d33e bd98 a7bf 2f66 dfbe
000000e0: db5a 583f 5d43 87be 6211 6f3d 5d11 ac3e
000000f0: 56d2 d53e 4bbd d33f 869c a2bf 08ec c4be
00000100: de6e 583f e24f c6be f59b d33f 9c47 c8be
00000110: 3708 aabe 6fd8 cd3e cc4b 86be c7d3 ebbf
00000120: 3acb b53f e5c1 e43f e0e4 e8bf 4110 20bf
00000130: d185 503f 31a5 2540 78a4 aebf 1d13 08bf
00000140: d1e9 9cbe bc0b 85bf d862 a63f ed71 c5bf
00000150: a584 ee3c 3702 3ebf 2835 7dbd fea2 403f
00000160: 5ae0 80bf 4130 0240 d4a4 60b9 40c2 c83d
00000170: 97b9 133f a077 46bf a9f6 a83f 7f5a 86be
00000180: 0000 0000 0000 0000 0000 0000 0000 0000
00000190: 0000 0000 0000 0000 0000 0000 0000 0000
000001a0: 0000 0000 0000 0000 0000 0000 0000 0000
000001b0: 0000 0000 0000 0000 0000 0000 0000 0000

hist_lstm.weight_ih_l0 f4 [256, 16]
0.10905344 0.058714125 -0.066126965 -0.09502856 -0.011912224 -0.042459417 0.018335098 0.10325112
0.06847321 -0.033371095 0.06937317 -0.09521388 -0.054361273 -0.10937362 -0.006661719 -0.03353483
-0.08291004 -0.03690626 -0.039058734 0.06833113 -0.11374188 0.08301125 0.05461209 0.067589335
0.050342683 -0.012846989 -0.016326213 0.059390504 -0.12249876 -0.013016549 -0.098236926 -0.0734309
0.08810439 -0.11518239 -0.036768515 -0.10815769 0.11581046 0.11454836 -0.037524436 -0.052766446
0.024267072 0.08351552 0.11169625 -0.07961627 -0.03689717 0.12070023 0.117331184 -0.08601271
-0.11294115 0.0767766 -0.10892134 -0.015376431 0.022163594 -0.085802786 -0.114437155 -0.11007213
0.121247984 0.002070579 -0.100684874 -0.03759258 0.052697558 -0.07913151 0.001349786 -0.044129897
0.06588227 -0.1130809 0.018825391 -0.03619944 0.022512222 -0.038960163 0.05320132 -0.036799062
0.07026733 -0.11426631 0.10793088 -0.00076583476 0.123595335 -0.050604302 0.06254678 -0.09526304
0.10159873 0.06556613 -0.035786096 0.021049166 0.03687877 -0.040474836 0.06860886 0.08682258
-0.00068226905 0.04829489 -0.0869805 0.07061068 -0.07843425 -0.046103675 -0.011147198 -0.040627573
0.013367456 0.05925848 -0.108249225 -0.10610699 0.12043395 0.019900376 0.017952884 -0.04486089
0.0880711 -0.049570013 0.08115084 -0.056901652 0.07144623 -0.049778555 -0.043088783 -0.065156244
0.08096226 -0.0072598816 -0.12144854 -0.11220034 -0.0050007612 -0.08112746 -0.08312637 0.09728166
-0.06321781 0.077903755 -0.12124986 0.09800016 -0.10292851 -0.117685236 0.0534211 -0.04038431
-0.061130334 0.07547789 0.11936731 0.022762695 -0.094801225 -0.050565545 0.11190019 0.1155759
0.06655241 0.088546984 -0.0750786 0.11684919 -0.027653331 -0.045141254 -0.058195014 0.07198434
0.035215173 0.109726004 -0.017023021 0.024232322 -0.11686628 0.0011129618 0.08268162 0.0059307874
-0.0657926 -0.10939749 -0.018368939 0.07435716 0.026325906 -0.09502865 0.06903092 0.074476786
0.120504 0.085677125 0.079449005 0.054776777 -0.0033208162 -0.07098547 -0.009499309 0.119313814
0.019766996 -0.004893786 -0.060385767 -0.040167008 -0.007177195 -0.08973109 -0.015355271 -0.06177366
0.009453398 -0.12404848 0.10650397 -0.054336492 0.10308159 -0.11550412 -0.09692099 -0.12290614
-0.1219616 -0.06867651 0.02335071 0.066272594 -0.11583077 -0.03174417 0.0640369 -0.009489191
0.10805964 0.058468793 -0.0909675 -0.050339583 0.06781299 0.12289483 -0.111530565 0.124578886
0.013173682 0.122346334 0.036694545 -0.12336864 -0.085064866 -0.09569549 -0.0695368 0.014394117
0.025841946 -0.10548369 -0.043471474 0.06710652 -0.0868895 0.033892233 -0.07286418 -0.008513239
-0.023952479 0.0504175 0.10556618 0.08499626 -0.100493915 -0.03095063 -0.053797577 -0.079181485
-0.120747544 0.103714146 -0.01954786 -0.004094085 -0.07090398 -0.08882544 -0.12177081 0.003005165
0.06466042 -0.124823876 0.027228529 0.007103181 0.11205722 -0.035606686 -0.04687116 -0.05486234
0.039736304 0.035096858 -0.074555166 0.11101913 0.084382705 0.016666213 -0.10232294 0.012068448
-0.041884948 -0.11684748 0.08061614 0.066097505 -0.0026297153 -0.045368884 0.009225083 0.0369726
00000000: 6957 df3d 397e 703d 936d 87bd 559e c2bd
00000010: 7d2b 43bc ede9 2dbd 7d33 963c 5375 d33d
00000020: af3b 8c3d 21b0 08bd 8513 8e3d 7fff c2bd
00000030: eda9 5ebd 47ff dfbd 8d4a dabb d15b 09bd
00000040: bdcc a9bd 052b 17bd 0dfc 1fbd 31f1 8b3d
00000050: 81f1 e8bd cd01 aa3d edb0 5f3d 476c 8a3d
00000060: 2134 4e3d 2d7c 52bc 8dbe 85bc 7543 733d
00000070: a1e0 fabd 5d43 55bc 7130 c9bd f162 96bd
00000080: 1370 b43d bfe4 ebbd 959a 16bd c781 ddbd
00000090: 092e ed3d 5598 ea3d 39b3 19bd a121 58bd
000000a0: bdcb c63c 2f0a ab3d 01c1 e43d db0d a3bd
000000b0: 7d21 17bd af31 f73d 554b f03d 6f27 b0bd
000000c0: b14d e7bd 0d3d 9d3d 2712 dfbd 6ded 7bbc
000000d0: 6d90 b53c 5fb9 afbd 075e eabd 7f6d e1bd
000000e0: dd50 f83d 8db2 073b df33 cebd adfa 19bd
000000f0: 65d9 573d b30f a2bd 4deb b03a 8dc1 34bd
00000100: 49ed 863d f596 e7bd b537 9a3c dd45 14bd
00000110: 8d6b b83c b194 1fbd a1e9 593d 9dba 16bd
00000120: 51e8 8f3d 7504 eabd dd0a dd3d 4dc2 48ba
00000130: 8d1f fd3d 7546 4fbd 8718 803d 4519 c3bd
00000140: ff12 d03d 8947 863d 7194 12bd 4d6f ac3c
00000150: 310e 173d f1c8 25bd cd82 8c3d 09d0 b13d
00000160: 4dda 32ba ddd0 453d d522 b2bd 559c 903d
00000170: 23a2 a0bd 35d7 3cbd bda2 36bc 1969 26bd
00000180: 2d03 5b3c 05b9 723d c5b1 ddbd 9f4e d9bd
00000190: 13a6 f63d 1d06 a33c ed11 933c 0dc0 37bd
000001a0: 9f5e b43d ed09 4bbd 6932 a63d b511 69bd
000001b0: 6752 923d 99e4 4bbd dd7d 30bd a370 85bd
000001c0: 8bcf a53d 4de4 edbb 03ba f8bd 4bc9 e5bd
000001d0: 6ddd a3bb 2726 a6bd 293e aabd 9b3b c73d
000001e0: 5778 81bd 018c 9f3d d951 f8bd 4fb4 c83d
000001f0: 2fcc d2bd f504 f1bd 15d0 5a3d 056a 25bd
00000200: cd63 7abd 2794 9a3d d976 f43d d578 ba3c
00000210: 2527 c2bd d11d 4fbd ed2b e53d 0fb3 ec3d
00000220: a14c 883d 1f58 b53d cfc2 99bd a14e ef3d
00000230: 3d89 e2bc 09e6 38bd e55d 6ebd 876c 933d
00000240: c93d 103d 07b8 e03d dd73 8bbc dd82 c63c
00000250: 9757 efbd cde0 913a fb54 a93d 0d57 c23b
00000260: 45be 86bd cb0b e0bd 757a 96bc 9148 983d
00000270: 6da9 d73c 619e c2bd 1560 8d3d 4987 983d
00000280: cdca f63d 7d77 af3d 29b6 a23d 9d5d 603d
00000290: 0da2 59bb d560 91bd fda2 1bbc cd5a f43d
000002a0: 65ee a13c 0d5c a0bb 1157 77bd 2986 24bd
000002b0: ad2e ebbb efc4 b7bd ad94 7bbc 6106 7dbd
000002c0: 6de2 1a3c 210d febd c11e da3d f18f 5ebd
000002d0: 711c d33d 6d8d ecbd 837e c6bd 37b6 fbbd
000002e0: 01c7 f9bd 45a6 8cbd fd49 bf3c edb9 873d
000002f0: af38 edbd 2d06 02bd c725 833d 8d78 1bbc
00000300: 5f4e dd3d f97c 6f3d 2b4d babd e130 4ebd
00000310: 89e1 8a3d 49b0 fb3d 236a e4bd 3723 ff3d
00000320: 6dd6 573c b790 fa3d 054d 163d b3a8 fcbd
00000330: 7d36 aebd fffb c3bd 4f69 8ebd 4dd5 6b3c
00000340: 7db2 d33c d507 d8bd 250f 32bd 256f 893d
00000350: 1ff3 b1bd 95d2 0a3d d139 95bd 1d7b 0bbc
00000360: fd37 c4bc 9582 4e3d 1533 d83d 8512 ae3d
00000370: c1cf cdbd 2d8c fdbc d95a 5cbd e729 a2bd
00000380: 7d4a f7bd 1568 d43d d522 a0bc ad27 86bb
00000390: 1b36 91bd 1dea b5bd f962 f9bd 4df2 443b
000003a0: af6c 843d a9a3 ffbd 5d0e df3c cdc1 e83b
000003b0: 417e e53d 51d8 11bd f9fb 3fbd 55b7 60bd
000003c0: 89c2 223d b9c1 0f3d 61b0 98bd ff5d e33d
000003d0: d7d0 ac3d 9587 883c b18e d1bd bdba 453c
000003e0: 8d8f 2bbd bb4d efbd 131a a53d 215e 873d
000003f0: 4d57 2cbb b9d4 39bd cd24 173c 9570 173d

hist_lstm.weight_hh_l0 f4 [256, 64]
0.0633667 0.06094278 0.05178641 0.15681581 -0.04035374 -0.03708226 -0.07578979 -0.040287778
0.05839911 -0.0657888 -0.065365866 0.06311434 -0.075542584 0.08391168 -0.010217365 -0.049973276
-0.060546365 -0.0557195 -0.051834274 0.15477137 -0.09520271 0.0031171865 -0.14555359 0.0057811583
-0.01217771 -0.07268769 -0.0895815 0.09874109 -0.029943833 0.15717171 0.10094395 -0.05938632
0.09202374 -0.030271731 -0.068530284 0.015186716 0.005103062 0.0034911556 -0.0077158813 -0.001475531
0.015478421 0.009156506 0.046967093 0.08461905 -0.088614 0.08606654 -0.04382261 -0.09019835
-0.07423773 0.036835343 -0.10789278 0.094027065 0.0482379 0.097059116 0.00077696174 0.13832442
0.15418813 0.060489006 -0.0023806908 -0.05107833 0.057719268 -0.0591492 -0.048102733 0.06866586
0.15624736 -0.03381056 0.037795324 0.007681867 -0.058904137 -0.003464614 0.075944744 0.062026873
-0.047616128 -0.001850639 -0.011444982 0.06305328 0.024818193 0.16380294 0.06697198 0.055522427
0.07479341 -0.13738598 -0.013096739 0.0412182 -0.04367528 -0.09300252 -0.05065726 0.075919166
0.040944807 -0.06627147 -0.06392881 0.009623051 -0.13214342 0.021149786 0.08752722 -0.13445655
-0.09330702 -0.13977298 0.0039274883 -0.03417795 0.15555583 0.06859166 0.08660656 -0.033586316
-0.09652235 -0.12924486 0.108986266 -0.10089385 0.020309767 0.07624239 0.09182183 0.0026470856
0.048349913 0.0023344194 0.049267344 -0.053285297 0.049338177 -0.045479372 0.14634515 0.08293052
0.061882146 0.005960741 0.0029805307 0.10625877 -0.1129711 0.017409459 -0.022586688 -0.097914405
-0.045183204 -0.027689513 0.048563477 0.101270206 0.07479203 -0.012511191 -0.1313488 -0.066981666
0.08766413 -0.13886873 -0.120330475 -0.08804786 -0.09090399 0.07237925 0.047550615 -0.1201666
0.032160286 0.028962653 0.14947143 -0.0042307065 -0.09272314 -0.049854666 0.0550441 -0.011567605
-0.108685724 -0.062082626 -0.049544327 -0.08780076 -0.024964087 0.047907174 -0.019383084 0.090613574
-0.0671033 -0.14124526 0.020404255 0.07227176 -4.2799624e-05 -0.07936377 -0.04261778 -0.0026356874
-0.06606794 0.07147253 -0.0012541113 -0.08558071 0.027798507 0.03375657 -0.013618069 -0.026556855
-0.02564297 0.14191179 0.07076312 0.069380485 0.027585786 -0.060098026 -0.06764435 0.036568675
-0.04436856 0.015268343 0.048385967 0.049240682 -0.016775906 -0.1004452 -0.08753369 0.007944275
0.14350647 -0.042497337 -0.15338197 -0.06811099 0.021292897 0.12722193 -0.044102944 -0.047985893
0.10063268 0.07364261 0.027305858 -0.09585989 0.040204085 -0.025068419 -0.08116546 0.017911728
-0.056305535 -0.04476281 0.13934211 0.013744699 -0.02939472 -0.03064302 -0.022085767 0.074882895
0.09099869 -0.04601323 -0.08629016 -0.091341086 -0.031508334 0.1061841 0.043334257 0.036484156
0.021871842 0.064538784 -0.059082124 0.09289284 0.11620049 -0.09403919 0.046961095 -0.1021354
0.14060998 -0.13426238 0.13632777 0.024562923 0.044697676 -0.091855176 0.05893405 -0.06789973
-0.13507886 0.080671504 0.09279259 -0.12185649 0.014940283 0.054595623 -0.062889144 0.12973367
0.091245525 0.033797786 0.09712135 0.098345876 -0.11136486 -0.08381566 -0.13188002 0.028363554
00000000: 67c6 813d 239f 793d fd1d 543d 5394 203e
00000010: f749 25bd 91e3 17bd ad37 9bbd cc04 25bd
00000020: e833 6f3d 47bc 86bd 8ade 85bd 1742 813d
00000030: 12b6 9abd e3d9 ab3d bc66 27bc c7b0 4cbd
00000040: 77ff 77bd 213a 64bd 2d50 54bd 637c 1e3e
00000050: a3f9 c2bd b649 4c3b 000c 15be df6f bd3b
00000060: 0585 47bc 49dd 94bd 8176 b7bd c538 ca3d
00000070: c54c f5bc 9ff1 203e b4bb ce3d 123f 73bd
00000080: f176 bc3d 6cfc f7bc 9b59 8cbd b4d1 783c
00000090: 9637 a73b dfcb 643b 81d5 fcbb 9b66 c1ba
000000a0: 3499 7d3c 2b05 163c 9160 403d c14c ad3d
000000b0: 427b b5bd a743 b03d 567f 33bd eab9 b8bd
000000c0: f309 98bd a8e0 163d e4f6 dcbd 4391 c03d
000000d0: 1b95 453d eec6 c63d 05ad 4b3a eba4 0d3e
000000e0: 7ee3 1d3e 52c3 773d 5d05 1cbb 8337 51bd
000000f0: 0a6b 6c3d 6e46 72bd 5f07 45bd b0a0 8c3d
00000100: 4fff 1f3e f17c 0abd 45cf 1a3d 2cb8 fb3b
00000110: 7745 71bd 940e 63bb eb88 9b3d e40f 7e3d
00000120: 2109 43bd 2491 f2ba bc83 3bbc 1422 813d
00000130: 864f cb3c f5bb 273e 9b28 893d 7c6b 633d
00000140: 4a2d 993d e9ae 0cbe b493 56bc 6ad4 283d
00000150: dae4 32bd 1b78 bebd fd7d 4fbd 827b 9b3d
00000160: beb5 273d 56b9 87bd 1ced 82bd 00aa 1d3c
00000170: 9b50 07be 5142 ad3c 7941 b33d faae 09be
00000180: c017 bfbd a620 0fbe 29b2 803b 2efe 0bbd
00000190: 074a 1f3e c979 8c3d c85e b13d ce91 09bd
000001a0: 83ad c5bd c458 04be 3134 df3d 6fa1 cebd
000001b0: ab60 a63c f824 9c3d 150d bc3d ba7a 2d3b
000001c0: 8f0a 463d 0ffd 183b 8ecc 493d af41 5abd
000001d0: d416 4a3d 9448 3abd 81db 153e 7ad7 a93d
000001e0: 2278 7d3d 5252 c33b 0255 433b 339e d93d
000001f0: 645d e7bd 489e 8e3c b807 b9bc 5987 c8bd
00000200: 0612 39bd 1ed5 e2bc 7fea 463d c166 cf3d
00000210: 902c 993d bdfb 4cbc 4d80 06be af2d 89bd
00000220: 4089 b33d 9b33 0ebe d36f f6bd 7052 b4bd
00000230: df2b babd 923b 943d 6fc4 423d e819 f6bd
00000240: 81ba 033d 1643 ed3c 0a0f 193e bda1 8abb
00000250: a1e5 bdbd 6834 4cbd ec75 613d 0d86 3dbc
00000260: 9f96 debd 5a4a 7ebd feee 4abd e3d0 b3bd
00000270: 7c81 ccbc 503a 443d 46c9 9ebc 9c93 b93d
00000280: 746d 89bd 99a2 10be d326 a73c 3703 943d
00000290: bf83 33b8 7989 a2bd fb8f 2ebd 7fbb 2cbb
000002a0: a14e 87bd 3160 923d fe60 a4ba f044 afbd
000002b0: b2b9 e33c 5444 0a3d 521e 5fbc c38d d9bc
000002c0: 3511 d2bc 5351 113e 41ec 903d 5b17 8e3d
000002d0: 96fb e13c 5929 76bd 1f89 8abd 09c9 153d
000002e0: cfbb 35bd 1228 7a3c 5d30 463d 99b0 493d
000002f0: a06d 89bc 37b6 cdbd dd44 b3bd b428 023c
00000300: 5cf3 123e b011 2ebd 2a10 1dbe c67d 8bbd
00000310: 716e ae3c 7746 023e 4aa5 34bd db8c 44bd
00000320: 8218 ce3d f0d1 963d 89b0 df3c 3152 c4bd
00000330: 0aad 243d 495c cdbc 143a a6bd 9ebb 923c
00000340: a2a0 66bd 3559 37bd b3af 0e3e 7231 613c
00000350: 32cd f0bc 1207 fbbc 36ed b4bc 345c 993d
00000360: 855d ba3d 5e78 3cbd e5b8 b0bd 0911 bbbd
00000370: e20e 01bd 0d77 d93d 437f 313d 6970 153d
00000380: 942c b33c e92c 843d 1900 72bd 9a3e be3d
00000390: 86fa ed3d 9e97 c0bd 475a 403d 5d2c d1bd
000003a0: 10fc 0f3e 147c 09be 8299 0b3e 2f38 c93c
000003b0: e914 373d 911e bcbd d564 713d 030f 8bbd
000003c0: 1d52 0abe 1a37 a53d 0b0a be3d e58f f9bd
000003d0: 17c8 743c a99f 5f3d 06cc 80bd e7d8 043e
000003e0: efde ba3d 8c6f 0a3d 8fe7 c63d 9069 c93d
000003f0: 4213 e4bd 8ba7 abbd 8e0b 07be af5a e83c

hist_lstm.bias_ih_l0 f4 [256]
0.021081382 0.118050545 0.029684005 -0.034494847 0.044937648 0.07322339 0.10949462 0.02489018
0.060721897 0.09564041 -0.10919163 -0.03810024 0.13622846 0.10348864 0.048907455 0.13466638
0.010610097 0.016095763 -0.027516916 0.12588087 0.012819453 -0.06910726 0.14818749 0.09950642
0.034513604 -0.08671757 -0.014273405 -0.057296004 -0.09291673 -0.020908592 -0.051115952 0.13394098
-0.03255059 0.058430217 0.14826117 0.06291788 -0.058777295 0.029744701 -0.028011369 -0.06449038
-0.09791779 0.008304013 -0.050709233 0.06639831 0.14334255 -0.038994536 0.06682705 -0.0663018
0.044763103 -0.05765672 0.098973595 0.08291393 0.013059384 0.1327669 0.08160597 -0.038952734
0.09411658 0.075088575 0.09495623 0.14370075 -0.0053944653 0.12613271 0.07872599 0.108969755
0.0023519248 -0.07070985 0.01791408 -0.07263785 0.035900187 0.06358037 -0.011480892 0.07109463
-0.07119367 0.09337435 -0.0670143 0.12223386 0.012368135 0.0008534827 0.11382769 -0.049689494
-0.058102198 -0.04344693 0.06604656 0.11867844 0.12108562 -0.05132307 0.028958002 -0.027544
0.013491774 -0.048532147 0.059965253 0.07334802 -0.08655638 -0.027623381 -0.028414594 0.0387615
0.004263007 0.0052396203 0.08949088 0.0024679701 -0.040301606 -0.11908719 0.105784304 -0.011156108
-0.032368116 0.0705374 0.070606284 0.03258028 0.13743733 -0.060051303 -0.013574948 0.014787579
-0.08170852 0.12441406 -0.07090068 -0.119226076 0.07332438 0.06652069 -0.03306015 0.029120097
-0.0738776 0.091836214 0.13325195 -0.020269824 0.054879613 0.06717426 0.06830279 -0.030944219
0.12870729 0.06475134 -0.10862679 0.11853585 0.030759947 0.12292637 -0.12127233 -0.08984278
-0.09404873 -0.059907902 -0.083599225 -0.06451925 0.0470793 -0.00546789 -0.055978883 -0.065951236
0.09730124 -0.076175496 -0.006527256 0.09520972 -0.06617865 -0.082037345 -0.096566126 -0.089809395
-0.07952077 -0.07420882 -0.14618087 0.018467948 -0.060574356 0.01687857 0.061317675 -0.08653222
0.13682999 0.00084371807 0.035285752 -0.13398582 -0.06750699 -0.045647334 -0.031020556 -0.051191725
-0.008066158 -0.14179967 0.065303475 -0.034019165 -0.083641365 -0.07918431 0.14134946 -0.12036222
-0.112021305 0.10160271 -0.0842418 0.035218 0.046255734 0.033669338 0.038937185 0.10497043
0.09514326 -0.0091812825 0.14326932 0.08072353 -0.11107566 -0.13179016 0.04236208 -0.100856856
0.15029414 0.017639188 0.12802069 -0.06670588 0.007309529 0.105049096 -0.064112455 0.02813949
0.11545493 0.09458447 -0.03693223 -0.09821912 0.13328825 -0.09066653 0.037893455 0.049114674
-0.06837621 0.0352224 0.13431601 0.06792004 -0.01061547 0.11898788 0.12298697 -0.006593297
0.13406825 0.042219497 0.140279 -0.09185495 0.1394758 0.026592746 -0.08737399 0.12059255
-0.08038834 0.10947067 -0.038347133 -0.023415247 -0.014140485 0.028583657 0.07878905 0.11740902
0.037502557 -0.054485906 0.06269415 -0.005555596 0.1660176 0.12867633 -0.09669702 0.048190452
-0.02144226 0.01970044 0.08696743 -0.0044279546 -0.12110153 -0.11156835 0.031165754 -0.020704348
-0.043590087 0.09540644 0.08045049 0.008716382 0.042204905 0.03960157 -0.0124098165 -0.089004345
00000000: ddb2 ac3c 7cc4 f13d df2b f33c 784a 0dbd
00000010: 8a10 383d 25f6 953d b73e e03d 7ee6 cb3c
00000020: 86b7 783d 1fdf c33d dc9f dfbd ff0e 1cbd
00000030: 797f 0b3e daf1 d33d 2f53 483d fce5 093e
00000040: f9d5 2d3c 43db 833c 286b e1bc eae6 003e
00000050: af08 523c 1b88 8dbd 76be 173e 06ca cb3d
00000060: 235e 0d3d fb98 b1bd 00db 69bc 37af 6abd
00000070: 204b bebd 7f48 abbc f65e 51bd d327 093e
00000080: c453 05bd 8654 6f3d c7d1 173e 17db 803d
00000090: 76c0 70bd 29ab f33c 1978 e5bc 8813 84bd
000000a0: 1f89 c8bd 8e0d 083c 7cb4 4fbd d6fb 873d
000000b0: 64c8 123e bcb8 1fbd 9fdc 883d 3dc9 87bd
000000c0: 8459 373d 7429 6cbd abb2 ca3d c7ce a93d
000000d0: 07f7 553c 0cf4 073e 0821 a73d e78c 1fbd
000000e0: 32c0 c03d 0ac8 993d 6978 c23d 4a26 133e
000000f0: 0ec4 b0bb ef28 013e 183b a13d 892b df3d
00000100: c022 1a3b 53d0 90bd 8cc0 923c 27c3 94bd
00000110: 130c 133d 6d36 823d 5a1a 3cbc 109a 913d
00000120: fdcd 91bd 0d3b bf3d cb3e 89bd bf55 fa3d
00000130: b8a3 4a3c 41bc 5f3a 7e1e e93d 3687 4bbd
00000140: 92fc 6dbd 68f5 31bd 6b43 873d af0d f33d
00000150: bdfb f73d 2438 52bd 5539 ed3c f4a3 e1bc
00000160: 9a0c 5d3c a5c9 46bd 209e 753d 7d37 963d
00000170: 7944 b1bd 6e4a e2bc b9c5 e8bc 61c4 1e3d
00000180: b2b0 8b3b 1fb1 ab3b ff46 b73d abbd 213b
00000190: 4c13 25bd fce3 f3bd 71a5 d83d 1cc8 36bc
000001a0: 6e94 04bd ea75 903d 079a 903d e672 053d
000001b0: 5fbc 0c3e 5bf8 75bd 7569 5ebc 9a47 723c
000001c0: cc56 a7bd cccc fe3d 6034 91bd cd2c f4bd
000001d0: 182b 963d 003c 883d 146a 07bd 458d ee3c
000001e0: 244d 97bd a014 bc3d 3373 083e e70c a6bc
000001f0: 72c9 603d a992 893d 55e2 8b3d bb7e fdbc
00000200: d8cb 033e 5a9c 843d b977 debd ecc2 f23d
00000210: 49fc fb3c d2c0 fb3d a15d f8bd 7eff b7bd
00000220: 9f9c c0bd fd61 75bd 1236 abbd ab22 84bd
00000230: 39d6 403d fc2b b3bb 1d4a 65bd 7111 87bd
00000240: df45 c73d e601 9cbd 98e2 d5bb 50fd c23d
00000250: ac88 87bd 3203 a8bd 76c4 c5bd fded b7bd
00000260: c9db a2bd cbfa 97bd 70b0 15be 184a 973c
00000270: d11c 78bd ed44 8a3c 3e28 7b3d ce37 b1bd
00000280: 291d 0c3e f62c 5d3a cb87 103d 9433 09be
00000290: 1b41 8abd b3f8 3abd d21e febc 6aae 51bd
000002a0: eb27 04bc ef33 11be d4bd 853d ae57 0bbd
000002b0: 2a4c abbd 622b a2bd eabd 103e 7880 f6bd
000002c0: 6d6b e5bd 1515 d03d f786 acbd c040 103d
000002d0: a776 3d3d dce8 093d 997c 1f3d bdfa d63d
000002e0: 78da c23d 176d 16bc 31b5 123e 6152 a53d
000002f0: a37b e3bd 00f4 06be dc83 2d3d 0a8e cebd
00000300: b5e6 193e 0f80 903c db17 033e 189d 88bd
00000310: c684 ef3b fb23 d73d 644d 83bd ca84 e63c
00000320: a273 ec3d 81b5 c13d 4046 17bd 1b27 c9bd
00000330: b77c 083e 60af b9bd 2b36 1b3d 782c 493d
00000340: d408 8cbd 5d45 103d 238a 093e a919 8b3d
00000350: 82ec 2dbc ebaf f33d 98e0 fb3d 950c d8bb
00000360: 3049 093e 5aee 2c3d 4ca5 0f3e 731e bcbd
00000370: bed2 0e3e 08d9 d93c 22f1 b2bd 3af9 f63d
00000380: a4a2 a4bd 2932 e03d e211 1dbd 55d1 bfbc
00000390: 7ead 67bc 4628 ea3c 275c a13d 2474 f03d
000003a0: 489c 193d 9d2c 5fbd ca65 803d b80b b6bb
000003b0: 8500 2a3e bac3 033e 1609 c6bd 5a63 453d
000003c0: aea7 afbc d162 a13c fb1b b23d 6018 91bb
000003d0: 1404 f8bd f27d e4bd 534f ff3c 2a9c a9bc
000003e0: 858b 32bd 7464 c33d 3ac3 a43d 28cf 0e3c
000003f0: 0ddf 2c3d 4235 223d 8b52 4bbc e947 b6bd

hist_lstm.bias_hh_l0 f4 [256]
0.09557971 0.09044991 0.13454783 0.1362312 -0.07578791 0.13178025 -0.09387245 0.047478158
-0.09902153 0.0836481 0.106979996 0.1088022 0.14033358 0.11175987 0.07931013 0.08636402
-0.034130927 0.0087708905 0.14194301 0.0865581 -0.049461037 -0.101400085 -0.03944408 0.020416029
0.08227018 -0.018210681 0.07775224 0.029787142 0.038328107 0.10417098 0.005904348 -0.041969027
-0.0048618 0.15231052 0.106404915 0.12510568 0.06330206 -0.06655672 0.14815015 0.024400696
-0.10144469 -0.024129035 -0.07109705 0.02245038 -0.03527727 0.082586385 -0.00017007884 0.04997555
0.003550937 -0.028121397 -0.046590976 -0.040685404 0.043214794 0.1188068 -0.0718758 0.10085125
-0.015921727 -0.04322389 0.040303964 0.014928754 0.13772875 0.09105399 -0.019257227 -0.059811614
0.1335458 0.036928665 0.11012597 -0.00039768068 -0.08410819 0.105095595 -0.11215426 0.06273028
-0.0437166 0.065095 -0.0018706421 0.05399095 -0.07935285 0.14351386 0.101190515 0.15938692
-0.014402976 -0.0137587255 -0.033581834 0.093003 0.13253318 0.049470875 -0.05003432 0.12055715
-0.08051358 -0.09952222 0.022973536 0.041864693 -0.08898359 -0.08016172 0.05966223 0.11338051
0.006432479 0.1007734 -0.028443504 0.03937848 0.010072892 0.037210025 0.05943536 -0.04831263
0.12342863 0.11069631 0.07538642 -0.05118068 0.15972349 0.046502475 0.07088962 -0.007938452
0.116784856 0.11792688 0.10669023 -0.033363666 -0.028388008 0.07445535 0.024076145 -0.01644933
-0.06517011 0.093898594 -0.082020506 0.07792494 0.011462572 0.04605409 0.0334506 0.04175242
-0.047514457 0.11744497 0.0016819529 -0.054577507 -0.143741 0.07969595 -0.05980495 0.037668753
0.07962415 -0.063373044 -0.06682728 0.0549747 -0.0016114501 0.053288307 -0.07048699 -0.14668556
0.03728784 -0.07029165 0.057544954 -0.09239645 -0.14958854 0.12365845 0.00411643 -0.111967854
0.013359621 -0.062521785 0.05594495 0.088563144 -0.057284597 0.05419249 0.038881592 0.013115428
-0.0034873888 -0.10603996 -0.13384315 0.07476546 0.07483672 -0.026557956 -0.1465291 0.07884118
0.03467635 0.08654566 -0.020465892 0.04963954 -0.06471324 -0.13155325 0.1266408 -0.13440675
-0.021646783 -0.080183305 -0.018976986 -0.06571668 0.078648806 0.09429057 0.0148939565 0.12572439
0.10778205 -0.073081695 -0.0541815 0.04122412 -0.12865593 0.012228632 -0.091656625 -0.05910349
0.039196912 0.12563978 0.09410062 0.00089409313 0.1406685 0.019844903 0.004402023 0.12021315
0.05732728 0.1188161 -0.09533636 -0.0027287146 0.017534008 0.09479754 0.080476485 -0.00014806425
0.0057723173 -0.061634015 0.1545027 0.06957785 0.11737245 -0.054528024 0.10166748 -0.0028129704
-0.0098428065 0.12911263 0.15382548 0.061037716 0.01559904 0.03533404 -0.0906418 0.11535025
0.05706726 -0.04822896 0.006538554 -0.08695253 -0.013444329 0.05543753 0.13933693 -0.030017834
0.12648591 0.10591571 0.139744 0.119071625 0.12979688 -0.013331701 0.019547736 0.016243126
-0.090505324 -0.02260113 -0.055276114 0.05982719 0.06101054 -0.07729064 -0.01279227 0.06869147
-0.030867504 0.086872056 0.10850706 -0.0534162 -0.07447623 0.053984586 -0.05684968 0.07084591
00000000: 4cbf c33d cd3d b93d e8c6 093e 3180 0b3e
00000010: b136 9bbd 67f1 063e 3340 c0bd 7578 423d
00000020: cdcb cabd b24f ab3d 5418 db3d b0d3 de3d
00000030: 9bb3 0f3e 5ce2 e43d 596d a23d 9fdf b03d
00000040: dfcc 0bbd c8b3 0f3c 8259 113e 6045 b13d
00000050: a897 4abd d9aa cfbd 1e90 21bd 843f a73c
00000060: 457d a83d 912e 95bc 913c 9f3d 2a04 f43c
00000070: effd 1c3d 9857 d53d 4379 c13b b7e7 2bbd
00000080: bc4f 9fbb 4af7 1b3e d2ea d93d b41b 003e
00000090: 83a4 813d e44e 88bd acb4 173e f8e3 c73c
000000a0: 3cc2 cfbd 41aa c5bc 559b 91bd dce9 b73c
000000b0: e67e 10bd 0d23 a93d 3157 32b9 2ab3 4c3d
000000c0: d6b6 683b d85e e6bc 2ed6 3ebd bda5 26bd
000000d0: ff01 313d fb50 f33d 9f33 93bd 1a8b ce3d
000000e0: 486e 82bc 890b 31bd c515 253d bc97 743c
000000f0: c408 0d3e 847a ba3d 55c1 9dbc 06fd 74bd
00000100: 3bc0 083e 8342 173d b989 e13d cc7f d0b9
00000110: ea40 acbd 5c3c d73d 22b1 e5bd bc78 803d
00000120: 2d10 33bd 8750 853d 5530 f5ba 9d25 5d3d
00000130: bf83 a2bd 4cf5 123e f93c cf3d 5336 233e
00000140: 76fa 6bbc 476c 61bc 1b8d 09bd 5b78 be3d
00000150: c7b6 073e f9a1 4a3d caf0 4cbd abe6 f63d
00000160: 4ee4 a4bd 4ed2 cbbd ff32 bc3c 507a 2b3d
00000170: 073d b6bd d42b a4bd 6260 743d 0a34 e83d
00000180: 8bc7 d23b 4962 ce3d 5a02 e9bc 544b 213d
00000190: c508 253c 8a69 183d 7e72 733d 77e3 45bd
000001a0: 26c8 fc3d bfb4 e23d 3264 9a3d d5a2 51bd
000001b0: 8e8e 233e 6179 3e3d 942e 913d 4810 02bc
000001c0: e62c ef3d a683 f13d 6880 da3d 57a8 08bd
000001d0: f88d e8bc 0c7c 983d 563b c53c bfc0 86bc
000001e0: e877 85bd e84d c03d 5efa a7bd 1c97 9f3d
000001f0: 83cd 3b3c 37a3 3c3d 7f03 093d 9604 2b3d
00000200: 859e 42bd fd86 f03d f974 dc3a aa8c 5fbd
00000210: d730 13be a137 a33d 09f6 74bd 8d4a 1a3d
00000220: fd11 a33d bac9 81bd bedc 88bd 272d 613d
00000230: 4b37 d3ba d744 5a3d 7c5b 90bd bd34 16be
00000240: 22bb 183d 12f5 8fbd 42b4 6b3d 5a3a bdbd
00000250: bd2d 19be a440 fd3d 1ee3 863b 674f e5bd
00000260: 50e2 5a3c 6c0b 80bd 8826 653d 9860 b53d
00000270: 41a3 6abd f2f8 5d3d 4e42 1f3d 18e2 563c
00000280: ad8c 64bb 7b2b d9bd 2e0e 09be a21e 993d
00000290: ff43 993d 1290 d9bc b90b 16be 7c77 a13d
000002a0: ca08 0e3d da3e b13d 16a8 a7bc d552 4b3d
000002b0: 6088 84bd e5b5 06be 20ae 013e eca1 09be
000002c0: 9854 b1bc 2537 a4bd a075 9bbc 7796 86bd
000002d0: a012 a13d 6a1b c13d c805 743c e5bd 003e
000002e0: d6bc dc3d dbab 95bd 6ced 5dbd 9fda 283d
000002f0: 61be 03be 9a5a 483c 78b6 bbbd 8016 72bd
00000300: f18c 203d b7a7 003e d3b7 c03d 9361 6a3a
00000310: 670b 103e c791 a23c d83e 903b 5032 f63d
00000320: 03d0 6a3d db55 f33d b63f c3bd 3cd4 32bb
00000330: 7ba3 8f3c 3625 c23d dbd0 a43d b241 1bb9
00000340: b525 bd3b f373 7cbd f535 1e3e d57e 8e3d
00000350: f860 f03d c758 5fbd 0a37 d03d d059 38bb
00000360: b943 21bc 1a36 043e 6d84 1d3e af02 7a3d
00000370: 1e93 7f3c 6dba 103d 68a2 b9bd c03c ec3d
00000380: 5cbf 693d bb8b 45bd 5e41 d63b 2b14 b2bd
00000390: 9a45 5cbc 7712 633d 57ae 0e3e f6e7 f5bc
000003a0: 8685 013e 56ea d83d 0d19 0f3e d3db f33d
000003b0: 79e9 043e 356d 5abc 9322 a03c 4e10 853c
000003c0: db5a b9bd 0126 b9bc 3569 62bd 5b0d 753d
000003d0: 30e6 793d 8e4a 9ebd ab96 51bc 1dae 8c3d
000003e0: d9dd fcbc fae9 b13d f338 de3d f2ca 5abd
000003f0: fe86 98bd f11e 5d3d 36db 68bd a917 913d

fc.0.weight f4 [64, 77]
0.0023471573 -0.0011780472 0.0042180023 0.07098847 -0.0782266 0.07163685 0.05815291 0.024902694
-0.18769826 -0.019554658 0.0038494146 -0.035187747 -0.12525922 0.051041897 0.034215324 -0.06333368
-0.067095414 0.12691897 -0.10980189 0.09766015 0.14110778 -0.018545846 0.0031515637 0.012519672
0.09374274 -0.07379064 -0.13128754 0.014661855 0.088216536 -0.052748248 -0.04632246 0.06570943
-0.03237983 0.017280705 0.083782814 0.14089943 0.050759856 -0.0047602835 0.036064778 0.012801329
0.008669854 0.13892408 -0.12032256 -0.01172554 0.09094744 0.035445437 0.11651104 -0.021870991
-0.040978447 -0.10192635 0.08942544 -0.012792059 -0.00035776387 -0.09794682 0.14334004 -0.10903096
0.0034288215 0.08624491 -0.012469396 -0.031257067 -0.0023375629 0.008796042 -0.028433044 -0.027951524
0.076190054 -0.101970874 0.028977841 -0.12401181 0.003867477 0.06370939 0.072584726 -0.13095617
0.04079926 0.13033059 0.048825208 0.015672455 -0.03297671 -0.06680081 -0.016924683 0.11820319
0.056267474 0.0030220996 0.093064815 0.09018047 -0.024757005 -0.036068954 -0.024414755 -0.12561834
-0.15100764 0.10178783 -0.040100817 0.007277773 -0.03586344 0.07282275 -0.05450563 0.028215846
0.08575221 -0.050052464 -0.06189372 0.07544342 0.011650567 0.05752986 0.02961956 -0.009737388
-0.104307 0.08303694 -0.060356926 0.07793558 0.050320715 0.10520397 0.026087219 0.12281843
-0.016933927 0.042151637 -0.03541554 -0.09401836 -0.045157343 0.08170978 0.09589217 0.0819533
-0.08176233 -0.07995083 0.10146129 0.01820668 -0.12857813 -0.06241035 -0.04412265 -0.066103205
0.04654649 -0.063551724 0.019918801 0.036342494 0.0788758 -0.04222317 -0.09038087 -0.112019606
-0.047191318 -0.105395235 -0.112273164 0.12365211 -0.029845878 0.054045316 -0.09975571 0.0035907363
0.039349213 0.12725177 0.07169047 -0.11022177 0.031905375 0.09598432 0.023435153 0.013507026
-0.06166138 -0.08685631 0.012887219 0.06840614 0.047894847 -0.011500923 -0.050121274 0.06846801
-0.08729947 -0.05964131 -0.018821541 0.013082066 -0.015246263 -0.089665286 -0.020386389 -0.016464747
0.11305615 -0.04438542 0.088826045 -0.08731665 0.0610203 0.06557589 -0.11597549 -0.03770434
0.016448881 0.049962293 0.060762543 0.08923262 0.040977534 -0.10723391 0.015158874 0.09274274
-0.114049904 0.10646669 0.047392167 0.08296243 0.082703106 0.056477793 -0.08220338 0.054043908
-0.08666382 -0.0034594159 0.0651387 0.028264744 -0.09489592 -0.1008264 0.08480001 -0.0028244888
-0.00448314 -0.086894535 0.01596129 0.06448896 0.10631441 0.0474862 -0.07711675 -0.09146716
0.03515924 -0.0032302814 0.08079906 -0.06767594 0.026633592 0.086094506 -0.093516804 -0.03401216
0.039182544 -0.100462995 0.044334367 0.052053798 0.08273988 0.06667946 -0.090406775 0.08875568
0.105439395 0.0487191 0.08439266 -0.007533976 0.027746981 -0.069653936 0.0994041 -0.090041064
0.06501799 0.03690526 0.08702402 0.019128816 -0.046718497 -0.00019619391 0.019560302 0.06430403
-0.016009012 0.006416666 -0.025249662 -0.067102134 0.13133624 0.07883792 -0.10820749 0.123111166
0.05407059 0.06901022 -0.11776428 -0.029288463 -0.13319598 -0.007974439 0.03435064 -0.03410061
00000000: c4d2 193b b468 9aba 2b37 8a3b 6762 913d
00000010: 4535 a0bd 57b6 923d bf31 6e3d bc00 cc3c
00000020: f933 40be 1731 a0bc 7646 7c3b 0721 10bd
00000030: f443 00be 4f11 513d 5e25 0c3d 17b5 81bd
00000040: 5269 89bd 0cf7 013e d0df e0bd 0b02 c83d
00000050: 8f7e 103e 75ed 97bc 778a 4e3b 4f1f 4d3c
00000060: 32fc bf3d 8c1f 97bd 3e70 06be 4738 703c
00000070: dfaa b43d 8c0e 58bd 9fbc 3dbd aa92 863d
00000080: b6a0 04bd 4490 8d3c 5396 ab3d f147 103e
00000090: 91e9 4f3d 27fc 9bbb a9b8 133d aabc 513c
000000a0: 010c 0e3c 1d42 0e3e ad6b f6bd 7b1c 40bc
000000b0: a742 ba3d 3c2f 113d 579d ee3d cb2a b3bc
000000c0: 04d9 27bd c3be d0bd af24 b73d c995 51bc
000000d0: 4192 bbb9 5898 c8bd bbc7 123e a04b dfbd
000000e0: 14b6 603b 2ca1 b03d 704c 4cbc 6907 00bd
000000f0: cc31 19bb 461d 103c 6aec e8bc 98fa e4bc
00000100: 8809 9c3d 1bd6 d0bd f062 ed3c e7f9 fdbd
00000110: 7f75 7d3b 127a 823d 4da7 943d 6019 06be
00000120: 201d 273d 6275 053e f1fc 473d 8563 803c
00000130: 9612 07bd ddce 88bd a2a5 8abc 8414 f23d
00000140: b978 663d 6b0e 463b c498 be3d 8ab0 b83d
00000150: 34cf cabc 0abd 13bd 7401 c8bc 18a2 00be
00000160: bfa1 1abe 2376 d03d c140 24bd 637a ee3b
00000170: 8be5 12bd 1824 953d 4c41 5fbd eb24 e73c
00000180: db9e af3d d003 4dbd 4584 7dbd 1482 9a3d
00000190: 05e2 3e3c 6ea4 6b3d b8a4 f23c 9189 1fbc
000001a0: e99e d5bd 450f aa3d d338 77bd b09c 9f3d
000001b0: 181d 4e3d 2e75 d73d ddb4 d53c 3b88 fb3d
000001c0: 05b9 8abc 32a7 2c3d e30f 11bd b38c c0bd
000001d0: e8f6 38bd 7557 a73d 1d63 c43d 22d7 a73d
000001e0: 0273 a7bd 43bd a3bd f0ca cf3d 2d26 953c
000001f0: fca9 03be ffa1 7fbd f4b9 34bd 1e61 87bd
00000200: 88a7 3e3d 6827 82bd c12c a33c dedb 143d
00000210: a389 a13d 34f2 2cbd 9b19 b9bd 896a e5bd
00000220: af4b 41bd 75d9 d7bd 79ef e5bd 513d fd3d
00000230: 587f f4bc 9f5e 5d3d b94c ccbd 8f52 6b3b
00000240: a42c 213d 4a4e 023e 74d2 923d f4bb e1bd
00000250: 36af 023d 6d93 c43d 14fb bf3c 934c 5d3c
00000260: a590 7cbd b9e1 b1bd ea24 533c 8518 8c3d
00000270: 632d 443d 5e6e 3cbc f74b 4dbd f538 8c3d
00000280: 11ca b2bd 724a 74bd a22f 9abc 2956 563c
00000290: 76cb 79bc 6fa2 b7bd 5b01 a7bc 14e1 86bc
000002a0: fc89 e73d 7ccd 35bd 6eea b53d 12d3 b2bd
000002b0: 6cf0 793d a74c 863d 8f84 edbd de6f 1abd
000002c0: cebf 863c 43a5 4c3d 25e2 783d 98bf b63d
000002d0: 0fd8 273d 749d dbbd ed5c 783c e8ef bd3d
000002e0: ff92 e9bd 350b da3d 4a1e 423d 35e8 a93d
000002f0: 3f60 a93d 4255 673d 3f5a a8bd 255d 5d3d
00000300: cd7c b1bd 5eb7 62bb 7067 853d 778b e73c
00000310: cb58 c2bd 127e cebd a1ab ad3d 0f1b 39bb
00000320: 4ee7 92bb c3f5 b1bd 40c1 823c ca12 843d
00000330: 5fbb d93d e480 423d 63ef 9dbd 2253 bbbd
00000340: 2303 103d 21b3 53bb fa79 a53d af99 8abd
00000350: b12e da3c 5152 b03d bd85 bfbd 5650 0bbd
00000360: e07d 203d 8bbf cdbd f497 353d 5d36 553d
00000370: 8773 a93d 3e8f 883d 3027 b9bd 8ac5 b53d
00000380: 9cf0 d73d ae8d 473d 0fd6 ac3d 92df f6bb
00000390: a34d e33c b9a6 8ebd 6094 cb3d 7367 b8bd
000003a0: 2728 853d f829 173d a639 b23d 09b4 9c3c
000003b0: e55b 3fbd 67b9 4db9 ed3c a03c d5b1 833d
000003c0: 5525 83bc e542 d23b 61d8 cebc d86c 89bd
000003d0: 027d 063e c775 a13d e39b ddbd b521 fc3d
000003e0: 1f79 5d3d 3b55 8d3d 662e f1bd 5cee efbc
000003f0: 8764 08be 39a7 02bc 42b3 0c3d 15ad 0bbd

fc.0.bias f4 [64]
0.06237991 -0.0015582528 -0.056637492 -0.08459244 -0.05060965 -0.110918365 -0.123300664 -0.08314524
0.106370635 0.0041151717 -0.11985212 0.06188485 -0.051334668 0.09000842 -0.08981436 -0.006025203
-0.101691894 -0.062170286 -0.13538794 0.042942673 0.036795594 0.07700225 0.03842399 0.059385452
-0.016619502 0.08205453 -0.05252442 0.035561588 0.018056475 -0.120213434 0.062086232 -0.06316782
-0.04508227 -0.06610902 -0.07034957 0.03559864 -0.0047013867 0.042851884 -0.016409054 -0.11617156
0.08744804 0.070509635 -0.049208183 0.021230442 0.055499204 0.015383231 0.012784365 -0.09724177
-0.049148556 0.08757522 0.007713192 0.020734342 -0.11911554 -0.06393533 0.10317893 0.030644223
5.724048e-05 0.117527075 0.07858183 0.12145189 0.025021253 0.07832239 0.116323054 -0.030875681
00000000: 1482 7f3d 4a3e ccba b7fc 67bd cd3e adbd
00000010: 104c 4fbd 2b29 e3bd 0f85 fcbd 0d48 aabd
00000020: d9d8 d93d 90d8 863b 0775 f5bd f87a 7d3d
00000030: 4d44 52bd 5656 b83d 97f0 b7bd 116f c5bb
00000040: d743 d0bd 45a6 7ebd 23a3 0abe a8e4 2f3d
00000050: fab6 163d 5bb3 9d3d 7962 1d3d 293e 733d
00000060: 9f25 88bc 350c a83d d923 57bd 07a9 113d
00000070: 2ceb 933c 7632 f6bd 224e 7e3d 215e 81bd
00000080: 30a8 38bd 2a64 87bd 6f13 90bd e1cf 113d
00000090: 170e 9abb 7585 2f3d 486c 86bc 5beb edbd
000000a0: f517 b33d 5b67 903d 858e 49bd 77eb ad3c
000000b0: 2253 633d f309 7c3c 8375 513c b126 c7bd
000000c0: ff4f 49bd a35a b33d f2be fc3b 11db a93c
000000d0: d9f2 f3bd 87f0 82bd 7a4f d33d 9809 fb3c
000000e0: 7f15 7038 09b2 f03d 83ef a03d c5bb f83d
000000f0: 5ff9 cc3c 7d67 a03d c83a ee3d ffee fcbc

fc.2.weight f4 [4, 64]
-0.08073339 0.024876786 0.005939408 0.036352947 -0.11842522 0.09583921 0.030132148 0.03619987
-0.10769639 0.071541384 0.060644146 0.07730728 0.14237365 -0.11221261 -0.027392078 0.10720471
-0.06274618 -0.0823278 -0.069218166 -0.107518986 0.010824882 -0.0910917 -0.11418028 0.10502803
0.073260464 0.017343575 -0.047977947 0.12264205 0.1629916 0.005456606 -0.083968595 -0.03674999
-0.1216662 0.07183235 -0.02153155 -0.0748248 -0.05623844 0.035627786 -0.16540527 0.120841704
-0.15691605 -0.009932614 0.023662211 -0.04767128 0.043565076 0.042858984 0.09182612 0.07402296
0.024354339 0.021775924 -0.10247365 0.09069036 -0.053917546 0.12375624 -0.036431294 -0.07654482
-0.030889058 0.13159296 0.10444245 0.029501373 -0.052683383 0.10507997 0.123128265 0.09065005
-0.11609514 -0.14170165 0.08210092 0.08236938 -0.098798014 0.09581026 0.0034734895 -0.042384703
0.113271095 0.007255637 -0.061910026 -0.048334725 -0.025899787 0.0028364505 -0.025813714 0.104787655
-0.03613935 -0.091585025 0.059615016 0.09068335 -0.09058988 -0.053170744 0.11608867 -0.07024987
0.0471852 -0.041105956 -0.03831878 -0.058804046 0.03816124 -0.051188964 -0.027843704 -0.086357675
0.03474094 -0.06254571 0.053222854 0.034348026 0.1618265 -0.089306645 0.027953362 0.013255644
-0.0182797 0.14555565 0.09700474 0.07947289 0.09462681 0.0014765842 -0.0753971 0.0059430804
0.1023415 -0.049010143 0.015334722 0.045197774 0.041591503 0.10835147 -0.022813462 0.08507788
-0.090986006 0.117131814 -0.02863941 0.026226573 -0.14647515 0.05079486 0.06265714 0.072827004
0.06547269 0.031829465 0.033231914 -0.011639573 0.09695198 -0.06646167 -0.094412595 0.065792285
-0.011645063 -0.093644455 -0.10728668 -0.07261276 0.07279313 0.050596446 0.055350646 0.09157432
0.078073874 0.102886446 -0.038124077 -0.018068654 0.12743911 0.09794152 -0.082968555 0.043186624
-0.023075711 -0.07507472 -0.008651796 -0.10851521 0.07117664 -0.02483014 -0.0760133 -0.16583073
0.019920856 0.030719526 -0.019785361 0.07669167 0.14459471 0.11893743 0.13985173 -0.102677085
0.009469791 -0.07664576 0.07699515 0.18843076 0.11047462 0.10428901 0.058853187 -0.016992457
-0.07169973 0.026541576 0.13341448 -0.041046683 -0.0311232 -0.111937106 -0.06688922 0.08569209
0.023566548 -0.0661028 0.13349633 -0.01459551 -0.047907118 0.0013069658 0.10278513 0.10171144
0.014656711 -0.05498051 -0.111172095 -0.096622586 -0.009610095 0.12082751 0.062353503 -0.08094824
0.15185216 -0.11723917 0.030706123 -0.08981075 0.032337632 0.04891337 0.12261189 0.051705625
0.04256853 0.052532405 0.025953911 -0.03162356 0.08140261 -0.11181219 0.002481391 0.035834454
0.07153526 -0.054670908 0.10869969 0.068891026 -0.1475702 -0.043875974 0.0024080698 0.036290824
0.023343738 -0.108017825 0.12276249 -0.12315622 -0.0021853645 -0.02597367 0.19282793 0.094980314
0.05240258 0.030579174 -0.0054319245 0.039119005 0.07630256 0.097338386 -0.019391831 -0.13467063
0.041426577 0.099866174 -0.06620689 -0.07217548 -0.0019405521 -0.0902947 -0.060611024 0.0652027
0.029213259 -0.11405812 0.040712137 -0.022771014 0.10913815 -0.093406126 0.008187415 0.03848402
00000000: 8c57 a5bd 67ca cb3c 5e9f c23b d4e6 143d
00000010: ec88 f2bd 5947 c43d b2d7 f63c 5146 143d
00000020: ed8f dcbd 4a84 923d ff65 783d 4753 9e3d
00000030: 66ca 113e bacf e5bd 5a65 e0bc 258e db3d
00000040: 1281 80bd 7a9b a8bd 41c2 8dbd ea32 dcbd
00000050: d95a 313c 498e babd 5ad7 e9bd f018 d73d
00000060: 9509 963d 1d14 8e3c 8684 44bd c12b fb3d
00000070: 45e7 263e 54cd b23b baf7 abbd 2887 16bd
00000080: 212c f9bd d71c 933d ef62 b0bc bf3d 99bd
00000090: 475a 66bd 71ee 113d 0060 29be db7b f73d
000000a0: 9aae 20be 67bc 22bc 41d7 c13c f642 43bd
000000b0: 4b71 323d e78c 2f3d 550f bc3d 5a99 973d
000000c0: c082 c73c 6c63 b23c b4dd d1bd debb b93d
000000d0: a5d8 5cbd e973 fd3d fb38 15bd 88c3 9cbd
000000e0: 0d0b fdbc 4ec0 063e ece5 d53d ddac f13c
000000f0: 88ca 57bd 2b34 d73d ac2a fc3d bca6 b93d
00000100: 4ac3 edbd 3d1a 11be 8724 a83d 47b1 a83d
00000110: 9d56 cabd 2b38 c43d 7ca3 633b 959b 2dbd
00000120: adfa e73d b2c0 ed3b 5e95 7dbd a2fa 45bd
00000130: ca2b d4bc bee3 393b 4877 d3bc e99a d63d
00000140: db06 14bd ee90 bbbd e02e 743d 31b8 b93d
00000150: 3087 b9bd 91c9 59bd e6bf ed3d 2adf 8fbd
00000160: 4545 413d b85e 28bd 27f4 1cbd 83dc 70bd
00000170: f64e 1c3d 85ab 51bd 7b18 e4bc 4bdc b0bd
00000180: 844c 0e3d f717 80bd 3500 5a3d 84b0 0c3d
00000190: d9b5 253e 67e6 b6bd 73fe e43c 332e 593c
000001a0: 4fbf 95bc 8a0c 153e 6caa c63d afc2 a23d
000001b0: b3cb c13d f289 c13a cb69 9abd 2cbe c23b
000001c0: 6c98 d13d dcbe 48bd 7c3e 7b3c 4d21 393d
000001d0: da5b 2a3d 60e7 dd3d 4ce3 babc 503d ae3d
000001e0: df56 babd cee2 ef3d 329d eabc 1cd9 d63c
000001f0: 95fd 15be 450e 503d 6352 803d 5326 953d
00000200: 8c16 863d 9d5f 023d 301e 083d e8b3 3ebc
00000210: c28e c63d 0e1d 88bd 645b c1bd 1bbe 863d
00000220: efca 3ebc aac8 bfbd 1eb9 dbbd 00b6 94bd
00000230: 9114 953d 383e 4f3d 5cb7 623d 518b bb3d
00000240: 32e5 9f3d 21b6 d23d fe27 1cbd b704 94bc
00000250: 667f 023e 9095 c83d 6beb a9bd 75e4 303d
00000260: 4609 bdbc c6c0 99bd 43c0 0dbc 393d debd
00000270: 0fc5 913d 9468 cbbc dcac 9bbd 88cf 29be
00000280: 1031 a33c 84a7 fb3c e914 a2bc 8610 9d3d
00000290: a310 143e 7895 f33d 4b35 0f3e 5d48 d2bd
000002a0: 2f27 1b3c 74f8 9cbd a2af 9d3d fef3 403e
000002b0: 8440 e23d 7a95 d53d 0a10 713d c433 8bbc
000002c0: 4fd7 92bd b86d d93c ce9d 083e 9120 28bd
000002d0: 15f6 febc 483f e5bd 37fd 88bd 567f af3d
000002e0: a20e c13c e860 87bd 43b3 083e 0222 6fbc
000002f0: 413a 44bd 7f4e ab3a 0381 d23d 164e d03d
00000300: b422 703c 3e33 61bd 32ae e3bd 10e2 c5bd
00000310: a973 1dbc 6a74 f73d 6366 7f3d 31c8 a5bd
00000320: 227f 1b3e 171b f0bd 688b fb3c b3ee b7bd
00000330: 7774 043d 6359 483d f11b fb3d 47c9 533d
00000340: 575c 2e3d 382c 573d 4c9d d43c b587 01bd
00000350: 69b6 a63d cafd e4bd d59e 223b 26c7 123d
00000360: 1481 923d 9aee 5fbd f19d de3d bd16 8d3d
00000370: a41c 17be 4bb7 33bd b5d0 1d3b b0a5 143d
00000380: 5e3b bf3c 7338 ddbd e66a fb3d 5439 fcbd
00000390: 5538 0fbb bcc6 d4bc af74 453e 0a85 c23d
000003a0: 16a4 563d 2d81 fa3c 49fe b1bb 403b 203d
000003b0: 8444 9c3d 5959 c73d 9edb 9ebc 19e7 09be
000003c0: eaae 293d a386 cc3d 7a97 87bd bdd0 93bd
000003d0: 205a feba 6dec b8bd 4443 78bd fe88 853d
000003e0: a550 ef3c 4e97 e9bd c5c1 263d 478a babc
000003f0: d383 df3d b64b bfbd 8224 063c 6ba1 1d3d

fc.2.bias f4 [4]
-0.012027161 -0.058428265 -0.036190066 -0.0982819
00000000: 920d 45bc 7a52 6fbd 093c 14bd 0548 c9bd
