main/models/test1/best_model.pt (torch, 43320 bytes, 7 tensors)

hist_emb.weight f4 [7, 8]
0.08040275 -1.3619143 0.6817565 0.3702875 -1.6279713 -0.74938947 0.59001684 -0.2449873
0.57379806 2.1138518 0.8132539 -0.37104622 0.5802356 0.5544816 -0.20839484 -0.905553
0.1523836 -0.41898367 -1.2279705 0.28072086 0.07805184 -0.17673711 0.716247 -0.054852124
-0.9758428 0.33453736 -0.20593768 -0.7071973 -0.13359104 -0.18407749 -0.48782024 0.43295285
0.087924495 -0.067560114 0.8561194 -0.659372 -1.032546 0.8759945 1.6667744 -1.7547432
0.18968713 0.2699194 0.14319995 0.44609216 -0.25790396 -0.77862424 0.6493097 1.6800995
0.0031885032 0.23456515 -1.3580925 0.06269785 -0.9178687 -0.34927368 -0.5168041 0.6757402
00000000: 32aa a43d 3553 aebf 9887 2e3f 5396 bd3e
00000010: 5d61 d0bf fdd7 3fbf 580b 173f f3dd 7abe
00000020: 6ee4 123f 5949 0740 6831 503f c5f9 bdbe
00000030: 528a 143f 82f2 0d3f 7565 55be 52d2 67bf
00000040: 720a 1c3e 0785 d6be 232e 9dbf a5ba 8f3e
00000050: a5d9 9f3d 93fa 34be f75b 373f 9fac 60bd
00000060: d5d0 79bf 7b48 ab3e 54e1 52be e20a 35bf
00000070: 17cc 08be cf7e 3cbe 93c3 f9be ffab dd3e
00000080: c211 b43d f55c 8abd a42a 5b3f 9acc 28bf
00000090: 782a 84bf 2d41 603f dd58 d53f 6d9b e0bf
000000a0: 583d 423e e032 8a3e 02a3 123e 3166 e43e
000000b0: fd0b 84be eb53 47bf 2939 263f 800d d73f
000000c0: 35f6 503b d931 703e fad5 adbf bb67 803d
000000d0: 71f9 6abf 00d4 b2be 464d 04bf 4ffd 2c3f

fc.0.weight f4 [64, 83]
0.052781045 -0.109666236 -0.025132984 -0.023642724 -0.11814937 -0.0050478834 0.0073792757 0.057846416
0.0076584504 0.014736013 -0.12999822 -0.1297562 0.010382321 -0.009349197 -0.088539355 0.10616103
0.10126355 0.12958254 -0.012682152 -0.05322072 -0.091697864 -0.054352853 -0.115247674 0.0814919
-0.05368801 -0.03558195 0.06933256 -0.12242751 -0.08868327 0.12917548 -0.09124907 -0.0027704395
0.019689567 0.1307607 0.08267211 0.040558375 -0.059461042 -0.007338293 -0.122144714 0.06983711
0.01458241 -0.07393757 0.049981665 -0.02644504 0.023270337 0.0583607 0.062452793 0.0393622
0.029764697 -0.05433035 -0.045558047 0.008983565 -0.07388789 -0.07713161 0.027267052 -0.037809595
0.067138255 -0.06854912 -0.11763825 -0.1229183 0.019416569 -0.061448496 -0.008415642 0.11733041
0.11794548 0.05993884 -0.060308415 0.052621517 -0.0027052227 -0.058570087 -0.0421202 -0.07483903
0.07953958 0.13322695 -0.06600442 0.002973911 0.040588528 0.025253925 -0.13139713 0.07813208
0.062123444 0.046310253 -0.09963276 -0.051453512 0.0061330544 0.07816614 0.058745466 -0.072843164
-0.07843818 -0.04197034 0.0043646283 0.027583942 -0.066860884 0.028706629 -0.078478605 -0.06283937
-0.034859255 0.038080312 0.047497433 -0.0006308183 -0.026401084 0.048855707 0.02599186 -0.06013578
0.01445252 -0.0553608 0.069492795 0.10376834 -0.08178561 -0.11461678 0.06443487 0.03102828
0.09090475 0.022002565 0.019492395 -0.004799938 -0.039462112 0.012138937 -0.033639606 -0.006157648
0.10359211 0.07324372 0.061769925 -0.068317704 0.003634609 -0.063888356 -0.039195493 -0.09154781
-0.085394144 -0.01668567 0.0695134 -0.025713269 0.05104348 -0.072267465 0.026885312 0.031649984
-0.0723285 0.07455369 -0.05879282 -0.049979586 0.07389504 -0.118025176 -0.1143113 -0.09526232
0.08023665 0.0036705774 -0.08438415 0.041338824 0.017140307 0.08405413 0.031332422 -0.08590059
0.11704567 -0.007080187 0.07815523 0.04424451 -0.03960963 -0.055819955 -0.009481681 -0.10989038
0.108049296 -0.103732646 0.09405492 -0.071232334 0.07092332 -0.12198376 -0.08692743 0.041382037
0.3633229 0.062641546 -0.077799186 0.14464153 0.02289755 0.028864393 -0.022199946 -0.037804026
0.03348583 0.04927614 0.003164014 0.036769364 -0.13508072 0.10901963 0.060811702 0.009100978
-0.008244302 0.012899825 0.042843502 0.11389803 -0.06440301 -0.037882622 -0.04834828 -0.022015294
-0.07921779 0.017589994 -0.05237285 0.016812768 -0.02657395 0.1286012 -0.024248423 0.1191812
-0.047048587 -0.08259956 -0.07711094 -0.027915603 -0.002255966 0.13974585 0.02532037 0.07782478
0.017395772 -0.072687484 0.0016200369 0.13678905 -0.13852434 0.04741423 0.026601719 -0.025220314
-0.105664745 0.07558841 0.038700227 0.110694245 -0.108240984 0.09143175 0.084904484 0.014798389
-0.061467607 -0.10486791 0.027511476 0.021450879 -0.0969102 0.0613428 0.0078727845 0.05400234
0.008143388 -0.027393186 0.0230447 0.015866458 0.04606019 0.065724745 0.08110065 0.10150041
-0.08365402 -0.04511872 -0.07481856 0.024852665 0.03968823 0.054871883 0.046134695 0.14676534
-0.050579723 -0.02699308 0.042489864 -0.63364565 0.06223994 -0.10946566 0.01012972 -0.1138716
00000000: f030 583d b198 e0bd b0e3 cdbc 63ae c1bc
00000010: 4cf8 f1bd b768 a5bb dacd f13b 5df0 6c3d
00000020: bdf3 fa3b 516f 713c 411e 05be cfde 04be
00000030: 9c1a 2a3c 602d 19bc 1f54 b5bd f46a d93d
00000040: 4463 cf3d 49b1 043e cdc8 4fbc f8fd 59bd
00000050: 17cc bbbd 19a1 5ebd f906 ecbd 3ae5 a63d
00000060: f5e7 5bbd 61be 11bd 3bfe 8d3d 46bb fabd
00000070: 939f b5bd 9446 043e cbe0 babd 4390 35bb
00000080: 044c a13c 22e6 053e ff4f a93d 8a20 263d
00000090: 6c8d 73bd 1076 f0bb 0227 fabd c206 8f3d
000000a0: 10eb 6e3c 956c 97bd 93b9 4c3d 45a3 d8bc
000000b0: 6fa1 be3c a10b 6f3d 80ce 7f3d 423a 213d
000000c0: 18d5 f33c 8089 5ebd 139b 3abd cd2f 133c
000000d0: 8952 97bd 2df7 9dbd 275f df3c 3cde 1abd
000000e0: c87f 893d 7b63 8cbd 53ec f0bd 97bc fbbd
000000f0: 7f0f 9f3c 6bb1 7bbd c3e1 09bc ed4a f03d
00000100: 668d f13d 6e82 753d f505 77bd a989 573d
00000110: 1b4a 31bb 30e7 6fbd 3b86 2cbd 3545 99bd
00000120: a6e5 a23d a56c 083e 532d 87bd f2e5 423b
00000130: 2840 263d 52e1 ce3c f88c 06be b603 a03d
00000140: 2775 7e3d d2af 3d3d 430c ccbd ebc0 52bd
00000150: caf7 c83b 9215 a03d 169f 703d cc2e 95bd
00000160: 32a4 a0bd 17e9 2bbd 2805 8f3b b8f7 e13c
00000170: 5cee 88bd 2a2a eb3c 64b9 a0bd edb1 80bd
00000180: 94c8 0ebd 1afa 1b3d ab8c 423d 805d 25ba
00000190: 1647 d8bc ec1c 483d e2ec d43c f050 76bd
000001a0: 43ca 6c3c 02c2 62bd 3d52 8e3d 7f84 d43d
000001b0: 377f a7bd 34bc eabd 6ef6 833d 052f fe3c
000001c0: 452c ba3d b93e b43c 84ae 9f3c cc48 9dbb
000001d0: 06a3 21bd 64e2 463c afc9 09bd 18c6 c9bb
000001e0: 1a28 d43d ce00 963d 7602 7d3d 27ea 8bbd
000001f0: 9f32 6e3b e6d7 82bd 748b 20bd 6b7d bbbd
00000200: 20e3 aebd 63b0 88bc 0b5d 8e3d a2a4 d2bc
00000210: f812 513d f700 94bd 963e dc3c 6aa3 013d
00000220: f720 94bd 9baf 983d bdd0 70bd 65b7 4cbd
00000230: 4856 973d 2fb7 f1bd 0b1c eabd e418 c3bd
00000240: 1d53 a43d 128e 703b 99d1 acbd e652 293d
00000250: d469 8c3c 9224 ac3d 6d56 003d a6ec afbd
00000260: a4b5 ef3d ea00 e8bb d90f a03d bb39 353d
00000270: b53d 22bd 77a3 64bd 0d59 1bbc 350e e1bd
00000280: f348 dd3d c871 d4bd de9f c03d 42e2 91bd
00000290: 3f40 913d 9fd2 f9bd 0207 b2bd 3680 293d
000002a0: 7605 ba3e 364a 803d 2e55 9fbd e91c 143e
000002b0: a593 bb3c 0575 ec3c a9dc b5bc 65d8 1abd
000002c0: 7028 093d c7d5 493d 595b 4f3b 799b 163d
000002d0: 9a52 0abe af45 df3d b115 793d 451c 153c
000002e0: 1c13 07bc ca59 533c ab7c 2f3d 5f43 e93d
000002f0: bae5 83bd cf2a 1bbd d908 46bd 6b59 b4bc
00000300: f03c a2bd e418 903c ea84 56bd eeba 893c
00000310: 9db1 d9bc 08b0 033e a1a4 c6bc 4615 f43d
00000320: 05b6 40bd f529 a9bd 57ec 9dbd 43af e4bc
00000330: d4d8 13bb 8919 0f3e aa6c cf3c 9962 9f3d
00000340: 9481 8e3c 2ddd 94bd 6b57 d43a 6e12 0c3e
00000350: 53d9 0dbe 6c35 423d d9eb d93c d59a cebc
00000360: c266 d8bd 19ce 9a3d 2184 1e3d aab3 e23d
00000370: 73ad ddbd 9240 bb3d 67e2 ad3d f174 723c
00000380: 75c5 7bbd fdc4 d6bd bf5f e13c c1b9 af3c
00000390: db78 c6bd 9642 7b3d dafc 003c 8f31 5d3d
000003a0: d86b 053c ad67 e0bc 3dc8 bc3c 60fa 813c
000003b0: 9ca9 3c3d b29a 863d 1918 a63d 72df cf3d
000003c0: cd52 abbd 68ce 38bd 793a 99bd d197 cb3c
000003d0: 2090 223d 57c1 603d bcf7 3c3d a749 163e
000003e0: af2c 4fbd 9720 ddbc da09 2e3d 9a36 22bf
000003f0: 4fef 7e3d 882f e0bd 20f7 253c 8335 e9bd

fc.0.bias f4 [64]
-0.11320567 0.046306565 -0.005584635 -0.0685822 0.038861014 0.091067664 0.035941735 0.032179248
-0.021882748 -0.12968567 -0.0074035265 0.0011061882 0.012278222 -0.024794837 0.100863144 0.023520673
-0.119681455 -0.031872 -0.06298608 0.062307302 -0.025890732 0.057508968 -0.05493118 -0.041461535
-0.020954382 0.04225729 0.038533036 -0.054675993 0.007961865 0.07275254 0.09118894 -0.05966094
-0.1149859 -0.099289 0.086310536 -0.015014218 -0.1015791 -0.082667865 0.037867524 0.011781465
-0.109012924 -0.10498354 -0.12746741 0.09048736 0.1027869 -0.02630537 0.07449457 -0.013126373
-0.029230481 -0.10958118 0.08776999 0.092855506 0.00313244 0.10223295 0.035864558 0.0628902
0.106344126 0.050124317 0.05259061 -0.016373435 0.08001775 0.05446024 0.0112811625 0.049831584
00000000: 60d8 e7bd f4ab 3d3d 50ff b6bb d374 8cbd
00000010: ba2c 1f3d af81 ba3d a437 133d 63ce 033d
00000020: 7343 b3bc 52cc 04be 4899 f2bb 84fd 903a
00000030: 982a 493c 8b1e cbbc 5691 ce3d 6dae c03c
00000040: 8d1b f5bd 378c 02bd d9fe 80bd f135 7f3d
00000050: cd18 d4bc 868e 6b3d 84ff 60bd 92d3 29bd
00000060: 86a8 abbc fb15 2d3d d1d4 1d3d eff3 5fbd
00000070: 7b72 023c 49ff 943d 44c1 ba3d 085f 74bd
00000080: ba7d ebbd 0858 cbbd 94c3 b03d 32fe 75bc
00000090: b408 d0bd c54d a9bd fa1a 1b3d 0c07 413c
000000a0: 2b42 dfbd 9c01 d7bd d186 02be 7051 b93d
000000b0: f081 d23d 5c7e d7bc 9c90 983d 0010 57bc
000000c0: c374 efbc 196c e0bd c1c0 b33d 072b be3d
000000d0: 9f49 4d3b 825f d13d b7e6 123d 94cc 803d
000000e0: f3ca d93d 284f 4d3d 4069 573d 9521 86bc
000000f0: 59e0 a33d b311 5f3d a0d4 383c 341c 4c3d

fc.2.weight f4 [64, 64]
0.06778142 -0.03429994 -0.13113846 -0.059310235 0.021932442 0.06213765 0.009473175 0.0298367
0.09671126 -0.09270296 0.09463893 0.08468158 0.086379975 0.016770065 0.018732117 0.0360678
-0.0809065 -0.067187905 -0.033175446 -0.030893981 -0.12762912 0.07387915 -0.10287482 0.08090016
-0.09524542 -0.09188932 0.060549933 -0.08670843 -0.045281906 -0.096450165 0.04433397 -0.061292544
0.07501708 -0.08368877 -0.11848708 -0.11328713 0.0987469 -0.10414596 0.08151372 -0.038818955
-0.098614246 -0.06549429 -0.13098054 -0.08061834 0.07873219 0.0879836 0.09481873 0.008133069
0.0698695 -0.056051433 0.016160026 0.102372736 -0.07487613 0.07687904 -0.061029185 0.0170543
-0.119388804 -0.026819952 0.10688148 -0.012538866 0.096595705 0.07590249 -0.00521123 -0.0050660977
0.035559136 0.07354778 -0.053879138 0.021518003 -0.016445791 0.018604338 0.015048966 -0.1075668
-0.061879694 0.04399934 0.028215038 -0.01369964 0.04020199 -0.061677977 -0.11435551 -0.24575764
0.09713775 -0.11675422 0.09377975 -0.05607824 0.02332649 0.07712547 -0.008834382 0.13387206
-0.07165667 0.074186 0.11248584 -0.0028010607 0.09550092 0.09660932 -0.096933305 0.07929594
0.08600162 0.017023781 0.063874185 0.09648024 -0.04291368 0.023580715 0.076049194 0.05275312
-0.050725996 0.009650398 -0.00651319 -0.11059056 -0.091995776 0.031937998 0.09536663 0.041346386
0.070653826 0.028996438 -0.07128516 -0.27217928 0.058777023 -0.11581132 -0.07905529 0.048447587
0.0058069974 0.05591328 -0.10355208 -0.018160075 0.010624349 -0.10286742 -0.13653108 0.11977607
0.10838139 0.022038022 0.022543773 0.059475876 -0.070042446 0.124616146 0.11218034 -0.01238361
-0.06677188 0.06284884 0.07112559 0.0027386877 -0.034743816 0.0093809515 -0.08433759 0.08327018
0.09821651 0.086027 -0.013874376 0.056543812 0.108739406 0.040036827 0.063853 0.013536924
-0.080824964 -0.038752362 -0.041677654 -0.051870525 -0.03290146 0.07345765 -0.038568035 0.12146776
-0.028187778 -0.07114694 0.04433196 0.033146687 0.13512394 0.07594569 0.11471996 0.030401751
0.08265746 0.04458488 -0.088307165 -0.11875896 -0.03811468 -0.09246656 -0.040778723 0.08958708
0.027123258 0.07114747 -0.09963776 0.37701148 -0.021345612 -0.0035499185 0.11209553 -0.08526556
0.06861979 -0.08607257 -0.05596286 0.09671865 0.031294227 0.07893629 -0.021861622 0.09805042
-0.061616763 0.12304252 0.122374654 -0.031636305 -0.0019297181 0.063517705 -0.033195198 -0.04718837
0.12474111 -0.09320231 0.0323699 0.068050355 -0.087544754 0.101521 0.11357476 -0.036746245
-0.025405852 0.1099965 0.13021693 0.017696664 0.13590115 -0.05068532 0.10304115 -0.10622542
0.11892166 0.062054604 0.09307758 0.048587784 0.11198678 0.013505191 -0.09567614 0.014723665
0.057441376 0.013886656 0.09960599 0.04384344 -0.08426443 -0.10222906 0.01606965 0.021989316
-0.057170734 -0.037851583 -0.014137402 -0.026343912 0.088110074 0.07753025 0.10737718 0.11998075
0.1051666 0.121219024 -0.09310466 -0.1958286 0.015038147 0.058707952 0.112616174 0.11347907
-0.10313882 -0.09880451 -0.028719852 -0.054984637 0.06415385 -0.04584005 0.085947275 0.09755405
00000000: fcd0 8a3d 187e 0cbd 2949 06be 4aef 72bd
00000010: aaab b33c 0c84 7e3d 6035 1b3c 186c f43c
00000020: 8e10 c63d 0ddb bdbd 0ed2 c13d 896d ad3d
00000030: fce7 b03d 6061 893c 1974 993c d4bb 133d
00000040: 4fb2 a5bd d099 89bd fae2 07bd 6015 fdbc
00000050: 35b1 02be f44d 973d 09b0 d2bd fcae a53d
00000060: 0810 c3bd 7830 bcbd 3503 783d 3094 b1bd
00000070: 8579 39bd aa87 c5bd 8997 353d e40d 7bbd
00000080: 8ea2 993d 0565 abbd 5ba9 f2bd 1503 e8bd
00000090: d13b ca3d 7a4a d5bd aaf0 a63d a000 1fbd
000000a0: 44f6 c9bd df21 86bd c31f 06be 3a1b a5bd
000000b0: 583e a13d bf30 b43d 5330 c23d 9040 053c
000000c0: be17 8f3d 3096 65bd 0862 843c cca8 d13d
000000d0: a858 99bd c272 9d3d bdf9 79bd 76b5 8b3c
000000e0: 1e82 f4bd 84b5 dbbc ade4 da3d d16f 4dbc
000000f0: f8d3 c53d c472 9b3d f7c2 aabb 8201 a6bb
00000100: 75a6 113d 38a0 963d 5fb0 5cbd 8646 b03c
00000110: 53b9 86bc 2068 983c f08f 763c fc4b dcbd
00000120: 9075 7dbd a738 343d 3923 e73c 7474 60bc
00000130: d8aa 243d 0ca2 7cbd 3933 eabd e4a7 7bbe
00000140: 28f0 c63d d61c efbd 990f c03d 4cb2 65bd
00000150: 3217 bf3c f5f3 9d3d 15be 10bc c215 093e
00000160: bbc0 92bd d4ee 973d fa5e e63d 0092 37bb
00000170: fd95 c33d 1bdb c53d f884 c6bd e965 a23d
00000180: 9e21 b03d 7575 8b3c 78d0 823d 6f97 c53d
00000190: 41c6 2fbd 582c c13c aebf 9b3d a813 583d
000001a0: 10c6 4fbd b41c 1e3c 996c d5bb 4e7d e2bd
000001b0: 4868 bcbd 6bd1 023d 944f c33d d45a 293d
000001c0: f4b2 903d f089 ed3c f4fd 91bd 155b 8bbe
000001d0: 2dc0 703d 7c2e edbd bde7 a1bd fa70 463d
000001e0: a048 be3b 5305 653d 1d13 d4bd 70c4 94bc
000001f0: c011 2e3c 27ac d2bd cece 0bbe 284d f53d
00000200: 10f7 dd3d 1589 b43c b8ad b83c fa9c 733d
00000210: 6a72 8fbd c036 ff3d cebe e53d a0e4 4abc
00000220: b2bf 88bd e5b6 803d 4baa 913d 8e7b 333b
00000230: 884f 0ebd 90b2 193c 30b9 acbd 8e89 aa3d
00000240: bd25 c93d ec2e b03d 5a51 63bc 7c9a 673d
00000250: c4b2 de3d a8fd 233d 5dc5 823d f9c9 5d3c
00000260: 8f87 a5bd ccba 1ebd 30b6 2abd 3076 54bd
00000270: aec3 06bd f770 963d 84f9 1dbd 17c4 f83d
00000280: 0eea e6bc 7db5 91bd 6e95 353d d2c4 073d
00000290: ee5d 0a3e 6a89 9b3d 4cf2 ea3d 180d f93c
000002a0: 5048 a93d a39e 363d 63da b4bd e637 f3bd
000002b0: 241e 1cbd 1c5f bdbd 9707 27bd 6e79 b73d
000002c0: 9831 de3c c4b5 913d e20e ccbd a607 c13e
000002d0: fedc aebc c0a5 68bb 5792 e53d b69f aebd
000002e0: 8888 8c3d d146 b0bd 5039 65bd 6d14 c63d
000002f0: 602e 003d 5aa9 a13d 2517 b3bc a9ce c83d
00000300: dc61 7cbd b7fd fb3d 909f fa3d 1295 01bd
00000310: 98ee fcba 9215 823d b0f7 07bd 9848 41bd
00000320: 4478 ff3d dae0 bebd 4d96 043d fc5d 8b3d
00000330: aa4a b3bd 3eea cf3d e299 e83d 3b83 16bd
00000340: ef1f d0bc d845 e13d 9657 053e 98f8 903c
00000350: ac29 0b3e 699b 4fbd 3d07 d33d b78c d9bd
00000360: 338d f33d f82c 7e3d 759f be3d fc03 473d
00000370: 5359 e53d e044 5d3c daf1 c3bd 873b 713c
00000380: a647 6b3d db84 633c 3afe cb3d 2e95 333d
00000390: d492 acbd 785d d1bd 80a4 833c f022 b43c
000003a0: dc2b 6abd 430a 1bbd 90a0 67bc 30cf d7bc
000003b0: 0e73 b43d 2ec8 9e3d 91e8 db3d 78b8 f53d
000003c0: 9661 d73d ae41 f83d a8ad bebd 4b87 48be
000003d0: 8f62 763c c077 703d 4fa3 e63d b767 e83d
000003e0: 723a d3bd 055a cabd e545 ebbc 9237 61bd
000003f0: 1863 833d c7c2 3bbd 2005 b03d 6bca c73d

fc.2.bias f4 [64]
0.0003115394 0.046432644 0.12375414 0.08302201 -0.033936772 0.062540755 -0.005203709 0.002710911
-0.1180553 -0.03970049 0.038462296 0.09827998 -0.121802196 0.06865308 0.07090667 0.020330492
0.06622655 0.12911761 -0.14382432 -0.10694502 -0.023461781 0.09092544 -0.06525014 0.008842111
-0.040230826 -0.010785396 -0.07573651 0.0073526967 0.05567448 -0.0034425869 -0.08589764 -0.10458191
0.016758323 0.040194243 0.047045615 -0.066886276 0.09118681 0.061997186 0.1275997 -0.0010469907
-0.0036726445 0.019315388 0.09522109 -0.078373 0.011937547 -0.062207684 -0.08113585 -0.032015603
0.12074078 0.0099168625 -0.07916589 -0.0760417 -0.01285041 -0.0022394292 -0.09283704 -0.08550441
0.0525389 0.030819925 -0.047866996 0.092902735 0.004087904 0.06412953 0.015861645 -0.0035660493
00000000: 1c56 a339 2830 3e3d d072 fd3d 7207 aa3d
00000010: 4901 0bbd 5e15 803d e083 aabb 8aa9 313b
00000020: fac6 f1bd fb9c 22bd a48a 1d3d 0447 c93d
00000030: 6e73 f9bd fc99 8c3d 8437 913d 228c a63c
00000040: c9a1 873d 6837 043e af46 13be fe05 dbbd
00000050: ec32 c0bc 1e37 ba3d dea1 85bd 80de 103c
00000060: 14c9 24bd 3bb5 30bc be1b 9bbd e4ee f03b
00000070: ec0a 643d 069d 61bb 1aeb afbd 0a2f d6bd
00000080: c048 893c b8a2 243d e7b2 403d acfb 88bd
00000090: 26c0 ba3d c3f0 7d3d 7fa9 023e 2e3b 89ba
000000a0: c0b0 70bb 4e3b 9e3c 4603 c33d 0682 a0bd
000000b0: b395 433c 7ccd 7ebd 8d2a a6bd cb22 03bd
000000c0: f146 f73d 567a 223c ba21 a2bd c0bb 9bbd
000000d0: 878a 52bc 63c3 12bb 5921 bebd f01c afbd
000000e0: 0833 573d 117a fc3c 2f10 44bd ca43 be3d
000000f0: d3f3 853b 5856 833d 48f0 813c 61b4 69bb

fc.4.weight f4 [6, 64]
0.10798359 0.038521066 0.06830135 0.013434762 0.034419607 0.020681115 -0.12084153 -0.08062089
-0.084456936 -0.049428083 0.07284766 -0.015658086 -0.057185233 0.089902826 0.006581763 -0.12925892
0.09573854 0.0019380513 0.34457475 -0.10220282 0.049153488 0.104015246 -0.078686655 -0.0032614917
-0.030271549 0.110435545 0.07583106 -0.027198186 -0.027274147 -0.12756352 0.04545544 0.04217777
0.05918905 -0.08736276 0.0069278223 -0.07018096 0.0011199564 0.011606247 0.298886 0.07581935
0.11157019 -0.024032468 -0.10579206 0.011421503 -0.105186634 -0.06862892 0.046559673 0.0930613
-0.13776547 0.18248388 0.069338284 -0.0108034955 -0.07245169 -0.09247039 0.11504908 0.1019705
0.10254645 0.09725533 -0.042250674 -0.09402021 0.013496263 0.016762123 -0.06678258 -0.062140886
0.0032526886 -0.011501245 -0.74688834 -0.021788673 -0.106497586 -0.16772182 0.010609418 -0.084881596
-0.028161915 0.07276015 0.0448305 -0.040733624 -0.028698355 0.053114533 0.037805445 0.016752388
-0.1382276 -0.015335619 -0.12297511 -0.0889679 -0.059778687 -0.14109384 -0.047596186 0.10239585
-0.054107253 -0.2640527 -0.1838759 -0.04759353 -0.11456239 0.028074263 0.026175166 -0.10519916
0.099920094 -0.06834102 -0.0077203745 -0.60337853 0.1041193 0.08779373 -0.111053385 -0.13132833
-0.038477555 0.03532096 -0.07442428 0.05238123 -0.03678053 -0.045974404 -0.13583599 -0.1493403
-0.0622211 -0.026797231 -0.101799905 -0.0039095827 -0.092041075 -0.091353 -0.2727905 0.049509265
-0.062037632 -0.19321714 -0.066253066 -0.060682453 0.08400506 -0.1577045 -0.034573883 -0.117115304
-0.09255206 0.12226078 0.0478602 0.06273493 0.11842985 0.060700525 -0.031261623 -0.08981789
0.038157143 0.10589192 -0.010020857 0.016701272 0.11073217 0.05017177 -0.07255981 -0.092233844
-0.015788065 0.111084364 -0.3540909 0.11235901 0.05546187 0.06965529 0.0070570856 0.108928666
-0.05535869 0.0421853 0.11785243 -0.06826897 0.123685956 -0.096108906 0.001895233 0.025303083
0.028203353 0.099024005 -0.0025200837 0.00700195 -0.06548017 -0.05473471 0.047082983 0.028191267
-0.0068616406 -0.0008262009 0.050779052 -0.023401095 -0.031045064 0.010305002 -0.049006127 0.050466523
-0.21331987 -0.031827625 -0.07106836 -0.043284386 0.006563742 -0.09699293 0.04514309 -0.0023349093
-0.072894 -0.07885231 -0.04445913 0.05773586 0.023849946 -0.031937383 -0.04736428 -0.11636331
0.08868292 -0.060674608 -0.8450602 0.009831367 -0.2364603 -0.059401773 0.0600404 -0.044207066
-0.12105363 -0.16929872 -0.068955846 -0.06852506 0.01245293 0.03871176 -0.047865164 0.07814849
-0.1932665 -0.08093991 0.061724633 -0.09174239 -0.049837675 -0.008036259 -0.05314386 -0.06255333
-0.16090734 -0.2489385 -0.08554856 -0.07090395 -0.050664812 -0.010064124 -0.16248415 -0.1906102
0.10192259 -0.20114261 -0.03316109 -0.41523904 -0.02192691 0.0643061 -0.16832659 -0.043798584
-0.14893296 -0.120020874 -0.005537591 -0.18272367 0.06615435 0.0011178553 -0.062058408 -0.30001834
-0.18791063 -0.08223211 -0.07908449 -0.042641293 -0.15480953 -0.13023213 -0.2305101 -0.09519695
-0.09721475 -0.19231352 -0.041288253 -0.10892567 0.032214012 -0.08723844 -0.09626305 -0.036422066
00000000: 8026 dd3d 44c8 1d3d 94e1 8b3d 7a1d 5c3c
00000010: 93fb 0c3d 716b a93c c47b f7bd 911c a5bd
00000020: c2f7 acbd 1a75 4abd 2731 953d 6345 80bc
00000030: 103b 6abd f91e b83d d4ab d73b 735c 04be
00000040: 9112 c43d 3606 fe3a 1a6c b03e b64f d1bd
00000050: 2b55 493d f205 d53d 7826 a1bd c0be 55bb
00000060: 0afc f7bc 082c e23d 514d 9b3d bbce debc
00000070: 086e dfbc 03a0 02be 7c2f 3a3d 99c2 2c3d
00000080: 3870 723d 3feb b2bd c902 e33b 09bb 8fbd
00000090: 80cb 923a 2128 3e3c 9607 993e 2d47 9b3d
000000a0: e97e e43d bddf c4bc 82a9 d8bd 4121 3b3c
000000b0: 176c d7bd 528d 8cbd 5bb5 3e3d ec96 be3d
000000c0: 6412 0dbe 0edd 3a3e 3b01 8e3d 2501 31bc
000000d0: 8d61 94bd 1e61 bdbd da9e eb3d e9d5 d03d
000000e0: e003 d23d cd2d c73d 0b0f 2dbd ab8d c0bd
000000f0: 6e1f 5d3c b850 893c 4ec5 88bd 7187 7ebd
00000100: 0f2b 553b b86f 3cbc 1334 3fbf 297e b2bc
00000110: 681b dabd 45bf 2bbe 20d3 2d3c 67d6 adbd
00000120: d1b3 e6bc 4603 953d 30a0 373d 4dd8 26bd
00000130: d018 ebbc a08e 593d e2d9 1a3d 4e3c 893c
00000140: 898b 0dbe 4042 7bbc 60da fbbd cd34 b6bd
00000150: 7fda 74bd e77a 10be 38f4 42bd eab4 d13d
00000160: 919f 5dbd ea31 87be f749 3cbe 6ff1 42bd
00000170: b09f eabd fffb e53c 4d6d d63c a872 d7bd
00000180: e8a2 cc3d 60f6 8bbd 32fb fcbb 0477 1abf
00000190: 803c d53d 33cd b33d f56f e3bd ef7a 06be
000001a0: a49a 1dbd b6ac 103d c26b 98bd b38d 563d
000001b0: 2ea7 16bd a84f 3cbd 9718 0bbe aaec 18be
000001c0: 8ddb 7ebd de85 dbbc 787c d0bd f51b 80bb
000001d0: 0880 bcbd 4817 bbbd 32ab 8bbe 3aca 4a3d
000001e0: 2c1b 7ebd b7da 45be b0af 87bd 2a8e 78bd
000001f0: d80a ac3d 4a7d 21be 589d 0dbd 26da efbd
00000200: ef8b bdbd dc63 fa3d 0f09 443d 2c7b 803d
00000210: 598b f23d 1da1 783d 300c 00bd 71f2 b7bd
00000220: aa4a 1c3d dddd d83d 852e 24bc 1bd1 883c
00000230: 8cc7 e23d ea80 4d3d 3d9a 94bd 19e5 bcbd
00000240: f955 81bc 3380 e33d 674b b5be 7b1c e63d
00000250: fc2b 633d 6fa7 8e3d 203f e73b fe15 df3d
00000260: cbbf 62bd 7eca 2c3d 9d5c f13d 9ad0 8bbd
00000270: 104f fd3d bfd4 c4bd 7869 f83a 6948 cf3c
00000280: b80a e73c 19cd ca3d fd27 25bb 9d70 e53b
00000290: 781a 86bd 8131 60bd 16da 403d 5ff1 e63c
000002a0: 9dd7 e0bb 6795 58ba b2fd 4f3d a7b3 bfbc
000002b0: 3852 febc 50d6 283c a6ba 48bd fcb5 4e3d
000002c0: 8670 5abe af5d 02bd 4a8c 91bd f84a 31bd
000002d0: a914 d73b 3ba4 c6bd f6e7 383d 4705 19bb
000002e0: 7349 95bd 527d a1bd c71a 36bd 707c 6c3d
000002f0: f660 c33c c6d0 02bd 0c01 42bd e34f eebd
00000300: 649f b53d f085 78bd de55 58bf be13 213c
00000310: a622 72be 464f 73bd ecec 753d 7812 35bd
00000320: f7ea f7bd a55c 2dbe b938 8dbd de56 8cbd
00000330: 6007 4c3c 3990 1e3d 430e 44bd 510c a03d
00000340: a7e7 45be d3c3 a5bd f8d2 7c3d 6fe3 bbbd
00000350: 9722 4cbd 83aa 03bc 60ad 59bd f61b 80bd
00000360: e5c4 24be bce9 7ebe 1534 afbd 1736 91bd
00000370: e885 4fbd ffe3 24bc 3f62 26be 522f 43be
00000380: cabc d03d 54f8 4dbe ecd3 07bd 369a d4be
00000390: 10a0 b3bc ebb2 833d ce5d 2cbe 2566 33bd
000003a0: e281 18be 81cd f5bd ae74 b5bb ea1b 3bbe
000003b0: ef7b 873d 0085 923a f530 7ebd 019c 99be
000003c0: a56b 40be 4f69 a8bd 0df7 a1bd a3a8 2ebd
000003d0: 6486 1ebe 925b 05be d70a 6cbe 9ef6 c2bd
000003e0: 8718 c7bd d6ed 44be df1d 29bd 6c14 dfbd
000003f0: d7f2 033d 11aa b2bd 9025 c5bd 4e2f 15bd

fc.4.bias f4 [6]
0.14032277 -0.038139164 0.08797849 -0.0035415532 -0.15089853 -0.04777585
00000000: c6b0 0f3e d037 1cbd 112e b43d 6719 68bb
00000010: 2585 1abe 9cb0 43bd
