main/models/LSTMSanity/best_model.pt (torch, 108601 bytes, 9 tensors)

hist_emb.weight f4 [7, 16]
000000 35 b2 87 3e ba c4 b2 be b5 85 8e 3e 29 66 d9 3f
       0.2650315 -0.34915715 0.27836385 1.6984302
000010 cb 8f f2 3f f9 f0 dc 3e 45 5c 15 c0 d7 5a 80 3f
       1.8950132 0.43152598 -2.3337567 1.0027722
000020 c0 8c bb 3e ce 9f 2f c0 3e af 03 3e 6e c2 8d 3f
       0.3663082 -2.7441287 0.12859818 1.107496
000030 f8 fa dd be 8a b1 77 bf 83 01 ab be f3 ba df bf
       -0.43355536 -0.9675528 -0.3339959 -1.7478927
000040 74 17 8d be 60 ab 01 bf 01 21 5b bf 69 22 37 3f
       -0.27556956 -0.5065212 -0.85597235 0.7153688
000050 62 d6 ba bd aa 06 be 3e 51 dd 29 3f 4a f4 91 bf
       -0.091229215 0.3711446 0.6635333 -1.1402676
000060 09 ef 7f bf dc c0 c6 be b7 0a 17 c0 37 9f ad 3f
       -0.99974114 -0.38819015 -2.360029 1.3564214
000070 46 5b 43 be ee 1b 79 bf b9 a5 15 3f 56 c7 99 3f
       -0.19077787 -0.9730824 0.58456 1.2013958
000080 b1 53 47 bf 34 e6 f7 be a8 ca aa 3f 37 87 c7 3f
       -0.7786208 -0.4841782 1.3343096 1.5588139
000090 f6 61 1e 3f b3 9f cc bf e2 88 92 3e e7 31 6b be
       0.61868227 -1.5986236 0.28620058 -0.22968255
0000a0 47 73 1e bf 47 81 c4 be 52 1f 1c bf 74 e4 91 bf
       -0.6189465 -0.3837988 -0.6098529 -1.1397843
0000b0 77 86 b5 bf 77 54 31 3f b1 01 f8 bf 0a 68 89 be
       -1.418166 0.6926951 -1.9375516 -0.26837188
0000c0 8b 39 8e 3e e7 c5 15 bf ba 77 de 3e ff 4a 60 be
       0.27778277 -0.585051 0.4345072 -0.21903609
0000d0 ef 7c da 3e 0b 0b 3b bf 29 17 8b 3f e6 d0 1a bf
       0.42673442 -0.73063725 1.0866443 -0.60475004
0000e0 7b fb 94 bf a7 9e e6 bd 73 a2 ca bd 6f 16 78 bf
       -1.1639246 -0.11260729 -0.09894266 -0.9690923
0000f0 06 f2 4f 3e e4 37 f4 3e 63 52 15 3f 4a 25 e6 3f
       0.20307168 0.4769889 0.5832884 1.798013
000100 d4 a9 66 be 4b e6 ad bf 52 1e 4b 3f 66 cd 67 be
       -0.22525722 -1.3585905 0.7934314 -0.22636947
000110 cd e1 8a be e2 77 e0 bf 34 dc b2 3f 8d 51 05 40
       -0.27125397 -1.7536585 1.3973451 2.0831025
000120 73 ff fb 3f 26 e1 b1 be 91 4a 3b bc 4e 2b 57 bf
       1.9687332 -0.34742087 -0.011431352 -0.8405045
000130 84 11 b8 3f ff 25 9d 3f f2 87 9e bf 6a 10 fc 3e
       1.4380345 1.227722 -1.2385237 0.49231273
000140 ef ce 81 be ff bc a7 be 5d 55 11 40 cd fb 8d be
       -0.2535319 -0.3276138 2.2708352 -0.2773117
000150 63 51 dc bf ff 38 cb 3f d6 c7 17 3f d9 b4 01 be
       -1.7212337 1.5876769 0.592893 -0.12666644
000160 f3 68 66 bf e4 64 3b 3e dc 10 b8 3f c8 6c 5f bf
       -0.9000389 0.18300205 1.4380145 -0.8727536
000170 22 f8 0e 40 fe d3 18 3e 6b 2e 2f bf 1f fd 0e 3f
       2.2338948 0.14924619 -0.68430203 0.5585498
000180 00 00 00 00 00 00 00 00 00 00 00 00 00 00 00 00
       0.0 0.0 0.0 0.0
000190 00 00 00 00 00 00 00 00 00 00 00 00 00 00 00 00
       0.0 0.0 0.0 0.0
0001a0 00 00 00 00 00 00 00 00 00 00 00 00 00 00 00 00
       0.0 0.0 0.0 0.0
0001b0 00 00 00 00 00 00 00 00 00 00 00 00 00 00 00 00
       0.0 0.0 0.0 0.0

hist_lstm.weight_ih_l0 f4 [256, 16]
000000 d3 25 e8 3c 45 86 b6 3d f9 37 92 bd 3d 1b 87 3d
       0.028338348 0.08912329 -0.07139582 0.06596992
000010 6b 6c 90 3d 8d 6b 8f 3d c3 e7 fb bc 9b 18 0f 3d
       0.07051929 0.070029356 -0.030750161 0.034935575
000020 73 33 54 3c 2b 69 0b 3d 2b 30 fd bc a5 34 b7 3d
       0.01295172 0.034035843 -0.030906757 0.08945588
000030 79 68 f4 bd d1 2c de bd cd bc a6 3d 6f f7 98 bd
       -0.11933989 -0.10848392 0.0814148 -0.07469069
000040 8b 30 58 bd e7 ea bd bd 61 92 e0 bd 4b 01 c4 3c
       -0.05278067 -0.0927332 -0.109654196 0.023926398
000050 4b 4d 76 3d 53 2f 91 bd 0f cc 72 bd 73 27 32 3c
       0.060132306 -0.070891045 -0.059276637 0.010873663
000060 17 b7 d0 3d 5b 9b 9d bc d7 a7 77 3d b5 9c d1 3d
       0.101911716 -0.019239118 0.0604628 0.102349676
000070 93 46 6c 3d 89 7f e0 bd 63 4a e7 bd 97 40 b1 bd
       0.057684492 -0.109618254 -0.11293485 -0.08654898
000080 93 49 70 3d a3 8b 3f 3d a1 02 8b bd 21 94 bb 3d
       0.058663916 0.046764027 -0.06787611 0.09159113
000090 21 5b 8f 3d cf 3e c4 bd 9d 0c 98 3d 95 60 f4 3d
       0.06999803 -0.09582292 0.07424281 0.11932484
0000a0 8f c9 1f 3d 3b 98 f9 bd cb c3 dd 3c 41 f6 84 bd
       0.03901058 -0.12187239 0.0270709 -0.06492282
0000b0 8b d8 44 3d 3b b4 4f bd 1b 84 90 bc c3 10 bf bc
       0.048058074 -0.05070899 -0.017641118 -0.023323422
0000c0 9b 29 86 bc 57 4a bc 3d f5 16 ae bd bf ce 69 3d
       -0.01637726 0.09193867 -0.085004725 0.057081934
0000d0 23 44 78 bc e3 05 4b bd d3 ff 4b bd 19 bb 8a bd
       -0.015152964 -0.04956616 -0.04980452 -0.06773967
0000e0 63 2b d9 bc a3 77 f3 bd 93 c4 ad 3c cb 25 89 bc
       -0.026509946 -0.11888053 0.021211898 -0.016741654
0000f0 9b 2e f7 bc cd 87 fb bd 65 49 c0 bd 33 0f bf bc
       -0.03017359 -0.12281761 -0.09388999 -0.023322677
000100 c3 80 03 bc e3 c0 70 3d b3 29 4b bd 63 d1 35 3c
       -0.008026305 0.0587777 -0.049600314 0.011097285
000110 d3 2f 44 3d 65 dd 8f 3d c3 b8 9d 3d 85 f0 dd bd
       0.04789717 0.070246495 0.07701256 -0.10836891
000120 87 2a 26 bd 17 19 04 3d 53 f6 d3 3c ff da ac 3d
       -0.0405679 0.03225049 0.025874292 0.08440208
000130 93 fd d1 3d 4b 39 f3 bc b7 13 0a bd f3 5b 85 3d
       0.102534436 -0.029690405 -0.033710208 0.065116785
000140 f7 46 a0 3d ab 0d 69 bd 23 46 27 3d 4f 6c 2f 3d
       0.078260355 -0.0568978 0.040838372 0.0428279
000150 05 42 a0 3d 0f 50 2d 3d 73 81 21 bd 23 10 29 bd
       0.07825092 0.042312678 -0.039430093 -0.041275155
000160 97 ab b6 3d 89 39 be bd d7 c3 f7 bd 5b d4 ef 3c
       0.08919447 -0.09288318 -0.120979 0.029276064
000170 63 fb 15 bd b3 0e c9 3d 0d e3 c9 3d 51 12 95 3d
       -0.036616694 0.09817257 0.098577596 0.07278884
000180 e9 14 d0 3d b3 aa 79 bd 6b ea a9 3d 43 0e 68 bd
       0.10160238 -0.060953807 0.08296665 -0.056654226
000190 9b 41 44 3d 7f 8e 1e bd 33 64 a7 bd e7 99 ea bd
       0.04791413 -0.038710114 -0.08173408 -0.11455136
0001a0 91 79 b0 bd 61 c3 ed bd 23 8c ce 3d 33 7f 7c 3d
       -0.08616937 -0.11609531 0.10085323 0.061644744
0001b0 03 37 38 bb 83 b3 0e 3d f3 52 72 bc f9 83 91 3d
       -0.0028108961 0.034839164 -0.014790284 0.0710525
0001c0 e3 0f 54 bc 8f 93 e1 bd 01 d5 f5 bd bb 1f 2b 3d
       -0.012943241 -0.11014473 -0.12003518 0.041778307
0001d0 e3 72 eb bc eb e8 36 3d 3b 6e e5 3d 1f 03 a1 3d
       -0.028741306 0.04465572 0.112026654 0.078619234
0001e0 bb cf 08 3d 1b 4b b9 bc 13 22 7a 3d 23 3c f9 3b
       0.033401232 -0.02261882 0.061067652 0.007606046
0001f0 93 4d 17 bc eb 2d d3 bc 4b 3e db 3c 83 c9 dd 3b
       -0.009234804 -0.025778731 0.026763102 0.006768407
000200 f9 74 d1 3d 15 da f2 bd 4b 4a ec 3c 9f 2a 34 bd
       0.10227389 -0.11858002 0.02884402 -0.04398596
000210 c3 01 dd 3a 2f a2 ef 3d 97 0a 80 bd 7f 68 19 bd
       0.0016861487 0.11700856 -0.0625202 -0.03745317
000220 31 91 f9 bd b3 04 27 3c 17 e2 9c 3d 63 d2 eb bc
       -0.12185896 0.0101939915 0.07660311 -0.028786844
000230 db e9 f2 bd d3 f2 e1 bc 93 1a d7 bc 97 b2 c5 bd
       -0.11861011 -0.027581608 -0.026257789 -0.09653204
000240 8f 8d ca 3d cf c4 4b 3d 03 a1 1b bd 5f ac 22 3d
       0.098902814 0.04974824 -0.03799535 0.039715167
000250 39 24 e6 3d 43 53 4c 3d cf 3e 4e bd 8f 47 a9 bd
       0.11237378 0.049884092 -0.050352868 -0.08265602
000260 fb 7c 46 3d 0b e1 fc bd a3 9b cf bc ab e5 b1 3c
       0.048459034 -0.12347611 -0.025342768 0.02171596
000270 ad 43 b5 3d 73 97 7f bd 63 10 9c 3b d5 6a 84 bd
       0.08850799 -0.062400293 0.0047626956 -0.06465689
000280 b5 a0 b7 3d 5b 9f ce 3d 11 b8 d8 3d 51 23 f4 3d
       0.08966199 0.100889884 0.10581983 0.119207986
000290 d3 e6 30 bc d3 44 38 3d 75 06 90 3d e3 36 2a bc
       -0.01079722 0.04498751 0.070324816 -0.010389063
0002a0 21 32 ca bd 87 34 40 bd 7f bd fd 3d 69 47 d0 bd
       -0.098728426 -0.046925094 0.12389659 -0.101698704
0002b0 13 26 6e 3d 11 76 f1 bd 0b 33 e0 3c 5b 9f 99 3c
       0.05814178 -0.117900975 0.02736809 0.018752744
0002c0 57 30 ab bd eb 0a 82 bd 93 ab 1c 3d 9b 1d 68 bd
       -0.083588295 -0.06349739 0.038249563 -0.05666886
0002d0 87 7b 51 3d d3 06 11 3d 7b 2f b3 bd 4b 2d 95 3d
       0.051143195 0.0354069 -0.087492906 0.072840296
0002e0 db 38 99 bc 23 71 d4 3c f3 d8 3c 3d 1d 70 a6 3d
       -0.018703869 0.025932854 0.046105336 0.08126853
0002f0 b5 b5 ea bd df ab af bd 2f d4 36 3d 49 01 b7 bd
       -0.11460439 -0.08577704 0.044635948 -0.08935792
000300 9f 41 4c bd 83 aa bf 3b d5 fa be bd 65 44 b5 3d
       -0.04986727 0.005849184 -0.09325186 0.08850936
000310 c3 44 14 bd 8b db aa bd 5d 73 da 3d 33 a8 f5 3d
       -0.03619839 -0.08342656 0.10666535 0.11994972
000320 07 a3 29 3d 0d 36 f9 bd 03 ea 02 3b 47 de ca bd
       0.04141524 -0.121685125 0.0019975908 -0.09905677
000330 43 83 2f 3a db 7f ba bc c7 ef 3d 3d 53 87 23 bd
       0.000669528 -0.022766044 0.046371248 -0.039923977
000340 13 23 0a bc f5 5d b2 bd b3 70 e3 3c 4f c5 7c bd
       -0.008431214 -0.08709327 0.0277637 -0.061711606
000350 97 90 e9 3d 73 7b 22 3c 43 83 54 3c 93 eb b4 bd
       0.114045314 0.009917128 0.012970748 -0.08833995
000360 87 db bf bd 1f 52 c4 bd c3 a8 f7 3d d7 2b 0b bd
       -0.093680434 -0.09585976 0.120927356 -0.033977356
000370 c7 d3 d3 bd 5f 69 7b bd 01 8d d2 3d 43 41 5d 3c
       -0.10343128 -0.061379787 0.102808006 0.013504329
000380 dd f2 eb 3d 13 06 76 bc f7 d7 44 bd 37 1d 16 3d
       0.11520932 -0.015016097 -0.048057523 0.036648955
000390 b3 b2 e8 3d e9 9b e5 3d 2f 5d c3 3d a3 48 6c bd
       0.11362209 0.11211378 0.09539258 -0.05768646
0003a0 a9 f0 94 3d 1b 26 a6 3d c1 ef c1 bd 23 92 ce bd
       0.07272465 0.08112737 -0.094695576 -0.10086467
0003b0 cb 7f 8a bd 0d e4 91 3d 95 ec 95 bd 35 10 e1 bd
       -0.06762656 0.07123575 -0.07320515 -0.10989419
0003c0 77 b7 ad 3d a3 c4 c8 3b d5 ba bd 3d a7 a6 65 bd
       0.08482259 0.0061269565 0.09264151 -0.056067135
0003d0 83 79 cd 3b cf 9e ee 3d 27 89 60 bd db a8 ac 3d
       0.006270589 0.11651384 -0.0548183 0.08430644
0003e0 3d c4 cc bd 43 ad e7 b9 71 f4 b9 bd b5 ed ee bd
       -0.09998367 -0.00044188843 -0.090798266 -0.11666433
0003f0 43 f4 b4 bd 3b e7 4e 3d 93 01 ea bd 3b d9 f7 bd
       -0.08835652 0.050513487 -0.114260815 -0.1210198

hist_lstm.weight_hh_l0 f4 [256, 64]
000000 da a7 f7 3d a8 43 8e bc fd 15 a5 3d f7 c5 78 bd
       0.12092562 -0.017366245 0.080608346 -0.06073567
000010 ea 91 20 bb ee 98 ed 3d ab 00 e6 bd 60 92 bf 3d
       -0.0024501034 0.11601435 -0.11230596 0.09354091
000020 5e 3e 32 3d 1c b7 c9 bd ca 08 d1 bd f0 ea d6 3d
       0.04351651 -0.098493785 -0.102067545 0.104940295
000030 7d 05 fd 3d 39 01 91 3d f7 3d 70 bb d9 e6 38 bd
       0.123545624 0.07080311 -0.0036658028 -0.04514203
000040 38 c5 20 bd ea 63 49 3d 67 3b d5 bd b4 0d f0 bd
       -0.039250582 0.04916755 -0.10411721 -0.11721364
000050 e3 eb 78 3b 16 01 80 3d 70 1f 84 3d 96 2d 4c bd
       0.0037982396 0.06250207 0.06451309 -0.04984816
000060 c9 7a 5f bd ba e5 49 3d 19 3a 0a bc a3 5f 2f bd
       -0.054560456 0.04929135 -0.008436703 -0.042815816
000070 f3 37 22 3d 65 73 a0 bb f7 ae 5b 3d 7c 7f a8 3d
       0.03960414 -0.0048965686 0.053633656 0.08227441
000080 8a f0 1b 3d e7 b6 12 3d 8d 56 15 bd f2 09 9a 3d
       0.038071193 0.03581896 -0.036459494 0.07521428
000090 9b 60 06 be 78 1b 89 3d 08 70 98 3d ec d6 17 bd
       -0.1312279 0.066946924 0.07443243 -0.0370702
0000a0 a5 03 db bc 33 f0 df 3d 05 f9 12 3d 27 c4 9a 3d
       -0.026735136 0.10934486 0.035882015 0.07556944
0000b0 5e 69 d9 3d 39 62 70 3d dc e4 99 bd 6a 47 64 bc
       0.106158 0.058687422 -0.075143546 -0.013933042
0000c0 20 23 00 3e ab ff 3b bd b4 10 d8 bd b0 61 11 3e
       0.12513399 -0.04589812 -0.10550061 0.14197421
0000d0 a6 f7 08 3e ad 87 ff 3d e7 3b da bc 8d f7 8f bd
       0.1337572 0.1247705 -0.026639892 -0.070296384
0000e0 57 0c 67 bd dd f9 90 bc bc 58 9a bc cc f4 db bd
       -0.056408253 -0.01769727 -0.01884114 -0.10740051
0000f0 f7 42 38 bc bb f7 36 3d 48 25 3c bd f2 0e a3 3d
       -0.011246434 0.044669848 -0.04593399 0.07961835
000100 0f 0e 98 bd 13 69 ad 3b 88 1d 33 3d 78 c6 ed bd
       -0.074245565 0.005292067 0.043729335 -0.116101205
000110 14 bb a6 bd 7e 99 39 bd 90 9e e1 3d 21 9a ab 3c
       -0.08141151 -0.045312397 0.110165715 0.020947518
000120 a2 a5 aa bd 39 8c 0f 3c e1 7e 02 3e 36 00 ba 3d
       -0.08332373 0.008761459 0.12743713 0.090820715
000130 43 ba 26 3d 7d ac da 3d 9d 42 29 3e 9f 44 4d bd
       0.040704977 0.10677431 0.16529317 -0.05011427
000140 9c 72 8f 3d 59 5f a0 3d 96 04 63 3d 72 8d b8 3d
       0.07004282 0.07830686 0.055424295 0.090113536
000150 80 7c 15 3e c9 46 49 bd de b6 0c bd 67 fe db bc
       0.14598274 -0.04913977 -0.034354083 -0.026854707
000160 66 10 19 bd 05 0e 02 bd 26 ed 27 3c 36 1b 09 be
       -0.037369154 -0.03175165 0.010249412 -0.13389286
000170 c5 6f fb bd a9 35 cf bd 20 d7 0b 3e 9a 36 99 bd
       -0.12277178 -0.10117657 0.13656282 -0.074811175
000180 a8 77 92 3d 52 cb 1c 3e 72 b7 6d 3d e6 67 7c 3d
       0.07151729 0.15311936 0.058036275 0.061622523
000190 85 62 5d 3d a2 2b 94 bd dd d9 97 3d b2 a9 13 3e
       0.054049034 -0.07234885 0.07414601 0.14420202
0001a0 e2 70 df 3b 9e e5 e3 3c 9e be 6e 3c 74 d9 bd bd
       0.0068188766 0.027819451 0.014571814 -0.092699915
0001b0 d6 f1 ca 3c 7b 7c 52 3d 21 09 0c b9 f5 7d 5b bd
       0.02477352 0.051388245 -0.00013354841 -0.05358692
0001c0 8e 32 12 3d c5 68 13 be fd e0 f8 ba d1 a0 f3 3c
       0.035692744 -0.14395435 -0.001898795 0.02973977
0001d0 08 7f a8 ba 6c 5c 7e bd 2f 99 f3 3c 1d 81 19 be
       -0.0012855241 -0.06209986 0.02973613 -0.14990659
0001e0 97 0b 2e bd 77 6e 0d be da 4b 52 3d ad 01 17 bc
       -0.04249152 -0.1381167 0.05134187 -0.009216708
0001f0 53 b6 f9 bc c6 6a 85 37 4e 95 8e bd 9d 29 1e 3e
       -0.030482447 1.5904556e-05 -0.06962071 0.15445562
000200 66 8b 80 3d 71 3f 72 3d 9a 94 0d be d9 05 14 3d
       0.06276588 0.059142534 -0.13826218 0.03613839
000210 e6 54 5c 3d f1 31 bf bd f2 fb 67 3d ca 7f b3 3d
       0.053791903 -0.093356974 0.05663676 0.08764608
000220 bf 88 66 bc 3a c6 2a 3c 85 5d 3b bd 38 a7 c2 3d
       -0.014070689 0.010423237 -0.045743484 0.09504551
000230 c7 8c 15 be 88 2c b8 3d dc b6 a2 3d 6b a0 4e 3d
       -0.14604484 0.08992869 0.07945034 0.050445955
000240 53 67 c9 3d 26 f6 99 3d 3a 8d eb 3b e7 01 7a bc
       0.09834161 0.07517652 0.0071884664 -0.015259243
000250 46 a2 d8 3d 7e 44 0a 3e 9d 6e a9 bd 9b 8f 07 be
       0.10577826 0.1350269 -0.08273051 -0.13238375
000260 a8 8d c6 3d 40 75 37 3c e4 b5 af bc 6e 6b 93 3c
       0.096949875 0.011197388 -0.021449037 0.017995562
000270 de 39 99 bd 36 e0 cf 3d ba 82 09 3e c5 14 0b 3d
       -0.074817404 0.10150187 0.13428774 0.033955354
000280 ff 4b de 3d 9e 67 b0 bd 61 4c 88 3d 62 8c 95 bd
       0.10854339 -0.086135134 0.06655193 -0.073021665
000290 bd 99 06 bd 42 45 1c 3d bb b3 de 3c e6 e1 d3 3d
       -0.03286146 0.038151987 0.027185312 0.10345821
0002a0 be cb 09 3d 90 89 d6 bc 9d ef 96 3d d5 dd 90 3b
       0.03364157 -0.026188642 0.07369921 0.0044209757
0002b0 4f fb f0 3d 4e 8b 59 3d 6e 42 03 3d a9 2d b0 bd
       0.11766683 0.053111367 0.032045774 -0.08602459
0002c0 d2 89 47 bd f3 12 b7 3d b7 04 06 be c7 32 cb bc
       -0.04871542 0.08939161 -0.13087736 -0.024804486
0002d0 01 f0 9a bd 7f fd 54 3c f8 fc 39 bd 19 08 d9 3c
       -0.07565308 0.012999891 -0.045407265 0.02649312
0002e0 0e 0c e4 3d 24 fb 72 bd f5 e6 e4 bc 0b 9f e2 3d
       0.11135112 -0.059321538 -0.02794216 0.11065491
0002f0 ff 03 8c 3c d3 a4 9a bb 5a 6a bc 3c d7 7f 9a bd
       0.01709175 -0.0047193556 0.022999931 -0.07543915
000300 75 88 0e be e3 b2 7d bd 4c 10 7d 3d 54 7e 5e 3d
       -0.13919242 -0.061938178 0.06178312 0.054319695
000310 7f 3e b3 3d 99 85 d4 3c ff 64 b9 3d ba 62 aa 3c
       0.087521546 0.02594261 0.090524666 0.02079903
000320 65 43 a7 bd 10 c2 9b bc 92 31 12 bd 02 a5 3b bd
       -0.08167151 -0.019013435 -0.035691805 -0.04581166
000330 08 23 93 3d f7 5e cb 3c 29 7a d0 bb 26 70 a7 3d
       0.07184416 0.024825556 -0.006362219 0.081756875
000340 be 10 67 3d 37 47 e3 3d 17 b8 40 3d b5 9e d6 bd
       0.05641245 0.110975675 0.04705056 -0.1047949
000350 c0 72 43 bd 4c 21 db 3c 74 f1 d2 3d 5a 07 ce bd
       -0.047716856 0.026749276 0.1029996 -0.10059996
000360 ff 45 ab bd 8d 25 ce 3d 35 3a 09 bd a6 8f cc 3b
       -0.0836296 0.10065756 -0.033502776 0.00624271
000370 93 cb 51 bd cc d1 a6 bd 98 2d d7 bd 21 bc f2 bd
       -0.051219534 -0.08145484 -0.10506743 -0.11852289
000380 46 f9 e9 bc 2a f9 77 ba ce 67 28 3d f3 89 db bd
       -0.028561246 -0.00094594306 0.04111462 -0.10719671
000390 28 b0 c2 bd 1d 92 f5 3c 46 70 13 3d 17 fc 81 bd
       -0.095062554 0.029976899 0.035995744 -0.063469104
0003a0 78 4d 47 bd 35 53 d0 bd 04 d8 9a bb 84 b2 38 bd
       -0.048657864 -0.101721205 -0.004725458 -0.04509212
0003b0 3c 31 b4 bd d7 72 79 3c ca 8a 92 3b 56 e2 04 3e
       -0.08798453 0.015225134 0.0044721114 0.12976965
0003c0 f8 d8 bc 3d 23 32 04 3d 2c cd db bd 0e 1a c2 bd
       0.09221071 0.032274377 -0.10732493 -0.09477626
0003d0 0f 90 d0 bb f0 e2 b2 3c 8b 83 db bd b4 99 74 bd
       -0.0063648294 0.021836728 -0.10718449 -0.059716895
0003e0 ef b7 85 3d 3f 13 a3 bb e4 20 68 bd 69 71 24 bd
       0.06529223 -0.0049766595 -0.056671992 -0.04014722
0003f0 5f d9 73 3d 60 7c 53 bd 1c f0 9c bd b3 93 bb bc
       0.059533473 -0.051632285 -0.07662985 -0.022897577

hist_lstm.bias_ih_l0 f4 [256]
000000 29 ed 7c 3d 3e aa 86 3d 83 16 5e bd 66 58 a3 bd
       0.06174961 0.0657544 -0.054220688 -0.07975845
000010 ea b3 95 bd 0a 5e 0d bd cb 24 bd 3d 1f 19 b4 3d
       -0.073097065 -0.03451351 0.09235533 0.08793854
000020 7c fd 9d bc 7e 52 7b 3d 21 2d 0d 3e 19 08 e2 3d
       -0.01928591 0.061357968 0.13786747 0.11036701
000030 b8 95 83 3d a8 21 c9 3b 4d 30 62 bd 80 fc 51 3d
       0.06425041 0.0061380453 -0.055221844 0.051266193
000040 14 f9 c0 bd f8 aa c0 3d f8 71 df bd 21 fb 81 bd
       -0.09422508 0.0940761 -0.1091041 -0.06346727
000050 a2 c7 d7 3d bf fa 08 bd 23 b1 65 bd b3 e9 bb 3c
       0.10536124 -0.033442255 -0.056077134 0.022938585
000060 f6 97 f9 bc 86 2b bb 3d 6b 92 40 bd a0 7e 88 bd
       -0.030467968 0.09139161 -0.047014635 -0.06664777
000070 e3 fc 82 bd fb fe 72 bd a8 a8 cf bd 4b c7 dd 3d
       -0.063958906 -0.0593252 -0.101395905 0.10829028
000080 88 bf e0 3c d6 a3 6c 3c 3e aa a4 3d 91 91 93 bd
       0.02743508 0.014443358 0.080402836 -0.07205499
000090 19 94 c3 3d b2 19 ca 3d 0e a7 94 3d 3e 47 9a bc
       0.09549732 0.09868182 0.07258426 -0.018832799
0000a0 08 41 ef 3d a0 10 d4 3d b0 57 1b bc 5c b0 35 ba
       0.116823256 0.103547335 -0.009481356 -0.00069308816
0000b0 8f 66 3e bb 18 36 b3 3d b8 31 54 3d b4 93 a4 3b
       -0.002905283 0.08750552 0.051805228 0.0050224904
0000c0 07 c1 c6 bd 70 44 df bd e9 72 03 3d f8 3a ab 3d
       -0.09704786 -0.10901725 0.03209201 0.08360857
0000d0 0d 09 7a 3d 4d 50 8e 3c 6d 64 b9 3d 2d 08 9f 3d
       0.061043788 0.017372275 0.09052358 0.07765231
0000e0 66 af c2 bd 39 48 3a bd 80 98 e9 3d f3 d9 1a 3e
       -0.09506111 -0.045479033 0.1140604 0.15122204
0000f0 26 b7 d7 bc 18 09 9d bc 81 1d 79 3d 19 cf 8d bd
       -0.02633245 -0.019169375 0.060819153 -0.06924266
000100 9e 6b b4 3d d2 1c 1b 3e 79 01 da 3c 3b 5f c9 3d
       0.08809589 0.15147713 0.02661203 0.09832617
000110 5c 6d 62 3d eb 14 d1 bd 01 49 6f bc 86 af 83 3d
       0.055280074 -0.10209068 -0.014604808 0.06429963
000120 0b fb 86 3d c8 4a 15 3d 88 7c 8a bd a1 bc d9 3d
       0.065908514 0.03644827 -0.06762034 0.10631681
000130 d3 cd 72 3d 01 15 4b bc f2 0b f4 3d 52 2c 0e 3e
       0.05927832 -0.012395144 0.11916341 0.13884094
000140 ed 08 84 3d 46 4d b6 bd 64 cd ed 3d e8 19 3b bd
       0.06447015 -0.089014575 0.11611441 -0.045679003
000150 90 a4 f9 3d 23 29 a3 3a 35 67 12 bc 16 87 af 3d
       0.12189591 0.0012448173 -0.008935739 0.085706875
000160 b7 cb 65 3d d7 ed 88 3c 58 bc 9f 3c 33 29 ff 3d
       0.05610248 0.016714973 0.019498989 0.1245903
000170 38 03 54 bd b7 fa e3 3d 31 51 2c bb 0a ed ad 3b
       -0.051760882 0.111318044 -0.002629351 0.0053077983
000180 67 e1 d8 bd d2 96 a9 3d 65 59 d8 3d 5a f8 d9 3b
       -0.10589867 0.0828072 0.10563926 0.0066519203
000190 79 1d bc bc fd d8 0a bd 22 37 08 bd 7f 40 2e bd
       -0.022963272 -0.033898342 -0.033255704 -0.042541977
0001a0 59 15 38 3d e8 a8 92 bc cb 01 85 bd 44 ac b2 3d
       0.044942234 -0.017902806 -0.064944826 0.08724263
0001b0 c6 e6 d9 bd 9f dc b5 bd b4 ab 15 bd bd 21 02 bd
       -0.1063972 -0.08879971 -0.036540702 -0.031770457
0001c0 81 93 bc bd 2f 70 07 bd c3 80 85 3d 1e 8f 31 bd
       -0.09207822 -0.03306597 0.065187 -0.043349378
0001d0 18 f0 d6 3d f9 3c bd 3d 93 a1 aa bb 65 56 db 3d
       0.10495013 0.09240145 -0.0052072494 0.10709838
0001e0 50 c0 a5 3d 4f ee 28 3d e2 d9 98 3b 7d 22 ed 3d
       0.08093321 0.041242894 0.0046646455 0.11578844
0001f0 db af e4 3c fd a7 bd 3d 93 a8 63 bd 30 be 4d 3d
       0.027915886 0.09260557 -0.055580687 0.050230205
000200 c3 da d4 bd 42 65 d1 bd 44 c4 9f bd d8 08 10 be
       -0.10393288 -0.102243915 -0.078011066 -0.14065874
000210 ba c1 02 bd 59 42 f3 bd d0 9e 35 bc d2 dd 8a 3d
       -0.031923033 -0.11877889 -0.011085227 0.0678059
000220 87 1a 8a bd 55 11 a3 bd 1f 8b b7 bb f0 a8 7d 3d
       -0.06743341 -0.0796229 -0.0056013013 0.06192869
000230 a0 de 26 bd 3c 70 d9 3d 20 a1 04 3b 3b 36 d4 3d
       -0.040739655 0.1061711 0.002023764 0.10361906
000240 ed c7 8d 3c 00 4b 05 3e a8 e7 2b bd 05 6f c5 3b
       0.017307246 0.13016891 -0.04196897 0.0060251975
000250 26 86 ce 3d a9 b2 ec 3d fa 00 d3 bd 74 ea 47 3d
       0.100841805 0.11557514 -0.10302921 0.048807576
000260 1a 96 b4 3d 14 f0 4c bd 4a 29 2c bd 9f c3 02 be
       0.08817692 -0.050033644 -0.042031564 -0.12769936
000270 4f b5 5b bd ac bc 85 bd 47 76 9a 3c b6 76 e2 bc
       -0.053639706 -0.06530127 0.018855227 -0.027644496
000280 ea 5a 15 3c a9 1e dd 3c 9d be 08 be 4d 56 ee 3c
       0.009115914 0.026992159 -0.13353963 0.029093886
000290 ef 67 fa 3d 43 d9 74 3a 0d 29 ab 3d f6 25 d8 3d
       0.12226855 0.0009340236 0.08357439 0.105541155
0002a0 b6 0c 08 3e 2e e5 00 be 9a a3 1b 3d ee 02 11 be
       0.13286099 -0.12587425 0.03799782 -0.14161274
0002b0 44 1a 86 3d 96 e3 f6 3d 7f 4e a5 3d 6f 34 b1 3d
       0.065479785 0.12055127 0.080716126 0.08652579
0002c0 15 ad 51 bd b1 68 0d bd 8a 6a 02 be 6a c9 22 bd
       -0.051190455 -0.03452367 -0.12735954 -0.039742865
0002d0 9a ce 15 3b 5e 7b 96 bd 70 d7 87 3d 82 bd a8 bd
       0.002285874 -0.07347749 0.06632888 -0.08239271
0002e0 47 e3 3f 3c 05 29 b4 bd 3b 56 ef bd 38 37 06 bc
       0.011711902 -0.08796886 -0.11686369 -0.008191876
0002f0 a6 d9 27 3d 2b 12 bb bd 95 0a 50 bd ec f1 04 3e
       0.04097905 -0.09134325 -0.05079134 0.12982911
000300 15 84 7d bd 22 39 e5 3c ac 51 45 3d a1 11 c6 3d
       -0.06189354 0.027981345 0.04817359 0.09671331
000310 2e b2 fa 3d c1 8f 33 3b c6 7a 2d bd 51 25 92 bd
       0.12241016 0.0027398916 -0.042353414 -0.07136024
000320 97 db 13 3e 5c ec b7 bc 9b 5b 2a 3d e6 11 27 3c
       0.14439236 -0.022451572 0.041591268 0.010197138
000330 8e 52 7a 3d cc e5 ac bc d1 0b ab bd 1a 57 ee bc
       0.061113887 -0.02110567 -0.08351863 -0.029094268
000340 be 5e 7e 3d 96 3e b2 bd 8d a3 61 bd bf 7e c3 3d
       0.062102072 -0.087033436 -0.055087615 0.09545659
000350 12 ed 04 3e d9 8b 18 3c b0 f8 2a 3c 27 78 12 3d
       0.1298106 0.009310686 0.010435268 0.035759117
000360 17 a2 7f bd fe 41 0f bd 89 79 ef 3d b7 a0 c2 bc
       -0.06241044 -0.034975044 0.11693103 -0.023758275
000370 a2 f3 f4 3d cb 92 bc bd 57 75 2a 3c fa 41 82 bd
       0.11960532 -0.09207686 0.010403953 -0.0636024
000380 5e 68 01 bd 01 15 9e 3d 48 49 e8 3d 42 8e 83 bd
       -0.031593673 0.0771885 0.11342102 -0.06423618
000390 e9 da e3 bd e5 d9 be 3d 6b 40 b8 3d e0 92 9c bd
       -0.11125738 0.09318904 0.08996662 -0.07645202
0003a0 b2 ef ac 3b 44 a6 09 3e 2d be f2 3d fa 11 4e 3c
       0.0052775973 0.13442332 0.118526794 0.012577528
0003b0 3c ed 08 3d 91 7f f1 bc 24 36 8f bd 8d 16 b5 3d
       0.03342937 -0.029479774 -0.069927484 0.08842192
0003c0 02 76 40 bd 11 a7 d7 3d 66 42 78 3c 0d f7 9b 3d
       -0.04698754 0.10529912 0.015152549 0.076154806
0003d0 c3 ca 64 3c 73 e4 be 3d 08 1f e9 bd 68 9f b7 bd
       0.013964358 0.09320917 -0.11382872 -0.08965951
0003e0 60 33 8f 3d 27 5e d1 3b 18 89 c1 bc 76 bd 12 3e
       0.06992221 0.0063893977 -0.023624942 0.14330086
0003f0 72 7a e6 bd 63 7d fa bc d5 12 dc bd fa 6f 9e bd
       -0.11253823 -0.030577367 -0.107457794 -0.077362016

hist_lstm.bias_hh_l0 f4 [256]
000000 3e 7e ac 3c 62 a0 d2 3b 6c c1 6a 3d 90 7e fe 3d
       0.02105629 0.0064278105 0.057313368 0.12426484
000010 0c 07 f0 3d 5e 86 71 bd e7 f5 6a 3d cc 10 01 bc
       0.11720094 -0.058966033 0.057363417 -0.00787754
000020 9a cd 5c bd 33 7d c2 3d 0d 9d 18 bd 7b 5d e6 3d
       -0.053907014 0.09496536 -0.03725915 0.11248299
000030 2e 3f fc bc e2 57 03 3e 6a 7a e2 3d f6 64 02 3e
       -0.030791845 0.12826493 0.11058505 0.12733826
000040 cc 4e e8 3c f9 76 3e bc bf 62 7e bd 17 21 be 3d
       0.028357886 -0.011625045 -0.06210589 0.09283655
000050 97 e5 6a 3d 59 c4 04 3e 51 c6 e1 bd fb b6 c6 3d
       0.05734786 0.12965526 -0.11024154 0.097028695
000060 0b 31 02 3e a4 2e 1f 3e 50 bd 9a 3c 0c f3 9f 3d
       0.12714021 0.15545136 0.0188891 0.078100294
000070 27 1a f8 3c e8 7f c4 bb 50 84 16 bd 06 4f bb 3c
       0.030285908 -0.005996693 -0.036747277 0.02286483
000080 a6 5a 9a 3d 68 f5 f8 bd f4 33 fd 3d db 25 fc 3d
       0.07536821 -0.121561825 0.12363425 0.12311908
000090 c9 f9 a5 bd 3a 74 86 3d 01 12 c9 bc a4 b8 0d 3e
       -0.08104283 0.06565137 -0.024544718 0.13839966
0000a0 8d 9e 5a bc e5 d7 07 3e 66 14 8f bd 92 80 0b 3e
       -0.0133434655 0.13265951 -0.069863126 0.13623264
0000b0 3a e0 0f bd 97 69 01 bd 70 8d d8 3d 7d 8c ad bd
       -0.03512595 -0.03159484 0.10573852 -0.08474062
0000c0 01 9a 97 3d 7f 94 db bc 08 bf 9f bd 88 d1 d9 3c
       0.07402421 -0.026804207 -0.07800108 0.02658917
0000d0 3f e1 1d 3d ab cc 49 3d 5f 5a 84 3d cb 6a d8 3d
       0.03854489 0.049267452 0.064625494 0.10567244
0000e0 6c f8 25 bd 97 3a cd 3d 92 c4 0b 3d df a2 36 3d
       -0.040520117 0.10020941 0.03412301 0.04458892
0000f0 0f 17 a9 bd 9f 99 8a 3d b5 15 6e 3d 06 6e a7 bb
       -0.08256351 0.06767582 0.05812617 -0.0051095514
000100 9e 95 00 be d2 28 8d 3d 33 f2 09 3e bf a9 78 bb
       -0.12557074 0.068925515 0.13471298 -0.0037942973
000110 c4 bb 56 3d eb 17 05 3e be 86 63 3d 8a c3 d4 3d
       0.05242516 0.12997405 0.055548422 0.103888586
000120 8d 25 ba 3c 94 9f 51 3d 94 03 ac bd 38 af 1d bc
       0.022722984 0.051177576 -0.0839912 -0.009624295
000130 8f 36 ee 3d 5b dc 2d bd a0 24 80 3c f9 fb dc 3d
       0.116315 -0.042446475 0.015642464 0.107902475
000140 68 a1 43 bd 8d 1b b4 bc 53 86 0d 3c c8 be 84 38
       -0.04776135 -0.021985793 0.008637982 6.329786e-05
000150 7a fd 99 3d c0 26 8f bd bc 17 7d 3d 08 62 f4 3c
       0.0751905 -0.06989813 0.061790213 0.029831901
000160 2c 8a 7d 3d ae fb 1b 3e 9c c5 ee 3d 8a c1 44 3c
       0.06189935 0.15232727 0.11658785 0.012009034
000170 1d f4 3d 3d c9 3e 8e bc c4 01 6f bd f7 68 de 3d
       0.046375383 -0.017363923 -0.058351293 0.10859864
000180 13 11 e1 3d d8 3c 3b bd b9 0b 07 3e 7b 1c c9 3d
       0.10989585 -0.045712322 0.13188066 0.09819885
000190 eb 93 d5 3d d0 df f3 bb 4a 6a 37 bd 6a d2 d3 3d
       0.10428604 -0.007442452 -0.0447791 0.10342868
0001a0 b2 ef d4 3d b4 be 21 3e 99 91 58 3d 4c d3 c0 bd
       0.10397281 0.15795404 0.052873228 -0.09415302
0001b0 ee 44 10 3d 39 9c ad 3d 75 f2 8f 3d 0d e7 70 3d
       0.035221986 0.08477063 0.07028667 0.058814097
0001c0 cd bc 5b bd 19 43 84 3d 0b c6 cc bd e3 5d 40 bd
       -0.05364685 0.0645811 -0.09998711 -0.046964537
0001d0 86 43 a3 bd 3b d1 e2 3d 9a b0 bb bc f0 fa 99 bc
       -0.079718634 0.11075064 -0.022911359 -0.018796414
0001e0 9b 2e ce ba bd 86 b2 3a 96 20 9b 3d c8 b7 a9 3d
       -0.0015730442 0.0013620477 0.07574575 0.082870066
0001f0 06 3c cd 3d e3 89 b2 bd 46 d4 94 3c 83 8c ea 3d
       0.10021214 -0.08717706 0.018167626 0.11452582
000200 cb 08 c6 bd c2 14 10 bd 21 bc d3 bd 63 2d 45 bd
       -0.09669646 -0.035176046 -0.10338617 -0.048138987
000210 fc c1 cb bd 22 56 00 be 94 58 58 3d db ed d2 3d
       -0.09949109 -0.12532857 0.05281885 0.102992736
000220 f7 35 88 bd 91 21 c1 bd 76 14 f4 3c 4b 01 08 3e
       -0.06650918 -0.094302304 0.029794913 0.13281743
000230 05 ed 34 bd ad f8 92 3d 5e fb 73 3c ad 44 0e 3e
       -0.044171352 0.071763374 0.014891474 0.13893385
000240 9e 8c 80 bc ff 3e 87 3c b0 b0 5f bb 1a 73 40 3d
       -0.015692052 0.016509531 -0.0034132414 0.04698477
000250 e4 21 83 3d 2a ce 91 3b fc 0c e6 bd 00 b2 d7 bd
       0.064029485 0.0044496255 -0.11232945 -0.10531998
000260 b2 35 9d bd 73 1b 21 3d 58 5d 2d 3e 02 3c 6a bd
       -0.07676257 0.03933282 0.16930139 -0.057186134
000270 1f 5a 0b be c2 b0 cb 3d fa 0f c9 3d 10 a1 90 bd
       -0.13608597 0.09945823 0.098175004 -0.0706197
000280 de 01 6f bd 52 f8 e1 3d af a5 bc 3c 5d 01 8e bd
       -0.05835139 0.110336915 0.023028223 -0.06933854
000290 c9 f9 54 3d fa 99 a8 bd 89 01 db bc ae c0 da 3d
       0.051996026 -0.08232494 -0.02673413 0.10681282
0002a0 0e f9 cb bd 0e b1 e5 bb 1f e4 a1 39 3e 25 82 3d
       -0.09959613 -0.007009632 0.00030878276 0.0635476
0002b0 3a ad 73 3d 3c b5 30 3d 5f e3 12 3d 08 8a dd 3c
       0.059491374 0.04314159 0.03586137 0.027043357
0002c0 6d 4e e5 3d 75 e6 4e bd 04 d8 e5 3d 17 81 fe 3c
       0.11196599 -0.05051275 0.11222842 0.031067414
0002d0 bc 9c 56 bd 46 a9 02 be fd ac 3c bd 10 8a ad bb
       -0.052395567 -0.12759885 -0.046063412 -0.0052959993
0002e0 0e 86 b8 bc ca 2a 66 bd dc 0b 2d 3d 69 e1 ac 3d
       -0.02252486 -0.05619315 0.042247638 0.08441431
0002f0 0b 83 03 3c 45 35 b2 bd 43 86 dd bd d5 c3 cb 3d
       0.008026849 -0.087015666 -0.10816624 0.09949461
000300 05 36 88 3d 56 94 96 3c 4a 90 1a bc d7 f8 06 3e
       0.066509284 0.018381279 -0.009433815 0.13180862
000310 2a dd c8 3d 01 12 ca bd e4 c8 9e bd 9d 26 a9 3d
       0.09807809 -0.09866715 -0.077531606 0.08259318
000320 c2 37 1c bd d6 2c 82 bd c0 8d e0 bc 4c 60 b3 3d
       -0.038139112 -0.06356208 -0.027411342 0.087586015
000330 df f0 c2 3d 99 d3 c9 bd 1b df a6 bd b6 df da 3d
       0.09518599 -0.09854812 -0.08148023 0.10687201
000340 fa e0 45 3d 7a be 8b bc 4b 32 05 bd c0 c1 77 bc
       0.048310257 -0.0170586 -0.032518666 -0.015121877
000350 4c d7 a3 3b 8d e6 2e bd b3 56 81 3d 4a b6 0c be
       0.0050000306 -0.04270034 0.06315365 -0.13741413
000360 66 13 36 3d 2c 8f fb 3d 12 b6 16 bc df b1 19 3d
       0.044452094 0.12283167 -0.009198682 0.037523147
000370 f0 1d c8 bd 7d ab aa 3c dc 25 8a bc 50 b2 d6 3d
       -0.09771335 0.020833725 -0.016863756 0.10483229
000380 cd 3f c5 bc ed 3d c4 bc 49 3f ac bd 72 56 78 3d
       -0.024078274 -0.02395531 -0.08410508 0.060629316
000390 8a 28 5c ba 5f 4a 93 bc 38 c1 63 bd 4e 37 09 3c
       -0.0008398375 -0.017979799 -0.05560419 0.008375002
0003a0 1d b4 ad bd 11 21 8b bd 09 16 17 3e 21 84 5e bd
       -0.084816195 -0.06793416 0.147545 -0.054325227
0003b0 56 99 de bd 0a 1d df 3d cb 76 8b bd e3 38 d8 3d
       -0.1086909 0.10894211 -0.06809767 0.10557725
0003c0 48 ff e8 3d 18 00 36 3d b6 ed f1 3c 65 99 9d bb
       0.11376816 0.044433683 0.029532295 -0.004809546
0003d0 eb 74 11 3d 91 63 b5 3d b5 71 83 bd c6 4d aa bd
       0.035511892 0.088568814 -0.06418172 -0.08315615
0003e0 ec 7f 69 3d 11 e9 c1 bd db fd 05 3e 78 91 0a 3e
       0.05700676 -0.09468282 0.1308512 0.13532054
0003f0 05 06 f4 3d 9f d9 ac bd 7f 09 98 bc 60 33 2b 3d
       0.11915211 -0.084399454 -0.018559216 0.041797042

fc.0.weight f4 [64, 77]
000000 6e 21 8a bb 43 21 c9 3c a3 52 3b bd 93 36 b4 bd
       -0.004215411 0.024551993 -0.045733105 -0.08799472
000010 f1 59 8d bd 7d 6a 5a 3d 78 5e ca ba c1 da d3 bd
       -0.069019206 0.05332421 -0.0015439531 -0.10344458
000020 91 a1 08 3d cb a4 16 3e 9c d3 89 bd c3 1d 1f bd
       0.033357207 0.14711301 -0.067298144 -0.038846742
000030 af e6 94 bd 24 58 93 bb ef 7c 03 3e 7e e6 c4 3d
       -0.07270562 -0.004496591 0.12840627 0.096142754
000040 72 bc 9e bd 3f d1 b8 bd d9 4a 73 3d be 46 d3 3d
       -0.07750787 -0.090242855 0.059397552 0.103162274
000050 b4 dd ac bd ce da 31 3d 0c 6b bb 3d 6f 41 a5 3d
       -0.08440724 0.04342156 0.09151277 0.08069121
000060 77 90 25 3d 5a 74 d3 3d 11 fa 85 bc 5e c9 0c bd
       0.040420976 0.10324927 -0.016354593 -0.034371726
000070 e0 ea 07 bd 4a cc 9f 3d b8 0d b8 3d 8b 9b 58 bd
       -0.03318298 0.07802637 0.08986992 -0.052882712
000080 85 6c ea bb 77 d3 8b 3c fd 6f a4 3c 92 8c 8c 3d
       -0.00715405 0.017068608 0.020072931 0.06862749
000090 da d8 dd bd 5a 8e 43 bc c7 92 3a bb 10 bb 89 bc
       -0.10832377 -0.011935795 -0.0028468834 -0.016812831
0000a0 62 48 91 3d f1 a0 80 3d 94 17 c6 bc d5 22 b3 bd
       0.07093884 0.06280697 -0.024181165 -0.08746878
0000b0 ac 95 96 bc 1d 29 16 3d b6 57 b4 bd 32 b6 98 3d
       -0.018381916 0.036660302 -0.08805792 0.07456626
0000c0 8d d3 40 3d e6 b9 11 bc fb 11 c5 3d 21 02 ea bd
       0.04707675 -0.008894419 0.0962257 -0.11426187
0000d0 54 13 bb bd 01 30 84 3d ee 3e b8 3d 13 3f e4 bd
       -0.09134546 0.064544685 0.08996378 -0.11144843
0000e0 0b 7f 0e 3d eb 4e 14 3d fc 8f 26 bb 51 8d 99 bd
       0.034789126 0.036208075 -0.0025415411 -0.07497657
0000f0 42 9e 4a bd 96 3a 78 bd c1 4f 1f bd 99 ff ac 3d
       -0.049467333 -0.060602747 -0.03889442 0.08447189
000100 33 0b a4 3c 15 28 48 bc bc 23 c8 bc 25 d5 1c bd
       0.020024871 -0.012216588 -0.024431102 -0.038289208
000110 47 13 02 3d 3c 4b c2 bd 8a 31 6b bd 21 77 29 bd
       0.031756666 -0.09487006 -0.05742029 -0.041373376
000120 ef 38 05 be 6d da 5c 3d 2d 51 c8 3d b3 85 9d 3d
       -0.1301 0.053919245 0.09781108 0.07691517
000130 11 6a 9e bd f6 bd a9 bd e1 0d 35 bd a5 b3 84 bd
       -0.07735074 -0.08288185 -0.04420269 -0.06479577
000140 71 3f 97 bd 30 98 da bd 37 8c a2 bd 88 a4 75 3c
       -0.07385147 -0.10673559 -0.079369 0.014992841
000150 58 64 9e bc e9 6a 00 3d 60 67 a3 bd f1 84 b0 bd
       -0.019334957 0.031351957 -0.079787016 -0.086191066
000160 cc d4 6d bd 48 dd d0 bc a4 5a 1f 3c 79 44 89 bd
       -0.058064267 -0.02549614 0.0097262 -0.06702513
000170 9c 59 ba 3c ca 79 e1 3d 30 90 f7 bc 58 fd bd 3d
       0.022747807 0.110095575 -0.030220121 0.09276837
000180 73 1f 1a bd 46 5c da 3d d8 74 ac 3b bd dc a9 bd
       -0.03762765 0.10662131 0.0052629523 -0.082940556
000190 39 e1 33 bd 2f 4a 13 3d 86 30 25 bd f2 f7 d8 bd
       -0.04391596 0.03595942 -0.04032948 -0.10594167
0001a0 34 ce 9f 3d 61 ed ab 3d 85 f0 91 3d 78 b3 8b 3d
       0.07803002 0.08394886 0.071259536 0.0682134
0001b0 5b d9 44 3d 7b d0 82 3d 1e 88 80 3d 1e 60 fb bb
       0.04805885 0.06387421 0.06275962 -0.00767137
0001c0 47 f0 4c bd 46 50 3d bd c3 9e 66 3c 48 ba 8d 3d
       -0.050033834 -0.046219133 0.014075938 0.06920296
0001d0 31 a0 0d 3d a5 44 a9 3d 2c 29 34 3d 40 a2 76 3d
       0.0345766 0.08265046 0.043984577 0.060213327
0001e0 d4 95 a9 bd 18 7d 94 3c 44 53 4c 3d df de c6 bd
       -0.082805306 0.018126056 0.049884096 -0.09710478
0001f0 4e 36 99 bd 06 f5 ae 3d 52 b1 28 3d 2b 30 5c bd
       -0.07481061 0.08542828 0.04118473 -0.053756874
000200 77 61 a3 3d ee 1a bf bd 58 45 9b bd 63 30 11 bd
       0.07977574 -0.09331308 -0.07581586 -0.035446536
000210 0b 8e 8d bb 68 d4 08 3c 41 d8 af bc d9 79 70 3c
       -0.0043199114 0.008351423 -0.021465423 0.014677488
000220 b0 99 cd 3d 96 af d1 3d 90 91 89 3d bb 67 11 3d
       0.10039079 0.102385685 0.06717217 0.035499316
000230 71 ed 35 3d 56 2e b8 bb e9 62 f2 3b 37 fd 9e bd
       0.044415895 -0.005620758 0.007397045 -0.07763141
000240 98 fa 22 bd 40 f7 28 bd 54 3d 5c bd 0a 9a 63 3d
       -0.039789766 -0.04125142 -0.053769425 0.055566825
000250 ca 0f 05 bc a5 aa 54 bd 2a bf 21 bd 28 5c 88 3d
       -0.00812144 -0.05192055 -0.03948895 0.066582024
000260 e7 62 7f bb 2f f2 c9 bd 42 d6 1c bc 08 3d 04 3c
       -0.0038968863 -0.09860646 -0.009572567 0.008071192
000270 6e 7b 09 3e 13 e7 08 3e 2d 6c ac 3d c0 f2 ad 3d
       0.13425991 0.13369398 0.084190704 0.084935665
000280 5f 51 56 3d f8 99 38 3e ff 8b 24 bd 45 e8 d5 3d
       0.052323695 0.18027484 -0.040172573 0.104446925
000290 a2 74 30 be 43 53 5c 3d 1c ef 98 bc 70 06 60 3d
       -0.17231992 0.053790342 -0.018668704 0.05469364
0002a0 a8 9a 2d bd b0 80 1b 3e 7a ab cf 3d 29 c9 86 bd
       -0.04238382 0.15185809 0.101401284 -0.06581337
0002b0 12 0c a2 3d 9a 6a 55 3d 12 9f 03 bd d8 43 29 bd
       0.079124585 0.052103616 -0.032134123 -0.041324466
0002c0 97 4d 21 3e 1c ac ae 3d 5e f1 ce bd 40 e4 90 3d
       0.15752254 0.08528921 -0.10104631 0.07074785
0002d0 44 bc c3 bc 30 62 f8 bd a2 d6 ff bd 38 98 83 bd
       -0.023893483 -0.12128103 -0.1249211 -0.06425518
0002e0 45 2c 4c 3c 18 a2 18 3e 7a a9 23 3d 8d 17 e1 bd
       0.012461727 0.14905584 0.039956547 -0.1099082
0002f0 0b 5a 44 3d 3d 11 b1 bc 56 f5 a9 3d 16 85 e6 3d
       0.047937434 -0.021614665 0.08298747 0.11255853
000300 02 88 8c 3d 30 8e 8c bd 7f d2 05 3e e3 b6 cd 3d
       0.06861879 -0.068630576 0.13068579 0.100446485
000310 95 81 ec 3d 32 5e e9 bc f0 91 79 bd 86 23 9d bd
       0.11548153 -0.028487299 -0.060930192 -0.07672791
000320 e6 40 96 3d ae 30 7c bd fd 27 1f bb cc 0e 07 be
       0.07336597 -0.061569862 -0.002428531 -0.13189238
000330 2f 21 65 3d 7c 93 6e bd 5e 77 3a bd f7 ea c7 bd
       0.05593985 -0.05824612 -0.045523994 -0.09761613
000340 05 de e1 3c db 6c bc bc ce 07 1b 3e 64 bf 5c bd
       0.027571687 -0.023001125 0.15139696 -0.05389346
000350 24 cd d8 bd 07 1c 80 3d 04 2b ad bd fb 7b fb 3d
       -0.105860025 0.06255346 -0.0845547 0.12279507
000360 99 6c 92 bd 78 83 10 3e 47 66 3e bd 61 5c a1 3a
       -0.071496196 0.14112651 -0.046484258 0.0012310856
000370 f7 b8 53 3d 97 3a d0 bd 88 e5 87 3d c3 42 ab 3a
       0.051690068 -0.10167425 0.066355765 0.0013066161
000380 0f a5 92 3b d4 e4 38 3d 46 3b 56 bd c5 10 04 bd
       0.004475243 0.045140103 -0.05230262 -0.032242555
000390 bd a7 05 bc 76 32 61 3c af f9 0f be 33 ed 88 bd
       -0.008157668 0.013744941 -0.1406009 -0.06685867
0003a0 97 dc 68 bd 60 0f 87 bd b1 1d de bd 55 2b 8a bd
       -0.056850996 -0.065947294 -0.10845507 -0.06746546
0003b0 9a 29 ed 3d f2 41 d9 bd e7 b0 14 bd 91 cc 5c 3e
       0.115802005 -0.10608281 -0.03630152 0.21562411
0003c0 2a b6 fa bc 8c 10 1e 3e fd 70 2d 3c f6 e9 ca bd
       -0.03060444 0.15436 0.010586021 -0.09907906
0003d0 f8 a3 6d 3d 70 7e b5 3c d3 a4 1b be e9 8a 80 bd
       0.0580177 0.022155017 -0.15199594 -0.06276495
0003e0 2c ca a6 bd b3 55 70 ba 81 8a 86 3c 61 70 e6 bb
       -0.0814403 -0.00091680436 0.016423466 -0.0070324396
0003f0 1c 71 32 be a9 e8 3b 3c d0 b4 ed bd ca 37 71 3d
       -0.1742596 0.011469045 -0.11606753 0.058891095

fc.0.bias f4 [64]
000000 05 77 8a bd 14 1e b0 3d 21 bc 54 3d be b8 ca 3d
       -0.067609824 0.08599487 0.051937226 0.09898518
000010 76 7d 23 bd b0 62 a8 bd e8 ce e2 bd 4e b1 85 3d
       -0.03991457 -0.08221948 -0.110746205 0.06527959
000020 d5 0f 7b bd b2 61 32 3d 80 e0 5e bd 3d 6d c3 bc
       -0.061294395 0.0435502 -0.05441332 -0.0238558
000030 9b 7e 6e 3d 1a 51 f8 3d 13 34 23 3d eb 4a be bd
       0.05822621 0.12124844 0.039844584 -0.09291633
000040 c5 d5 c3 bd d6 21 7f bd c2 32 d6 bd 1a 48 7a bd
       -0.09562258 -0.062288128 -0.104589 -0.061103918
000050 45 39 c6 ba ab b5 ef bd 1b ad 75 3d 93 23 82 bd
       -0.0015123269 -0.11704572 0.05997954 -0.063544415
000060 cd 70 e5 3c 7f cf 05 bd 3d 3d 68 bc 31 d2 29 bd
       0.02800789 -0.032668587 -0.014174757 -0.04146022
000070 6a 76 c0 3b dc cb cb bd 8f 75 b7 3c a6 a5 5a 3c
       0.005873491 -0.099509925 0.022394923 0.013345158
000080 a5 05 2d bc d9 2a 50 bc 10 15 c9 bb 52 e3 89 3c
       -0.010560428 -0.012705528 -0.006136544 0.016832028
000090 c5 50 f7 bd 42 d3 b4 bd a3 c5 97 3c 6b 72 17 3e
       -0.120759524 -0.08829357 0.018526858 0.1478974
0000a0 1c d3 20 3c 9d 24 6d 3b 3b 2a c8 bd 0f 08 f2 3d
       0.009815957 0.0036185153 -0.0977368 0.11817943
0000b0 8f f5 ca bd 80 95 f5 3b 04 d6 a0 3d c3 66 aa bd
       -0.09910118 0.0074946284 0.0785332 -0.083203815
0000c0 8c 2e 11 3d 34 ca cf bd 2d e8 c5 3c 8d cd 49 3d
       0.03544478 -0.10145989 0.024158562 0.049268294
0000d0 a4 6b a7 bc 82 f0 ca 3b 6e 00 cb bd 8e 46 49 bc
       -0.02043707 0.0061932215 -0.09912191 -0.012284888
0000e0 b6 a6 7d 3d bb d9 c9 bd 99 56 5c bd af 35 b1 3b
       0.061926566 -0.09855982 -0.053793523 0.005408011
0000f0 35 09 a4 bd bf 64 62 bd 0b b3 ce 3d 40 de 7f 3d
       -0.080095686 -0.05527186 0.100927435 0.062467813

fc.2.weight f4 [3, 64]
000000 1d 30 5b bd 53 82 8a 3c b1 bc 87 3d ff e6 34 be
       -0.05351268 0.016907847 0.06627787 -0.17666243
000010 5b e3 b0 3d 43 89 a7 3c 3e 4c bf bd df 25 2c 3d
       0.086371146 0.020451194 -0.09340714 0.042028304
000020 c8 60 b9 3c 26 a4 f3 3d 79 00 c7 bd 25 e0 82 3d
       0.022629157 0.11896543 -0.09716887 0.063904084
000030 c9 38 ab bd b3 1f a0 bd 35 1b 6a bd 7c 0c c5 bd
       -0.0836044 -0.07818546 -0.057154853 -0.09621522
000040 8a c9 e6 3c 39 30 b1 bd d0 2d f8 bd 43 21 1a ba
       0.028172273 -0.08651776 -0.12118113 -0.000587959
000050 92 b0 83 bd f7 6b b1 3d c8 1f ff 3d ad 32 47 bd
       -0.064301625 0.08663171 0.12457234 -0.048632313
000060 7d 21 7c 3d 81 e1 e9 3d bb f0 bc 3c ff 36 15 be
       0.061555374 0.114199646 0.023064008 -0.1457176
000070 b1 18 03 be 7c 22 34 bc 98 5a e7 bd 2d a4 19 3e
       -0.12802388 -0.01099455 -0.11296576 0.15004034
000080 40 34 26 be 1c ee 93 bd 2e a4 b1 3d 03 87 da 3d
       -0.1623087 -0.0722315 0.08673893 0.10670283
000090 7c 1f c9 3d ef 38 97 3d 51 53 be bd 7a 28 06 3e
       0.09820458 0.07383906 -0.09293235 0.13101378
0000a0 c6 3e 2c 3d f9 8e 04 3e f5 30 77 3d 0f 7f 81 3d
       0.042052053 0.12945165 0.060349423 0.06323063
0000b0 1d ac be 3d 2c b3 b0 3d 54 a8 e2 3d 23 80 31 3b
       0.09310172 0.08627924 0.11067262 0.0027084432
0000c0 74 62 2a bb 05 ec 92 bd 81 6a 0d be a9 25 ac 3d
       -0.0025998624 -0.071739234 -0.1381016 0.084056206
0000d0 23 87 13 3c 25 28 bc bd 3a fb 03 3e a5 14 20 3d
       0.009004387 -0.091873445 0.12888804 0.03908219
0000e0 bb bb 13 be ff 27 1f 3b 2e 58 fe 3c d7 ee d3 bd
       -0.14427082 0.0024285314 0.031047907 -0.103482895
0000f0 77 2a eb bd 73 e1 1b 3b ca fd 06 3d 15 d8 fc bd
       -0.11482709 0.0023785501 0.032956876 -0.12345902
000100 e3 14 63 bd 8d 7b db bd ca 5b b0 bc c4 ed 95 3d
       -0.05543984 -0.10716925 -0.021528143 0.07320741
000110 a1 15 a1 bd 63 c7 de 3b 22 17 41 3e c5 2e 81 3d
       -0.078654535 0.006798671 0.1885648 0.06307749
000120 82 1d 60 bc e6 f4 0a be b8 04 c7 3d 87 bd 49 bd
       -0.01367891 -0.13569984 0.09717697 -0.049253013
000130 b4 3c 59 bd 28 d9 f0 3c 31 44 0f be cb 84 bf 3d
       -0.053036407 0.029400423 -0.13990857 0.093515
000140 c2 65 0e 3d 87 4b e0 3d f3 9d 10 3e 63 1c fb 3c
       0.034765013 0.10951906 0.14122753 0.030653184
000150 be 37 cf 3d e9 1f a8 3d 27 0d 08 be 4d 4a a6 3c
       0.10118054 0.082092114 -0.13286267 0.020299101
000160 91 71 f3 bd 56 d2 c1 3d 03 ea e5 3c 74 7f 17 3c
       -0.118868954 0.094639465 0.028065687 0.009246696
000170 7c f2 6f 3d fc 98 96 3d ac 02 e6 bc e8 e1 36 be
       0.05858086 0.07353398 -0.028077446 -0.17859614
000180 fe 44 03 3e c8 3d d3 3c 68 b2 b5 3d 1f 14 19 3d
       0.12819287 0.025786296 0.08871919 0.037372705
000190 c7 37 db bd 8f e3 35 3d 73 d1 78 3c aa 2a c4 3d
       -0.10703998 0.04440647 0.015186655 0.0957845
0001a0 41 c3 d1 3c 60 8e da bb 3d 87 5d bd 8e 21 27 3e
       0.0256058 -0.0066698045 -0.05408405 0.16321394
0001b0 de 8e 2b 3d e3 68 ff 3d ea 66 2b be 9d 29 29 3d
       0.041884296 0.124711774 -0.16738477 0.04129945
0001c0 e9 d2 6c 3d 1c a6 b3 bd 8a 8f 96 bd 30 c4 8e bd
       0.057818327 -0.08771917 -0.07351597 -0.069710135
0001d0 0f cd ec bd 48 6c e6 bd c2 2c 99 3c d7 8b 30 3e
       -0.11562549 -0.11251122 0.0186981 0.17240845
0001e0 c5 7a 07 bd 2c 9e 3d 3d 9d d6 1d 3e 4c bb f5 3d
       -0.033076067 0.046293423 0.154139 0.11998615
0001f0 84 06 9b bd fd 9b 75 bd c1 d8 9b bb 34 ac a7 bd
       -0.07569602 -0.059963215 -0.0047560637 -0.08187142
000200 83 1d d7 3d c3 58 db bc 12 b1 a9 3a da ac ae 3c
       0.10503676 -0.026775723 0.0012946448 0.021322656
000210 3c 5d 7e be 37 c5 b1 3d 72 3f ae 3d 18 7a c2 bd
       -0.24840254 0.08680194 0.08508195 -0.09495944
000220 45 8f 96 bc d8 86 36 bd 0e 29 c1 3d 7f 75 38 3d
       -0.018378863 -0.04456219 0.09431659 0.045033928
000230 c7 54 1b 3d 1f 76 3d 3b c0 ac f0 bd a5 b5 e5 bb
       0.037922647 0.0028909517 -0.117516994 -0.007010179
000240 6f e0 94 3d 4a de ff 3c e5 93 04 3d 03 af 31 bb
       0.0726937 0.031233925 0.032367606 -0.0027112372
000250 53 cd 85 3c e2 1c ec bd 52 4e 97 bd c3 7f e5 3d
       0.016333258 -0.115289465 -0.07387985 0.11206009
000260 e0 07 c6 bd 1c 34 28 b6 7b bc d8 bc b9 2a 8d 3c
       -0.09669471 -2.5064282e-06 -0.026457062 0.017232286
000270 eb cf 7c b9 0a aa 3b 3d 03 11 11 3e f9 7d c8 3d
       -0.00024110048 0.04581646 0.14166646 0.097896524
000280 8e 43 61 bd ae 3f f7 3b e3 bf 50 3d cf 6f 22 3d
       -0.054996066 0.007545433 0.050964247 0.03965741
000290 89 8e a0 3c 3b 51 50 3d 93 6f f0 bc a6 6c 68 bd
       0.019599216 0.050858717 -0.029350078 -0.05674424
0002a0 59 a0 cb 3d 5b 4e 37 bd 84 5d e4 bc fe dd 46 be
       0.09942693 -0.04475246 -0.027876623 -0.19420621
0002b0 51 bc 58 bd 10 67 15 3d ec b1 0d be a8 fa d5 bd
       -0.052913968 0.03647524 -0.13837403 -0.104481995
0002c0 ca b4 0c be 38 33 b6 3d ac 68 03 3e 74 45 ec bd
       -0.1374084 0.08896488 0.12832898 -0.11536685
0002d0 76 68 e1 bd 57 dc d6 3c 97 c7 9d bd 11 75 70 bd
       -0.110062525 0.026228113 -0.07704084 -0.058705393
0002e0 e7 9a 27 3e b0 de 27 3e 0f f0 07 be ab c5 96 bd
       0.16367684 0.16393542 -0.13275169 -0.07361921
0002f0 7a bc a7 3d 4f 92 a1 3b d3 c8 fc 3d 11 0c a1 3c
       0.08190246 0.0049307714 0.12342992 0.019659074

fc.2.bias f4 [3]
000000 fb c4 66 3c d0 62 d9 3c e5 c1 d5 bd
       0.01408505 0.026536375 -0.10437373
