main/models/lstmSanityAgain/best_model.pt (torch, 108601 bytes, 9 tensors)

hist_emb.weight f4 [7, 16]
0	0xbfb4b040	-1.4116287
1	0xbecd6e14	-0.40123045
2	0x3fd3187e	1.649185
3	0x3ed756d4	0.42058432
4	0xbf9fa261	-1.2471429
5	0x3e8458e2	0.25849062
6	0xbe2ee0c2	-0.17077926
7	0xbf4cc723	-0.7999136
8	0x400f32ad	2.237468
9	0x3f219ce7	0.6313004
10	0xbd15b070	-0.036545217
11	0x3ea52eeb	0.32262358
12	0xbfba0315	-1.453219
13	0xbfb3c201	-1.404358
14	0xbf769739	-0.963245
15	0x3ec4ce59	0.3843868
16	0xbf7fc5b5	-0.9991105
17	0xbfa0f1a7	-1.2573746
18	0xbf191926	-0.59804
19	0x3f68fae6	0.9100784
20	0xbfe2235f	-1.7667044
21	0xbf8b0cf3	-1.0863327
22	0x3f5a0327	0.8516106
23	0xbedd45ea	-0.43217403
24	0x3f933d2d	1.1503044
25	0x3f777444	0.9666178
26	0xbf840935	-1.031531
27	0xbe7dd876	-0.24789605
28	0xc039bcc1	-2.9021456
29	0xbef3c97a	-0.47614652
30	0xbf961cf8	-1.172759
31	0xbdf0be5e	-0.1175506
32	0x3d78b096	0.06071528
33	0xc009b82a	-2.1518655
34	0xbf04138e	-0.5159234
35	0x3fefc8b3	1.8733124
36	0x3fa15741	1.2604753
37	0xbf95522c	-1.1665702
38	0xbf475fa8	-0.77880335
39	0xbea2b7c5	-0.3178083
40	0x3f0edf07	0.5580906
41	0x3fbe2a03	1.4856571
42	0x3f4b62b9	0.79447514
43	0x3c9c413f	0.01907408
44	0xbf0f1cc2	-0.55903256
45	0xbf443152	-0.76637757
46	0x3e128fd1	0.14312674
47	0x3fb20bd1	1.3909856
48	0x3fb1188e	1.3835618
49	0xbed1417b	-0.4087027
50	0xbdbce347	-0.09223037
51	0xbe911ee4	-0.2834388
52	0x3e97e6a9	0.29668167
53	0xbfb8a549	-1.4425441
54	0xbedc653e	-0.43045992
55	0x3d3ccc25	0.046093125
56	0xbe24501b	-0.16046183
57	0xc017de9a	-2.3729615
58	0x3e0c0d3f	0.13676928
59	0x3e8e76c3	0.27824983
60	0x3f7ce42f	0.9878568
61	0xbf0e0d62	-0.5548917
62	0xbeb34f9b	-0.35021672
63	0xbf7bb931	-0.98329455
64	0x3ecdaa61	0.4016905
65	0xbeb4d736	-0.35320443
66	0x3f3d2878	0.73889875
67	0x3f232d5b	0.6374108
68	0xbfaafcfe	-1.3358457
69	0xbf66f6c7	-0.902203
70	0xbf1f98ea	-0.62342703
71	0xc000789e	-2.007362
72	0xbf9a8fc1	-1.207512
73	0xbedd1846	-0.43182582
74	0x3f7d50c0	0.9895134
75	0x3ef9fda2	0.4882632
76	0x3e49ec56	0.19719061
77	0xbfd23b74	-1.6424394
78	0xbfb1b1a7	-1.388234
79	0xc01bc556	-2.4339194
80	0x3f3dfaeb	0.74210995
81	0xbf3d38d8	-0.7391486
82	0xc001e34d	-2.0294983
83	0xbea5b0fc	-0.3236159
84	0xbf559aee	-0.8343953
85	0x3f3e7b2b	0.7440669
86	0x3fdfbdeb	1.7479833
87	0x3e2aa89a	0.16665879
88	0xbefebbe5	-0.49752727
89	0xbcf4aa63	-0.029866403
90	0x3ff53509	1.915681
91	0x3f80c3e2	1.0059779
92	0xbf2e1e3a	-0.6801487
93	0xbf8024bb	-1.0011209
94	0xbfe6852e	-1.8009393
95	0x3ff04b38	1.8772955
96	0x00000000	0.0
97	0x00000000	0.0
98	0x00000000	0.0
99	0x00000000	0.0
100	0x00000000	0.0
101	0x00000000	0.0
102	0x00000000	0.0
103	0x00000000	0.0
104	0x00000000	0.0
105	0x00000000	0.0
106	0x00000000	0.0
107	0x00000000	0.0
108	0x00000000	0.0
109	0x00000000	0.0
110	0x00000000	0.0
111	0x00000000	0.0

hist_lstm.weight_ih_l0 f4 [256, 16]
0	0xbd60bfe8	-0.054870516
1	0x3b96519c	0.0045873653
2	0x3d0ed2e0	0.034869075
3	0xbc953d4c	-0.018217705
4	0xbc8c5f24	-0.01713521
5	0x3d68db08	0.05684951
6	0x3d9e2fe0	0.07723975
7	0x3db0468a	0.08607204
8	0x3dc1e12c	0.09466776
9	0xbbdda2fc	-0.006763814
10	0x3b66713c	0.0035162708
11	0x3d9a5c34	0.075371176
12	0xbd842c84	-0.06453803
13	0x3ce0ca5c	0.027440242
14	0x3de92ef4	0.11385909
15	0x3dda055c	0.106455535
16	0xbda2fae6	-0.07958011
17	0xbd15a1a8	-0.03653112
18	0x3dc5c9b8	0.096576154
19	0xbd970bac	-0.07375273
20	0xbaa7f5bc	-0.0012814323
21	0x3d75eddc	0.060041294
22	0x3deb694c	0.11494693
23	0xbd587e84	-0.05285503
24	0x3ded8272	0.11597146
25	0xbcbfe2b4	-0.02342353
26	0x3da37f8a	0.079833105
27	0x3dfeb80c	0.12437448
28	0x3b0bd47c	0.0021336367
29	0x3b62823c	0.003456249
30	0x3c09625c	0.008385267
31	0xbda0518c	-0.07828054
32	0x3dc3524c	0.09537181
33	0xbcd41bac	-0.025892101
34	0x3d5cb4e8	0.053883463
35	0x3dacca78	0.08437055
36	0xbd4db6d4	-0.050223187
37	0xbdef6bec	-0.11690506
38	0xbb72f27c	-0.0037070801
39	0xbdadc66c	-0.084851116
40	0xbd80ab9a	-0.062827304
41	0xbdc8790e	-0.09788714
42	0xbd7abf20	-0.061217427
43	0x3dbf2b92	0.09334482
44	0x3d3fe998	0.04685363
45	0x3c80eac4	0.015736945
46	0x3def9416	0.11698167
47	0xbd811fce	-0.063048944
48	0x3dceb86a	0.10093768
49	0xbd8b5c36	-0.06804697
50	0x3d936b58	0.071982086
51	0x3d5c70d4	0.05381854
52	0xbd84b08a	-0.06478985
53	0x3cc541c4	0.024079211
54	0x3d952c3e	0.07283829
55	0xbd82ecfc	-0.063928574
56	0xbc421dfc	-0.011847969
57	0xbd8044c4	-0.06263116
58	0xbdce7c20	-0.10082269
59	0x3d6615d4	0.05617316
60	0xbdd2e266	-0.10297088
61	0x3d79f900	0.06102848
62	0x3dd675ae	0.10471664
63	0xbdcacd58	-0.099024475
64	0x3db7995a	0.08964796
65	0x3daf5adc	0.08562252
66	0x3de5ef5c	0.11227295
67	0x3d90ca1c	0.07069799
68	0x3bcef37c	0.0063156467
69	0xbd99505a	-0.07486029
70	0xbd4e6860	-0.05039251
71	0x3dbd7edc	0.09252712
72	0x3b7df93c	0.0038753292
73	0xbdb6ee94	-0.08932224
74	0xbdae4496	-0.085091755
75	0x3d60fdf8	0.054929703
76	0xbde08994	-0.10963741
77	0x3dec3bb0	0.11534822
78	0xbbb9b8bc	-0.005667774
79	0xbc4c40fc	-0.012466665
80	0xbd93ade8	-0.07210904
81	0xbcb19414	-0.021677054
82	0xbd69ea80	-0.057108402
83	0xbdc7e378	-0.09760183
84	0xbdb7c5ba	-0.0897326
85	0x3da0d5fc	0.07853314
86	0xbde3288e	-0.110917196
87	0x3d9166a6	0.07099657
88	0x3c907934	0.01763592
89	0x3d9160f2	0.07098569
90	0x3db90bb2	0.09035434
91	0xbde1b3cc	-0.11020622
92	0x3c28e0ec	0.010307532
93	0x3d499830	0.049217403
94	0x3dfed0e8	0.124421895
95	0x3dbceeec	0.09225258
96	0xbdb5a73a	-0.088697866
97	0x3dff268e	0.124585256
98	0xbda4ac2c	-0.08040652
99	0xbc85a584	-0.016314276
100	0xbd24f0ac	-0.040268585
101	0xbd7de140	-0.061982393
102	0xbd89538c	-0.067053884
103	0x3b8a649c	0.0042234194
104	0x3cedb844	0.029018529
105	0x3d2356c0	0.039877653
106	0x3defedaa	0.11715253
107	0x3d24f59c	0.040273294
108	0x3dff4ffa	0.12466426
109	0xbd859ae8	-0.06523687
110	0x3d86fb0c	0.06590852
111	0x3b1aaefc	0.0023602834
112	0x3df5e9fa	0.12007518
113	0xbd785a84	-0.060633197
114	0x3de46b00	0.11153221
115	0x3de27796	0.110579655
116	0xbdd81bd4	-0.10552183
117	0xbd9094c2	-0.07059623
118	0xbd01fb6c	-0.031733915
119	0x3dba8946	0.09108214
120	0xbd6a0c88	-0.057140857
121	0xbd684f60	-0.056716323
122	0x3df35018	0.11880511
123	0xbc28a74c	-0.010293793
124	0xbdb565ea	-0.08857329
125	0xbd921e20	-0.07134652
126	0x3d794900	0.060860634
127	0x3b32673c	0.0027222177
128	0x3cfa460c	0.03055098
129	0x3ce82804	0.028339393
130	0x3d9c9f10	0.07647526
131	0x3dcbe9fa	0.09956737
132	0xbdce8234	-0.10083428
133	0xba93bcbc	-0.0011271457
134	0xbc53130c	-0.012882959
135	0x3dd78b80	0.105246544
136	0x3db928f8	0.09041017
137	0x3dc9d1d4	0.09854475
138	0xbd42c424	-0.047550336
139	0x3c4f151c	0.01263931
140	0xbdb29672	-0.087201014
141	0x3df70436	0.1206135
142	0x3c054d9c	0.008136179
143	0x3d884c00	0.06655121
144	0xbdd2e606	-0.1029778
145	0x3d9177c8	0.071029246
146	0xbd82e872	-0.06391992
147	0x3da531ae	0.08066116
148	0xbda36a30	-0.07979238
149	0x3d590354	0.05298169
150	0xbceef54c	-0.029169701
151	0xb9384f3c	-0.00017577125
152	0x3c8db94c	0.01730027
153	0x3de6d4b8	0.11271042
154	0x3da8a246	0.08234076
155	0xbbf332dc	-0.0074218344
156	0xbdeda7ca	-0.11604269
157	0x3d8662c8	0.0656181
158	0x3d86244c	0.06549892
159	0xbdc27cc6	-0.09496455
160	0xbaf1c03c	-0.0018444131
161	0xbd651198	-0.05592498
162	0x3ccc30bc	0.024925582
163	0x3c12febc	0.008971866
164	0x3dd0394e	0.1016718
165	0x3dd923c4	0.10602525
166	0x3dc45ed0	0.095883965
167	0x3d2e867c	0.042608723
168	0x3dcda1c2	0.100406185
169	0xbbff4b9c	-0.0077909958
170	0x3df7c372	0.12097825
171	0x3d38ea60	0.045145392
172	0xbdc666c2	-0.09687568
173	0xbdd34bfa	-0.10317226
174	0x3d87e248	0.066349566
175	0x3dbf144e	0.09330045
176	0x3dc47caa	0.0959409
177	0xbd128ae0	-0.035776973
178	0xbdf99708	-0.1218701
179	0xbdbcdbf8	-0.09221643
180	0x3d3e042c	0.046390697
181	0xbdd08e7e	-0.10183428
182	0xbc8402f4	-0.01611469
183	0xbdbee590	-0.09321129
184	0x3dac5e74	0.08416453
185	0xbda64d56	-0.081202194
186	0x3d158bf8	0.036510438
187	0x3bcc333c	0.0062316936
188	0x3d12ec8c	0.03587012
189	0xbd7b9478	-0.061420888
190	0xbd062af4	-0.032755807
191	0x3c1201ec	0.008911591
192	0xbd5ac77c	-0.0534129
193	0xbbdb2a5c	-0.0066883992
194	0x3dc450bc	0.09585711
195	0xbdf7516e	-0.12076078
196	0x3df2f942	0.118639484
197	0xbd99396a	-0.07481654
198	0xbc2db3bc	-0.010601934
199	0x3da04b5a	0.07826872
200	0x3cfcf614	0.030879058
201	0xbda13e52	-0.07873215
202	0x3c468ddc	0.012118783
203	0xbc261f7c	-0.010139342
204	0x3daa20d8	0.08307046
205	0xbd085774	-0.033286527
206	0x3d5bf520	0.053700566
207	0x3cb42dd4	0.021994509
208	0x3dafba78	0.08580488
209	0x3db0c844	0.08631948
210	0x3dd79e6e	0.10528265
211	0x3dceea46	0.10103278
212	0x3cc5091c	0.024052195
213	0x3db6ab30	0.0891937
214	0x3d8c7b80	0.06859493
215	0x3bfd821c	0.0077364575
216	0x3dea644e	0.11444913
217	0xbdd3acd6	-0.103357
218	0x3d81577c	0.063155144
219	0xbb03ed3c	-0.0020130416
220	0x3cc40d9c	0.02393227
221	0xbdce7e22	-0.10082652
222	0x3c831994	0.016003408
223	0x3dce8946	0.100847766
224	0x3d1424f8	0.03616807
225	0xbd88951a	-0.06669064
226	0xbd526ffc	-0.051376328
227	0xbd13a230	-0.036043346
228	0xbcd1189c	-0.02552443
229	0x3c4f812c	0.012665074
230	0x3df006b0	0.117200255
231	0xbde5ed38	-0.112268865
232	0x3df7e82a	0.12104829
233	0x3ca7e614	0.020495452
234	0xbcdf3fa4	-0.027252026
235	0xbd0377ac	-0.03209655
236	0x3b2ac03c	0.0026054522
237	0x3d45a754	0.04825528
238	0xbde07062	-0.10958935
239	0xbbbcbe7c	-0.005760012
240	0xbd78c9ec	-0.060739443
241	0x3d194ee0	0.037428737
242	0x3d8d967e	0.0691347
243	0xbdcc3a28	-0.0997203
244	0x3dde2830	0.10847509
245	0xbb8742fc	-0.004127858
246	0xbda647fa	-0.08119197
247	0xbdf7bed6	-0.12096946
248	0x3da2debc	0.079526395
249	0xbd881f12	-0.06646551
250	0x3c05b4ec	0.008160811
251	0x3d9b838e	0.075934514
252	0x3d7ac1c4	0.061219946
253	0xbdb8e3b0	-0.09027803
254	0xbdbbe660	-0.091748
255	0xbdf4fd62	-0.119623914

hist_lstm.weight_hh_l0 f4 [256, 64]
0	0xbc6c6c5a	-0.01443013
1	0xbd9507e0	-0.07276893
2	0xbd6f71fd	-0.058458317
3	0xbd93aca6	-0.072106645
4	0xbdb9280a	-0.0904084
5	0xbcc0f1c0	-0.023552775
6	0xbd208154	-0.039185837
7	0xbe0be06e	-0.13659832
8	0xbdd42cb5	-0.1036009
9	0x3e0ed669	0.13948978
10	0x3dad37bb	0.08457895
11	0x3e01acd6	0.12663588
12	0x3d3c1568	0.045918852
13	0xbdcf5eac	-0.10125479
14	0xbd9722cb	-0.07379683
15	0x3d328252	0.043581314
16	0x3dfbe4ab	0.12299474
17	0x3d5b624d	0.053560544
18	0xbe03da74	-0.12876302
19	0x3d367548	0.044545442
20	0x3c4f826e	0.012665374
21	0xbdcf423f	-0.10120057
22	0xbdd8883a	-0.10572858
23	0xbda9892d	-0.08278117
24	0x3cd8102b	0.026374897
25	0x3dd76b03	0.10518458
26	0xbc2190ab	-0.009861152
27	0xbdf168c8	-0.117875636
28	0xbdb3f693	-0.08787265
29	0x3d77174e	0.06032496
30	0x3d9ca037	0.07647746
31	0x3de94fca	0.11392172
32	0x3c98e152	0.018662129
33	0x3d194818	0.03742227
34	0xbd677381	-0.056506637
35	0x3d884a7e	0.06654833
36	0x3d83c503	0.064340614
37	0x3c0206a2	0.007936152
38	0x3d89a458	0.06720799
39	0x3d840153	0.06445565
40	0x3e0c98b7	0.13730131
41	0x3d9654b1	0.07340372
42	0x3c379baa	0.011206547
43	0x3dc867d9	0.09785432
44	0x3d12bf52	0.03582699
45	0x3dc478b3	0.09593334
46	0x3de254ed	0.110513546
47	0xbdd3bf7d	-0.10339258
48	0xbd9b917d	-0.07596109
49	0x3d9aa1c7	0.07550388
50	0x3de7a8b6	0.11311476
51	0x3d08c562	0.033391364
52	0xbdd6b467	-0.10483628
53	0x3dd2d010	0.10293591
54	0xbaccdf51	-0.0015630518
55	0x3c9a737d	0.018853897
56	0x3c81966d	0.015818799
57	0x3ccaa7df	0.02473825
58	0x3deb6f29	0.114958115
59	0xba8d8c5f	-0.001079928
60	0xbd68c513	-0.05682857
61	0xbe0a6603	-0.13515477
62	0xbcd6cdd9	-0.026221203
63	0x3d0fb57b	0.035085183
64	0xbd053386	-0.03251984
65	0xbd7c4461	-0.06158865
66	0x3daeeb55	0.0854098
67	0x3d6bd2d6	0.057574116
68	0x3d623dd5	0.05523475
69	0xbd1aae5d	-0.037763942
70	0xbdbbdbb9	-0.09172768
71	0x3db87774	0.09007159
72	0x3d4c4849	0.049873624
73	0xbd3e8a4a	-0.0465186
74	0xbd42ec2d	-0.047588516
75	0x3dcc01fc	0.09961316
76	0xbd9d21dd	-0.076724745
77	0x3d5837e7	0.052787688
78	0x3d364c4e	0.044506364
79	0xbda2fd60	-0.07958484
80	0xbc002f79	-0.007823818
81	0xbcc713fc	-0.024301521
82	0xbdd0476e	-0.10169874
83	0xbcaaf5e2	-0.0208692
84	0x3c4dc9c9	0.012560316
85	0x3cec0f52	0.028815899
86	0xbd48413c	-0.048890337
87	0x3d40e9b9	0.047097895
88	0xbb9c9c3d	-0.0047793672
89	0xbdd07854	-0.10179201
90	0x3d2b043e	0.041752093
91	0xbdcfb389	-0.101416655
92	0xbcddce2b	-0.027075848
93	0xbdf3d3dc	-0.11905643
94	0x3a81be5b	0.0009898649
95	0x3ddf8293	0.10913577
96	0x3c9fb529	0.019495564
97	0x3d51ba6c	0.051203176
98	0xbd4b8d47	-0.04969528
99	0xbd95e162	-0.07318379
100	0x3d3bf4fd	0.045887936
101	0x3de77db8	0.11303276
102	0x3cc85a43	0.024457103
103	0x3dc52c5c	0.096276015
104	0xbdacb061	-0.08432079
105	0xbde2a04d	-0.11065731
106	0xbb8be775	-0.004269535
107	0x3ce30dcf	0.027716545
108	0xbcf013dd	-0.029306347
109	0xbdaefadb	-0.08543941
110	0x3bdf90f3	0.006822699
111	0x3dc771aa	0.097384766
112	0xbdb11195	-0.08645932
113	0x3d8ac1cf	0.06775247
114	0x3deceb51	0.115683205
115	0x3c032a61	0.008005709
116	0x3d9dc1f0	0.07703006
117	0x3de78da5	0.113063134
118	0x3c364e7d	0.0111271115
119	0xbbdcab70	-0.006734304
120	0xbdd62054	-0.10455385
121	0x3d1f605c	0.038910255
122	0x3dfed8c4	0.124436885
123	0xbde87019	-0.11349506
124	0x3d98df2f	0.07464444
125	0xbd51efbc	-0.05125402
126	0xbdc5d35a	-0.09659453
127	0xbdc3fc2f	-0.095695846
128	0xbdbab7f3	-0.09117117
129	0x3d9a2da6	0.07528238
130	0xbdd6a794	-0.10481182
131	0xbd9e4436	-0.07727854
132	0xbc687b17	-0.014189503
133	0x3cf7ff59	0.030273126
134	0xbdc1de0c	-0.0946618
135	0xba097f4f	-0.0005245106
136	0x3cb8975d	0.022533113
137	0x3cf70fce	0.030158903
138	0xbd0d9b0b	-0.03457169
139	0x3c2c16e3	0.0105035035
140	0xbdb8eb37	-0.09029239
141	0x3dca94ca	0.098916605
142	0xbcb55e33	-0.022139644
143	0x3d998e04	0.074977905
144	0xbd844334	-0.064581305
145	0xbdaf4d16	-0.08559625
146	0x3dba767d	0.09104631
147	0x3e0ef73a	0.13961497
148	0xbdd3a01a	-0.10333271
149	0xbd1b8308	-0.037966758
150	0xbdd401d8	-0.10351914
151	0xbdb38177	-0.08764928
152	0x3d2f60f0	0.042817056
153	0xbdc9542c	-0.09830508
154	0x3de49ff9	0.11163325
155	0xbdf407ca	-0.11915548
156	0xbdee9ac3	-0.11650612
157	0xbb3c2ed4	-0.0028714435
158	0x3daa5599	0.08317108
159	0x3d3da575	0.04630037
160	0xbd097e23	-0.03356756
161	0x3ded55e2	0.115886465
162	0x3d66bd1e	0.0563327
163	0x3d8a7852	0.067612305
164	0xbd2588f9	-0.04041383
165	0xbdd4516b	-0.10367092
166	0xbdba2ffe	-0.09091185
167	0x3d94a55b	0.072581016
168	0xbdb4f2b7	-0.08835357
169	0x3de50034	0.11181679
170	0x3da130cf	0.078706376
171	0x3d28357e	0.04106664
172	0x3d83a1c6	0.0642734
173	0xbddcce36	-0.10781519
174	0xbdfacc72	-0.12246026
175	0xbda37828	-0.07981902
176	0xbd97970f	-0.07401859
177	0x3c9e7840	0.019344449
178	0x3cd9024d	0.026490355
179	0x3cabe5a1	0.020983519
180	0x3d200e41	0.039076094
181	0xbe128227	-0.14307462
182	0x3d877341	0.0661378
183	0xbcfbea33	-0.030751323
184	0xbd24a4a6	-0.040196083
185	0x3dbb80d5	0.09155432
186	0x3dc55540	0.09635401
187	0xbe0793b4	-0.13239938
188	0xbd184ec1	-0.03718448
189	0xbda248a0	-0.07924008
190	0x3cf0fc5c	0.02941721
191	0x3cd56d79	0.026053177
192	0x3e0a4135	0.13501437
193	0x3ce66b68	0.028127387
194	0xbd53ebc2	-0.051738508
195	0x3d55050a	0.05200676
196	0xbd749248	-0.059709817
197	0x3da9bb59	0.08287687
198	0x3d6b66b7	0.057471003
199	0xbdfa17ad	-0.12211547
200	0xbdabd659	-0.08390493
201	0xbbdc3520	-0.0067202
202	0x3d6c3a51	0.057672802
203	0xbd98d9eb	-0.074634396
204	0x3bf30ff8	0.007417675
205	0x3dcb2e97	0.09920996
206	0x3dccd3b3	0.10001316
207	0x3d9538ac	0.072862
208	0xbdda85b8	-0.10670036
209	0x3d917f1c	0.07104322
210	0xbddb0c8a	-0.10695751
211	0xbd8a1513	-0.06742301
212	0xbd6078dd	-0.054802764
213	0x3ca5b926	0.020229887
214	0x3d9ac6f6	0.0755748
215	0x3d0c55dc	0.03426157
216	0x3da4009f	0.08007931
217	0xbba676ef	-0.005080096
218	0x3dbf2df9	0.093349405
219	0x3cb4a068	0.022049144
220	0x3dd4dfed	0.10394273
221	0x3bf6c02d	0.0075302334
222	0xbdb6147b	-0.08890625
223	0x3cef54ab	0.029215178
224	0x3deb7823	0.11497524
225	0xbc36bcba	-0.011153394
226	0x3d04c6aa	0.032416023
227	0x3dafca56	0.085835144
228	0xbc0ab058	-0.008464895
229	0xbc7aaef4	-0.015300501
230	0xbd05395c	-0.032525405
231	0xbd039171	-0.032121126
232	0xbd8b8691	-0.06812776
233	0x3d83e656	0.064404175
234	0x3ce981a5	0.028504202
235	0xbb9d3906	-0.0047980575
236	0xbc3df929	-0.011595049
237	0x3dcb3afb	0.09923359
238	0x3d0dd51e	0.034627073
239	0x3d9f5cea	0.07781394
240	0x3dabbc24	0.08385494
241	0xbda2aa88	-0.079426825
242	0x3cd3e752	0.025867138
243	0x3ccb4c86	0.024816763
244	0x3d84080f	0.064468496
245	0x3d5166e3	0.05112351
246	0xbd6e1224	-0.05812277
247	0xbcc2c12e	-0.023773756
248	0x3d5e8f02	0.0543356
249	0x3be8df00	0.007106662
250	0x3bb0d982	0.0053970227
251	0xbaf12b2e	-0.0018399709
252	0x3d05fcb5	0.032711703
253	0xbd82aec7	-0.063809924
254	0x3dcddca7	0.10051852
255	0xbde0d13a	-0.10977407

hist_lstm.bias_ih_l0 f4 [256]
0	0x3d29cfed	0.04145806
1	0x3d988af5	0.07448379
2	0x3d7eac62	0.062176116
3	0x3ce85e49	0.028365271
4	0xbc0d6022	-0.008628877
5	0xbad743b7	-0.0016423379
6	0x3c5205e9	0.012818792
7	0x3dbe521e	0.09293006
8	0xbda75a02	-0.081714645
9	0xbd96f42a	-0.07370789
10	0x3d42b4fe	0.04753589
11	0xbde9685e	-0.113968596
12	0x3d38de82	0.045134075
13	0xbdbc6995	-0.09199826
14	0x3d3a4330	0.04547423
15	0x3c8dbdf4	0.01730249
16	0x3ddf5ee9	0.109067746
17	0xbddc8d84	-0.107691795
18	0x3df97fa5	0.121825494
19	0x3deaff0a	0.11474426
20	0xbddc2622	-0.10749461
21	0xbdd34e49	-0.10317666
22	0x3d0602ce	0.03271752
23	0x3df65839	0.12028546
24	0xbd81b1ec	-0.06332764
25	0xbd9747e6	-0.073867604
26	0xbd74c026	-0.05975356
27	0x3db9ceeb	0.090726696
28	0x3d06b764	0.03288974
29	0x3e108c5a	0.1411604
30	0x3dd62403	0.104560874
31	0x3cd89f14	0.026443042
32	0x3dfd44b5	0.123666205
33	0x3c66012e	0.014038367
34	0xbb35c885	-0.0027737927
35	0x3d47622a	0.0486776
36	0xbdccea0b	-0.10005578
37	0xbc1e67c5	-0.009668295
38	0x3c63fcf1	0.013915286
39	0x3b74ad04	0.003733457
40	0xbdaddcc1	-0.08489371
41	0x3cfda9a5	0.030964682
42	0xbd3dbe4d	-0.046324063
43	0x3e26a71b	0.16274683
44	0x3b38c7b2	0.00281952
45	0xbdb3fe23	-0.08788707
46	0x3dd22d94	0.102625996
47	0x3dcee6c0	0.10102606
48	0xbbd65210	-0.0065405443
49	0x3d5cc546	0.053899072
50	0xbdb3c060	-0.08776927
51	0x3cea8ade	0.02863067
52	0xbdc34608	-0.09534842
53	0xbc8a8e36	-0.016913515
54	0xbd3a0098	-0.045410722
55	0xbd3ee77b	-0.046607476
56	0xbc0cadd0	-0.008586362
57	0x3df5f220	0.12009072
58	0xbbefe8a1	-0.0073214327
59	0x3e115167	0.14191209
60	0xbd951fe2	-0.07281472
61	0x3e039df7	0.12853228
62	0xbd192f8c	-0.03739886
63	0xbc38c463	-0.011277291
64	0x3d867bdc	0.06566593
65	0xbb150b42	-0.0022742306
66	0xbd40879f	-0.04700434
67	0xbdbcdf8f	-0.09222328
68	0x3a296b2b	0.00064628077
69	0x3d758d55	0.059949238
70	0xbda346a3	-0.07972457
71	0xbdc72059	-0.09722967
72	0xbce79dea	-0.028273541
73	0x3de9cd62	0.11416127
74	0xbd31f8c0	-0.043450117
75	0xbdf06f2a	-0.11739953
76	0xbd9cf011	-0.076629765
77	0x3cd300c3	0.0257572
78	0x3c9cfcfb	0.0191636
79	0x3c52e529	0.012872019
80	0xbc88d7b2	-0.016704414
81	0xbd3b7f7c	-0.045775875
82	0x3ddb216b	0.10699733
83	0xbd26c288	-0.040712863
84	0x3ceed3cd	0.029153729
85	0xbdd7f737	-0.10545199
86	0xbc8636be	-0.016383525
87	0x3cfd8cbb	0.030950895
88	0x3c9ad6ff	0.018901346
89	0x3dca9dc1	0.098933704
90	0x3dde2cce	0.108483896
91	0x3e028b60	0.1274848
92	0x3dd3a45c	0.103340834
93	0x3dbf4cd0	0.09340823
94	0x3de96943	0.1139703
95	0x3d9af9c2	0.07567169
96	0xbbd0fc46	-0.0063777296
97	0xbccc66cb	-0.02495136
98	0x3d43a00c	0.047760054
99	0x3dd901a1	0.10596014
100	0x3c0325c9	0.008004614
101	0x3d2d6f93	0.042342734
102	0xbdd641f2	-0.10461797
103	0xbcf93d19	-0.030424641
104	0xbc1dabeb	-0.009623508
105	0xbdd994e7	-0.10624104
106	0xbd526249	-0.051363263
107	0x3e0d7488	0.13813984
108	0x3ddc64f1	0.107614405
109	0x3cf17295	0.029473582
110	0x3d8d9210	0.06912625
111	0x3dbde8a3	0.092728876
112	0x3cd5ce8f	0.026099471
113	0xbdc2f816	-0.09519975
114	0xbc52fb4e	-0.0128772985
115	0xbc841876	-0.016124945
116	0xbdd8e6eb	-0.10590919
117	0x3d2ac7ec	0.041694567
118	0x3cd5e519	0.026110219
119	0xbd6d98b1	-0.058006946
120	0x3c90efd7	0.01769249
121	0x3df505e5	0.11964015
122	0xbd41c63f	-0.047308203
123	0x3d2b52ad	0.041826893
124	0xbcb062c8	-0.021531478
125	0xbb14a5bf	-0.00226818
126	0xbb65dd93	-0.0035074695
127	0x3c67f6e3	0.0141579835
128	0xbcc23cec	-0.02371069
129	0xbcb8cfb2	-0.022559974
130	0xbd187448	-0.03722027
131	0xbdb192a8	-0.086705506
132	0xbde89249	-0.11356027
133	0x3ce2ac6e	0.027670112
134	0xbde70ef3	-0.11282148
135	0x3d2477e5	0.040153403
136	0xbdcdf4fd	-0.100564934
137	0xbd9366db	-0.071973525
138	0xbda29810	-0.0793916
139	0x3d2956e9	0.04134265
140	0x3b511b50	0.0031907149
141	0x3de89062	0.11355664
142	0x3c842be1	0.016134204
143	0xbd2a1de6	-0.04153242
144	0xbb9f5b12	-0.0048631513
145	0xbcc99a11	-0.024609597
146	0xbd0048f7	-0.031319585
147	0x3dd015df	0.101604216
148	0xbde15372	-0.11002244
149	0x3dbf8635	0.0935177
150	0x3d94826e	0.0725144
151	0xbe22a682	-0.1588383
152	0xbd3b8d7f	-0.045789238
153	0xbe1c9cdb	-0.1529421
154	0xbcf1b813	-0.029506719
155	0xbdb491bc	-0.08816859
156	0xbcb614a5	-0.022226641
157	0xbde3e539	-0.11127705
158	0xbdf953b8	-0.12174171
159	0x3d186b84	0.03721191
160	0x3d8a6980	0.06758404
161	0x3dfaac6c	0.12239918
162	0xbd5f4617	-0.054510202
163	0x3d6fb025	0.058517594
164	0xbdca1d74	-0.09868899
165	0xbdc69b1f	-0.09697556
166	0x3dcf2ad3	0.1011559
167	0x3d00d53f	0.031453367
168	0xbd81b535	-0.063333906
169	0xbb66654a	-0.0035155588
170	0xbd7fc121	-0.06244004
171	0x3e1d85ee	0.15383121
172	0xbe014eb7	-0.12627684
173	0xbd217da9	-0.03942648
174	0x3c5b80bc	0.013397392
175	0x3c552c31	0.013011024
176	0x3e063267	0.13105164
177	0x3e088d5f	0.13335179
178	0x3adcc500	0.0016843379
179	0x3d82dadb	0.063893996
180	0xbdda7cfe	-0.106683716
181	0xbcaaa5fc	-0.0208311
182	0x3de4b787	0.111678176
183	0xbe07dc7e	-0.13267705
184	0xb9cea8c6	-0.00039417128
185	0x3df9e08e	0.122010335
186	0xbce0a9f2	-0.027424786
187	0x38afd42c	8.38417e-05
188	0x3de59f2e	0.11212002
189	0x3ceeaf1c	0.029136233
190	0x3dcc262c	0.09968218
191	0xbd835dc9	-0.064143725
192	0x3ca3d664	0.01999969
193	0x3dcfceb6	0.10146849
194	0x3dfe4a52	0.12416519
195	0x3c57242e	0.0131311845
196	0x3b37451e	0.002796478
197	0x3d54442b	0.051822823
198	0xbd8d0249	-0.068852015
199	0xbd0c1a79	-0.034204934
200	0x3daad25b	0.08340903
201	0x3dddd8d9	0.10832376
202	0xbd89818c	-0.06714162
203	0x3db7017b	0.08935829
204	0x3e0db0c8	0.13836968
205	0x3d2c48b3	0.04206152
206	0x3cbc726f	0.023003785
207	0x3c904b97	0.017614169
208	0xbdcfa5ab	-0.101390205
209	0x3d11ac80	0.0355649
210	0xbd850fed	-0.06497178
211	0xbd27d205	-0.040971775
212	0x3d69e7b9	0.057105754
213	0x3e067baf	0.13133119
214	0xbce50f34	-0.027961351
215	0xbd9a5d3a	-0.07537313
216	0x3ccc3ea1	0.024932208
217	0x3d7e7e59	0.062132213
218	0x3daba2c5	0.08380655
219	0xbd2af6ae	-0.04173916
220	0xbd78de6f	-0.060759004
221	0xbd8d8780	-0.0691061
222	0xbd906d20	-0.07052064
223	0xbdce4326	-0.10071401
224	0xbcee4c6f	-0.02908918
225	0xbd939151	-0.07205451
226	0xbda233fe	-0.07920073
227	0xbb572e2b	-0.0032833915
228	0x3d26b2f9	0.040698025
229	0xbd2ea0c9	-0.042633805
230	0xbd92c271	-0.07165993
231	0xbcc4c706	-0.024020683
232	0x3d959f77	0.07305806
233	0xbd765d0e	-0.060147338
234	0xbba0db45	-0.0049089515
235	0x3e133561	0.14375831
236	0xbc951b0c	-0.018201374
237	0xbdb62181	-0.08893109
238	0x3d530557	0.051518764
239	0xbd45a167	-0.04824963
240	0xbd7bd867	-0.061485674
241	0xbd78ccdd	-0.060742248
242	0xbdb1f50b	-0.08689316
243	0xbd6921b6	-0.056916915
244	0x3d5ed4d6	0.054402195
245	0x3df65302	0.12027551
246	0xbdb5bbbd	-0.08873699
247	0xbd4c1f73	-0.04983468
248	0xbd43c2d3	-0.04779322
249	0x3ae502b3	0.0017472118
250	0xbc76c85c	-0.015062418
251	0xbd601efb	-0.054717045
252	0x3d8e5d02	0.069513336
253	0xbd9e1549	-0.077189036
254	0x3e0a93e8	0.13532984
255	0xbdd7b028	-0.10531646

hist_lstm.bias_hh_l0 f4 [256]
0	0xbd87bee2	-0.06628205
1	0xbc350de0	-0.011050671
2	0xbd971f33	-0.07378998
3	0xbd4d761f	-0.050161477
4	0x3d79c0a9	0.06097475
5	0x3dfea488	0.124337256
6	0x3dabedf0	0.08394992
7	0xbd4bcc8b	-0.049755614
8	0x3c9f6449	0.019457
9	0x3d100cdd	0.035168517
10	0x3de1f46e	0.110329494
11	0x3cd6350a	0.026148338
12	0x3e017671	0.12642838
13	0x3d0497b8	0.032371253
14	0x3d47d8f4	0.048790887
15	0x3cb8a757	0.022540731
16	0x3d716757	0.058936443
17	0x3de80878	0.1132974
18	0xbda41af9	-0.08012957
19	0xbd22dc75	-0.039761025
20	0xbca24255	-0.01980702
21	0xbc0cbb4a	-0.008589575
22	0xbdcecd0e	-0.10097705
23	0xbc03d3d0	-0.0080461055
24	0xbdc7bd30	-0.097528815
25	0x3dd56086	0.10418801
26	0x3dc02000	0.093811035
27	0x3d67b145	0.05656554
28	0x3dfea6de	0.12434171
29	0x3e10caab	0.14139812
30	0xbd923085	-0.071381606
31	0x3da839c5	0.08214144
32	0x3d2af97f	0.041741844
33	0x3d23be68	0.039976507
34	0xbd512f11	-0.051070277
35	0x3db40c37	0.08791392
36	0xbd1a5f20	-0.037688375
37	0x3dd74292	0.10510744
38	0xbc3fbe0b	-0.011703025
39	0x3d85b357	0.06528347
40	0x3c813c7c	0.015775912
41	0x3d176a01	0.036966328
42	0x3d8c60d6	0.068544075
43	0x3c7b726a	0.015347103
44	0x3d440481	0.047855858
45	0x3e0e5a17	0.13901554
46	0x3c35a5fc	0.011086937
47	0x3c405656	0.011739334
48	0xbd8263ec	-0.06366715
49	0xbd0fc421	-0.035099152
50	0xbd6687e5	-0.056281943
51	0xbd65d1bf	-0.056108233
52	0xbdd43fd2	-0.10363735
53	0x3ddd4ecd	0.10806046
54	0xbd8375e0	-0.06418967
55	0x3e0f8d02	0.14018634
56	0x3dbc34e2	0.09189774
57	0xbc2870ad	-0.01028077
58	0x3dd9943c	0.106239766
59	0xbd8c593b	-0.06852957
60	0xbd991540	-0.07474756
61	0xbd34d3bd	-0.04414724
62	0x3e0c66a2	0.13711026
63	0x3d1c0df8	0.03809926
64	0x3dab22d5	0.08356253
65	0xbd43e4dd	-0.047825683
66	0x3b63586c	0.0034690155
67	0xbd62f4f3	-0.055409383
68	0x3cbccc3a	0.023046602
69	0x3d0f9be9	0.035060797
70	0xbd459b1a	-0.04824362
71	0xbdddfb0f	-0.10838901
72	0xbc9caab1	-0.01912436
73	0xbd34a111	-0.044098917
74	0xbdbc2589	-0.09186847
75	0x3cbb0a62	0.0228321
76	0xbcb61dd7	-0.022231026
77	0xbd28d7a2	-0.04122127
78	0xbd6954c6	-0.056965612
79	0x3d790c7e	0.06080293
80	0x3c3d8dee	0.011569483
81	0xbda94596	-0.082652256
82	0x3da4c4a7	0.08045321
83	0x3db5eb1e	0.08882736
84	0xbdb2fd32	-0.087396994
85	0xbd055cfe	-0.032559387
86	0xbcceadeb	-0.025229415
87	0xbd96dc93	-0.0736629
88	0x3d9103e4	0.0708082
89	0xbd457ca3	-0.048214566
90	0xbdd0bb12	-0.10191931
91	0x3c8b9ee8	0.017043546
92	0x3dcb75b8	0.099345624
93	0xbda61384	-0.08109191
94	0x3e202b47	0.15641509
95	0x3dfef2ac	0.1244863
96	0xbdc201e7	-0.09473019
97	0x3b61f91e	0.003448076
98	0x3e1015ae	0.1407077
99	0x3dfdf761	0.124006994
100	0xbd9a9f18	-0.07549876
101	0x3d7ec7bf	0.06220221
102	0xbda1d588	-0.07902056
103	0x3c951e19	0.018202828
104	0xbd203252	-0.03911049
105	0x3dac3d9d	0.08410189
106	0xbd546a80	-0.05185938
107	0x3cc08a87	0.023503555
108	0xbca1780c	-0.019710563
109	0x3c639c87	0.0138922995
110	0x3dfaff8b	0.12255772
111	0xbcabaa74	-0.020955302
112	0x3e0eac9c	0.13933033
113	0x3c8c80fc	0.017151348
114	0xbdb0bd88	-0.086299
115	0x3b3c6ad8	0.0028750207
116	0xbdbe7ea5	-0.09301499
117	0x3de61e64	0.11236265
118	0x3d4ea94a	0.050454415
119	0x3dde318e	0.108492956
120	0x3dcf7c23	0.10131099
121	0xbcb9da8b	-0.022687217
122	0x3dc1d6ee	0.09464823
123	0x3b5e63b7	0.0033933946
124	0xbd170063	-0.036865603
125	0x3d76b491	0.060230795
126	0xbb7cbe81	-0.0038565698
127	0x3d85d4e1	0.06534744
128	0x3c7d4089	0.015457281
129	0x3dc141b3	0.09436359
130	0xbe0afe1c	-0.13573498
131	0x3d0a647b	0.033787232
132	0xbb12428f	-0.0022317504
133	0xbdeff84c	-0.11717281
134	0xbdf2915f	-0.118441336
135	0xbd4b8b96	-0.049693666
136	0x3dac0379	0.083991
137	0x3df4b61f	0.11948799
138	0xbc91b204	-0.01778508
139	0x3df10eb5	0.11770383
140	0xbd760db2	-0.060071655
141	0x3dd8fa14	0.105945736
142	0x3da78320	0.08179307
143	0x3deb96ca	0.1150337
144	0x3de8de9e	0.11370586
145	0xbdc3ae68	-0.0955475
146	0xbd83f3fd	-0.064430214
147	0x3d863dff	0.065547936
148	0xbd67bf13	-0.056578707
149	0xbe03d992	-0.12875965
150	0xbdfb0538	-0.12256855
151	0xbcebbf35	-0.028777698
152	0xbdabdc10	-0.08391583
153	0xbe07675d	-0.13223024
154	0xbbcca292	-0.006244966
155	0x3d6c634d	0.057711888
156	0xbd0c133e	-0.03419804
157	0x3b104593	0.0022014126
158	0x3d60368f	0.05473953
159	0x3db2b3fd	0.08725736
160	0x3ce01bfe	0.027357098
161	0x3da8afc0	0.08236647
162	0x3ce41993	0.027844226
163	0xbdf41546	-0.1191812
164	0xbd83678b	-0.06416234
165	0xbe0be372	-0.13660982
166	0xbdb93bd5	-0.09044615
167	0x3db23497	0.08701437
168	0x3e144ea5	0.14483126
169	0x3b98f09e	0.0046673557
170	0xbe209f9a	-0.15685883
171	0x3d81e211	0.06341947
172	0xbe17d598	-0.14827573
173	0xbd834451	-0.06409515
174	0xbe097cdf	-0.13426541
175	0x3cfdc560	0.030977905
176	0x3da9f8dc	0.08299419
177	0x3e070a58	0.1318754
178	0x3da4e55a	0.08051558
179	0xbe1a2de2	-0.15056565
180	0xbdbffa26	-0.09373884
181	0xbe10c282	-0.14136699
182	0x3db28dc5	0.08718447
183	0xbdd330bf	-0.10312032
184	0x3dd71b05	0.105032004
185	0x3cf095f4	0.029368378
186	0x3d93a665	0.072094716
187	0xbd8d3e2f	-0.06896626
188	0x3d447772	0.047965474
189	0xbdf7d2ba	-0.1210074
190	0xbcaff2aa	-0.021478016
191	0xbd1c7772	-0.03819985
192	0x3d2212c0	0.039568663
193	0xbdebebe1	-0.115196
194	0xbda83f24	-0.08215168
195	0x3dc3a35c	0.09552643
196	0xbc1d8d02	-0.009616138
197	0x3d17ddbf	0.037076708
198	0x3ddabb3f	0.106802456
199	0xbd983d35	-0.07433549
200	0xbd40ef48	-0.047103196
201	0xbd99e7e5	-0.075149335
202	0xbdbbbb0c	-0.09166536
203	0x3dab9e63	0.08379819
204	0xbb10c6ad	-0.0022091076
205	0x3cac7a72	0.02105448
206	0xbdda4773	-0.10658159
207	0x3ded7b0a	0.115957335
208	0x3cac46e0	0.02102989
209	0xbda74fff	-0.08169555
210	0x3d78aff6	0.060714684
211	0x3d834c5c	0.06411049
212	0x3db0c65a	0.086315826
213	0xbbfebbc8	-0.00777385
214	0x3d9a9f7a	0.07549949
215	0xbd9e85e6	-0.07740383
216	0x3d41a22c	0.0472738
217	0x3e1092fd	0.14118572
218	0xbd530a65	-0.051523585
219	0xbccbb672	-0.02486727
220	0xbdb5e9de	-0.08882497
221	0xbca54d71	-0.020178529
222	0xbd41306f	-0.04716533
223	0xbdae192e	-0.085008964
224	0xbb05e152	-0.002042849
225	0xbd677b2a	-0.056513943
226	0xbdaaab62	-0.0833347
227	0xbdbd76bb	-0.09251162
228	0x3e032cba	0.1281003
229	0xbdb9884e	-0.09059201
230	0xbdc206a7	-0.09473925
231	0x3d5799d3	0.052636933
232	0x3df3214c	0.11871585
233	0xbc888db6	-0.016669136
234	0x3cdac884	0.026706941
235	0x3dadd808	0.0848847
236	0xbd16954e	-0.03676348
237	0xbd71924e	-0.058977418
238	0xbd923d69	-0.07140619
239	0xbd9ca8a0	-0.0764935
240	0x3dc195a8	0.09452373
241	0x3c508bdb	0.012728657
242	0x3b4582bf	0.0030137745
243	0x3d0e1208	0.034685165
244	0xbdf2f314	-0.1186277
245	0xbd7cd307	-0.06172469
246	0x3dcf4e45	0.101223506
247	0x3e062a23	0.13102011
248	0x3de08bde	0.109641775
249	0xbda15b1c	-0.07878706
250	0x3dff15b0	0.124553084
251	0x3e0a7324	0.13520485
252	0x3dcdfea7	0.10058337
253	0x3dfc2e35	0.12313501
254	0x3d8b4a36	0.06801264
255	0xbe0270c0	-0.12738323

fc.0.weight f4 [64, 77]
0	0xbd8d3ec3	-0.068967365
1	0xbd997782	-0.074934974
2	0xbd1e5bed	-0.038661886
3	0x3d2b538b	0.04182772
4	0x3d64cc65	0.05585899
5	0x3d458ad3	0.048228096
6	0xbd847229	-0.06467087
7	0x3db1d56d	0.08683286
8	0x3da0f638	0.078594625
9	0x3dc3d289	0.09561641
10	0x3ac177df	0.0014760456
11	0xbae4a07a	-0.0017442845
12	0x3cbf7b4b	0.02337422
13	0xbdb3f307	-0.08786588
14	0x3d89b844	0.06724599
15	0xbde722b3	-0.11285915
16	0x3da0891a	0.0783865
17	0xbc10d415	-0.008839627
18	0xbd9a050a	-0.075204924
19	0xbc906d67	-0.017630292
20	0x3dbc0a66	0.09181671
21	0xbdb7ab0b	-0.08968171
22	0x3cbc8b9c	0.02301579
23	0x3d350e2a	0.04420296
24	0xbcd40dde	-0.025885519
25	0x3a92a07b	0.0011186743
26	0xbd775f5f	-0.060393687
27	0x3b966abe	0.0045903614
28	0x3a91b544	0.0011116643
29	0xbdc96baf	-0.09834992
30	0xbcefe27b	-0.029282799
31	0xbd00a619	-0.031408403
32	0x3dd711c7	0.10501438
33	0xbbac0ab8	-0.005250301
34	0xbcb543ba	-0.022127021
35	0xbdbd7fde	-0.09252904
36	0xbd2bbace	-0.041926198
37	0xbd38662a	-0.045019306
38	0x3ba1ac3c	0.004933862
39	0x3c3c1262	0.011478992
40	0xba97ff4d	-0.0011596471
41	0x3cffdb72	0.03123257
42	0xbc11537d	-0.008870003
43	0xbdc8444c	-0.097786516
44	0x3d4c09cb	0.049814027
45	0x3d67cd37	0.056592193
46	0xbdbb862f	-0.09156453
47	0x3d83d8f1	0.06437863
48	0xbd2c154e	-0.042012505
49	0x3da46b68	0.080282986
50	0xbd4ce37c	-0.050021634
51	0x3de5c10f	0.11218464
52	0x3daa218b	0.08307179
53	0xbd8d0d3d	-0.068872906
54	0xbd552d9a	-0.052045442
55	0x3c592707	0.013253934
56	0x3dc980dd	0.09839032
57	0x3d11a65a	0.035559036
58	0xbd21e7cb	-0.039527696
59	0xbdd122fd	-0.102117516
60	0xbcbe0cae	-0.023199406
61	0x3ce6851f	0.028139649
62	0x3d8b2460	0.06794047
63	0xbd8e7d5a	-0.06957503
64	0xbbdb36c8	-0.00668988
65	0xbd9a8c53	-0.07546296
66	0x3d9e5f7b	0.07733055
67	0x3cf38ef1	0.029731246
68	0x3d0e2cd5	0.034710724
69	0xbd72e85c	-0.059303626
70	0x3db136f3	0.08653059
71	0xbde8a859	-0.11360235
72	0x3d340b4a	0.04395608
73	0xbd904fd1	-0.07046474
74	0xbd110d84	-0.03541328
75	0x3d662185	0.05618431
76	0xbd23749e	-0.039906137
77	0x3b4d4caa	0.0031326213
78	0x3d56bd0e	0.05242639
79	0xbc7ed566	-0.015553808
80	0xbde0fa71	-0.10985268
81	0x3cceaf68	0.025230125
82	0x3d90ece1	0.07076431
83	0x3cdb4ba2	0.026769463
84	0x3cc40bb2	0.023931358
85	0xbd5a20dd	-0.053253997
86	0x3e151bdf	0.14561413
87	0x3d8e88e4	0.069597036
88	0x3e06fb8e	0.13181898
89	0xbdb377ba	-0.087630704
90	0x3df8c787	0.12147432
91	0x3d883241	0.0665021
92	0xbc273b30	-0.0102069825
93	0xbd3266de	-0.043555133
94	0xbd47c0d8	-0.048767895
95	0x3cdddad7	0.02708189
96	0xbcb2adfe	-0.021811482
97	0x3d9d44c9	0.07679135
98	0x3bc2906e	0.0059376275
99	0x3d8eaeee	0.06966959
100	0xbd2fa0bc	-0.042877898
101	0x3d9dc076	0.07702725
102	0x3be79c3c	0.007068185
103	0xbd127303	-0.035754215
104	0x3d78f5e8	0.06078139
105	0x3da15ecc	0.07879409
106	0x3d333821	0.0437547
107	0x3d382e8b	0.04496626
108	0xbdfc6e9f	-0.12325787
109	0x3d8e0eec	0.0693644
110	0xbdb57073	-0.088593386
111	0xbdf41cb7	-0.119195394
112	0xbceddc46	-0.029035699
113	0xbc08b5af	-0.008344098
114	0xbddf20e1	-0.10894943
115	0xbdf8acb4	-0.121423155
116	0x3d2cf012	0.042221136
117	0x3d83acb4	0.06429425
118	0xbdeb628b	-0.11493405
119	0xbd19e5b1	-0.037572566
120	0x3db7196c	0.08940396
121	0x3ddb4e48	0.1070829
122	0xbd273a89	-0.040827308
123	0x3d096dab	0.033551853
124	0x3db38b5d	0.08766816
125	0xbd2c63ba	-0.042087294
126	0xbddaf791	-0.10691751
127	0xbdf63e11	-0.12023557
128	0xbd9aef62	-0.0756519
129	0x39576cb1	0.00020544489
130	0x3c0141a8	0.007889189
131	0xbd882714	-0.066480786
132	0xbd46a9f3	-0.04850192
133	0x3d91a563	0.07111623
134	0x3d0509f9	0.032480214
135	0x3d2cc9a3	0.042184483
136	0x3cbe2e6d	0.023215497
137	0x3d4d47fa	0.05011747
138	0xbd58eb1d	-0.052958596
139	0xbd833bb2	-0.0640787
140	0x3da64538	0.08118671
141	0xbdb2f98d	-0.08739004
142	0xbcd9b914	-0.02657751
143	0xbd3118f1	-0.043236677
144	0x3c893a48	0.016751423
145	0xbd15d247	-0.03657749
146	0x3dc19a15	0.09453217
147	0xbda7e28b	-0.081975065
148	0xbdc85c46	-0.09783225
149	0xbdcc3ada	-0.099721625
150	0xbd141fa6	-0.036162995
151	0xbcac62be	-0.021043178
152	0x3d7faa46	0.062418245
153	0x3db23263	0.08701017
154	0xbdb80340	-0.08984995
155	0x3ca4b0a7	0.020103766
156	0x3da9961a	0.08280583
157	0x3d81bb1f	0.06334519
158	0x3d277ede	0.040892474
159	0xbdb93bbf	-0.09044599
160	0xbd93c8df	-0.072160475
161	0x3e32c2e7	0.17457162
162	0x3e08e047	0.13366805
163	0xbdc946d2	-0.09827961
164	0x3e01d6ce	0.12679598
165	0x3df6a330	0.12042844
166	0x3e0c5664	0.1370483
167	0xba3134d2	-0.0006759885
168	0x3d4a3ad1	0.049372498
169	0x3d07a308	0.033114463
170	0x3c921bc3	0.017835503
171	0xbc7b4601	-0.015336514
172	0xbd950256	-0.07275836
173	0xbd3485f9	-0.04407308
174	0xbd734fd7	-0.059402313
175	0xbd6b95a4	-0.057515755
176	0x3dc3087f	0.09523105
177	0xbe03b3f9	-0.12861623
178	0x3db88aad	0.09010825
179	0x3c627e2c	0.013824027
180	0xbd12c100	-0.03582859
181	0x3dcb8ba6	0.09938745
182	0x3d7b2267	0.061312106
183	0xbc371469	-0.0111743
184	0x3de158f3	0.11003294
185	0xbcf5af26	-0.029990744
186	0xbd7718af	-0.060326274
187	0x3d50b33a	0.050952174
188	0xbd0b83ea	-0.03406135
189	0xbe1e9603	-0.15486912
190	0xbe105298	-0.14094007
191	0x3d95844f	0.073006265
192	0xbdf9f4ef	-0.122049205
193	0x3e105fe6	0.14099082
194	0x3cbb1079	0.022835003
195	0xbe021067	-0.1270157
196	0x3d19bbd4	0.037532642
197	0xbe3930b7	-0.1808499
198	0x3c4e1831	0.01257901
199	0xbd1ba405	-0.037998218
200	0xbd06bc4b	-0.032894414
201	0xbe0178ad	-0.1264369
202	0xbdd426f1	-0.1035899
203	0xbdb34df5	-0.087551035
204	0x3c0f1ef9	0.008735412
205	0x3d691412	0.056903906
206	0xbd78bb45	-0.06072547
207	0xbd858064	-0.06518629
208	0xbd8343d9	-0.06409425
209	0xbd91b7da	-0.07115145
210	0x3dc3b94f	0.09556829
211	0x3ce2f031	0.027702423
212	0x3bce0bd4	0.006288031
213	0xbe11cada	-0.14237538
214	0x3d49b097	0.049240675
215	0x3e0f476f	0.13992094
216	0x3dccf6eb	0.10008033
217	0x3dba274c	0.090895265
218	0xbd88ced3	-0.066800736
219	0xbe0394e3	-0.12849765
220	0xbc942ef6	-0.018088799
221	0x3e04799f	0.1293702
222	0x3d8a87e3	0.067641996
223	0xbd77216a	-0.0603346
224	0x3e0109bc	0.1260137
225	0x3dc308e6	0.095231816
226	0xbd6e9102	-0.05824376
227	0x3cb25262	0.021767799
228	0x3cdc10c5	0.026863465
229	0x3dc6a80a	0.0970002
230	0x3db83b33	0.08995666
231	0xbe0b6dec	-0.1361615
232	0x3cb29fae	0.021804657
233	0x3d725a94	0.059168413
234	0x3de66b8a	0.1125098
235	0x3dd52359	0.10407133
236	0xbc8e1deb	-0.01734825
237	0x3d126c8f	0.03574806
238	0xbb01e1f1	-0.001981851
239	0xbcc0111c	-0.023445658
240	0xbdf72252	-0.12067093
241	0xbd4aeb84	-0.04954101
242	0xbd5bb7a9	-0.05364195
243	0x3c5b8f1e	0.013400821
244	0x3dc4c995	0.09608761
245	0xbd817a72	-0.06322183
246	0xbb2c96b1	-0.0026334936
247	0xbd6653a6	-0.056232117
248	0xbbefd56b	-0.0073191426
249	0x3d226195	0.039643843
250	0x3d8a3dbc	0.06750056
251	0x3d8576a5	0.0651677
252	0x3dbf97bf	0.09355115
253	0xbd8e9a44	-0.069630176
254	0xbbb32c7d	-0.00546795
255	0x3d46f07d	0.04856919

fc.0.bias f4 [64]
0	0xbd1a25f9	-0.03763387
1	0x3d48b7b4	0.049003318
2	0x3cfa774e	0.030574467
3	0xbd61b4d8	-0.055104107
4	0x3c3baf29	0.011455336
5	0xbc734045	-0.014846866
6	0xbe0e06a6	-0.13869724
7	0xbd694793	-0.056953024
8	0x3d9d9931	0.076952346
9	0xbd21f952	-0.03954441
10	0xbdaee298	-0.08539313
11	0xbdaad6c8	-0.083417475
12	0x3c7697e4	0.015050862
13	0x3c87cd8a	0.0165775
14	0x3db7b5f3	0.08970251
15	0xbd926299	-0.07147712
16	0x3dde1f95	0.108458675
17	0x3c054ea3	0.008136424
18	0x3e1a265b	0.15053694
19	0x3d915f2e	0.07098232
20	0x3da7e289	0.08197505
21	0xbc9ded86	-0.019278299
22	0xbde784b4	-0.11304608
23	0x3d7dfcf0	0.062008798
24	0x3d9536f9	0.07285876
25	0xbce6c77a	-0.02817129
26	0x3d2362bf	0.039889093
27	0xbc6746ae	-0.014115972
28	0x3d8defc3	0.069304965
29	0xbd17af9f	-0.03703272
30	0xbdee07d0	-0.11622584
31	0xbd05d665	-0.032675166
32	0x3d945f4a	0.072447374
33	0x3d2e62ac	0.04257457
34	0xbd89ab0f	-0.0672208
35	0x3d8fff09	0.07031066
36	0xbc76c6de	-0.015062062
37	0xbcb762ef	-0.022386042
38	0x3d29cc21	0.041454438
39	0xbd70cf10	-0.05879122
40	0x3dda6e32	0.10665549
41	0xbd9e1cc8	-0.07720333
42	0x3daccaae	0.084370956
43	0xbde281ae	-0.11059891
44	0x3d0e4e49	0.034742627
45	0xbdb72902	-0.089433685
46	0xbd862a42	-0.06551029
47	0xbd4de05a	-0.050262786
48	0xbc1beb5b	-0.009516562
49	0x3dbeb61f	0.093120806
50	0x3e068bf6	0.13139328
51	0x3cfe8fdd	0.031074459
52	0xbd9e15db	-0.07719012
53	0xbdd138eb	-0.10215934
54	0xbd9a81c1	-0.0754428
55	0x3d9f141f	0.0776751
56	0x3de4a3fd	0.11164091
57	0x3d9aebb2	0.075644866
58	0x3dbd4dbe	0.09243344
59	0xbdc8d4e5	-0.098062314
60	0x3dbe33c7	0.092872195
61	0x3d9e8364	0.077399045
62	0x3d925f81	0.07147122
63	0x3d4db4ce	0.050221257

fc.2.weight f4 [3, 64]
0	0xbc510e6c	-0.012759786
1	0xbe0291bf	-0.1275091
2	0x3d909405	0.070594825
3	0x3d3f518e	0.046708636
4	0xbdb9b078	-0.09066862
5	0x3da42337	0.08014529
6	0x3d93c807	0.072158866
7	0xbd273efd	-0.040831555
8	0xbdcd7a87	-0.10033136
9	0x3db17562	0.08664967
10	0x3d350ef5	0.044203717
11	0x3dc4afcc	0.09603843
12	0x3db42148	0.087954104
13	0xbcb53701	-0.022120954
14	0xbcff024a	-0.031129021
15	0x3de4adbb	0.11165949
16	0xbd067d56	-0.032834373
17	0xbc97a13b	-0.018509498
18	0xbd797a99	-0.060907934
19	0x3da9e30d	0.082952596
20	0x3ded3ad3	0.115834855
21	0xbd1d10ad	-0.03834598
22	0x3d1fed7c	0.039044842
23	0x3db21ef4	0.0869731
24	0x3d9bd019	0.07608051
25	0xbddb3912	-0.10704245
26	0xbd1f096f	-0.038827356
27	0x3d4b84db	0.049687248
28	0x3bd0f1b6	0.0063764704
29	0xbd9f5547	-0.07779937
30	0xbb79b3cb	-0.003810155
31	0x3c6d730c	0.014492761
32	0x3e082e6e	0.13298962
33	0xbd8fd878	-0.0702371
34	0x3db85a40	0.09001589
35	0xbd7e0752	-0.0620187
36	0xbdf46016	-0.119323894
37	0x3cecb168	0.028893188
38	0xbda2872d	-0.07935939
39	0x3d8ff3bc	0.070289105
40	0x3c37db88	0.011221774
41	0x3d707f60	0.058715224
42	0xbd8f4640	-0.06995821
43	0xbdf78cdc	-0.12087414
44	0xbde6db14	-0.112722546
45	0x3a0e9954	0.0005439718
46	0x39aeabb3	0.00033315792
47	0x3d2573d1	0.040393654
48	0xbc631cf8	-0.013861887
49	0x3e0f64d3	0.14003305
50	0xbd200bdf	-0.03907382
51	0xbe1fa2b7	-0.15589415
52	0x3da90db0	0.08254564
53	0xbc4353df	-0.011921852
54	0x3d8f6da7	0.070033364
55	0x3df8ad10	0.12142384
56	0xbe354320	-0.17701387
57	0xbd30a5f9	-0.043127034
58	0x3c9b8085	0.018982181
59	0x3d849fa4	0.064757615
60	0xbd5301c6	-0.051515363
61	0xbe14dd9c	-0.14537662
62	0xbc55638c	-0.013024222
63	0x3decf58b	0.11570271
64	0xbcee419c	-0.02908402
65	0xbd48c7f2	-0.049018808
66	0xbd923dd5	-0.071407
67	0xbd9f59a6	-0.07780771
68	0xbb0ebb85	-0.002177925
69	0x3c323344	0.0108764805
70	0x3db2e7d2	0.087356225
71	0x3e3af4c4	0.18257433
72	0x3d8a9e6f	0.067685
73	0x3ddff0e8	0.10934621
74	0x3e0b34e0	0.13594389
75	0xbd97ad15	-0.0740606
76	0x3c4d05ea	0.012513617
77	0xbcaa1dfc	-0.02076625
78	0x3dadd632	0.0848812
79	0xbdcd2ab8	-0.100179136
80	0x3d9b2877	0.075760774
81	0x3db67e01	0.08910752
82	0x3d91de6e	0.07122503
83	0x3d9737d5	0.07383696
84	0x3df3adfd	0.1189842
85	0xbda7e3f1	-0.08197773
86	0x3e04dd15	0.12974961
87	0xbd764ab4	-0.060129836
88	0xbdf4d391	-0.119544156
89	0x3c83fe28	0.016112402
90	0x3b48288a	0.0030541741
91	0x3e28b927	0.1647688
92	0xbd6bd246	-0.05757358
93	0xbdad3786	-0.08457856
94	0xbdd6b2f5	-0.10483352
95	0xbc8a54dc	-0.016886167
96	0xbe3aad6e	-0.1823022
97	0x3e07b664	0.1325317
98	0xbcd2d0ab	-0.025734266
99	0x3e10d581	0.14143945
100	0x3df24cc3	0.118310474
101	0xbd7be25f	-0.06149518
102	0x3d2c5161	0.042069796
103	0xbbb6c1de	-0.00557731
104	0x3de6eb84	0.1127539
105	0xbd9c4f16	-0.07632272
106	0x3dc384be	0.09546803
107	0xbd83e727	-0.06440573
108	0xbda13a9e	-0.078725085
109	0xbc3bff35	-0.01147442
110	0x3d8b2b94	0.06795421
111	0xbdd4571c	-0.10368177
112	0x3db5e4c6	0.08881526
113	0xbe0ec7a7	-0.13943349
114	0x3dbbc813	0.091690205
115	0xbbc14e43	-0.005899222
116	0xbd8e22e5	-0.06940249
117	0xbd9ff3b8	-0.078101575
118	0x3dbf0bf7	0.09328454
119	0xbe4957e5	-0.19662435
120	0x3e08188b	0.13290612
121	0x3e4191c7	0.18903266
122	0xbd5daa7a	-0.054117657
123	0xbdbe245c	-0.09284279
124	0xbdedf4f8	-0.1161899
125	0xbdbf58a3	-0.09343078
126	0x3dba0dea	0.09084685
127	0x3c916647	0.017748965
128	0x3d8dd796	0.069258854
129	0x3d739d60	0.059476256
130	0xbcddcd9c	-0.027075581
131	0xbdae868f	-0.08521759
132	0x3cc88531	0.024477573
133	0xbca8c0e0	-0.020599782
134	0xbdb027cc	-0.08601341
135	0xbc3bf8f6	-0.011472931
136	0x3d3fb80e	0.046806388
137	0x3e0e8ae5	0.13920172
138	0x3d7a57b3	0.061118793
139	0xbcefb1ac	-0.029259525
140	0xbd118abf	-0.03553271
141	0x3d001917	0.031273928
142	0x3df31e02	0.11870958
143	0xbd86c2f0	-0.0658015
144	0xbdd0c7d0	-0.10194361
145	0x3ce3fcfe	0.027830597
146	0x3dbecbe9	0.093162365
147	0x3df1ada2	0.11800696
148	0xbd240d9c	-0.04005204
149	0xbd92adbb	-0.07162043
150	0xba8a2d4a	-0.0010542062
151	0x3cb18f80	0.021674871
152	0xbdd2f302	-0.10300256
153	0x3e00b6d0	0.12569737
154	0xbc54eb44	-0.012995545
155	0xbdcfc668	-0.10145265
156	0x3e23e0b7	0.1600369
157	0x3def9d7c	0.1169996
158	0x3e02550e	0.12727758
159	0xbd993dca	-0.074824885
160	0xbd92d413	-0.07169356
161	0xbdd4562e	-0.10368
162	0xbd29802e	-0.041382007
163	0x3de4fb1c	0.11180708
164	0x3b3326bb	0.0027336318
165	0xbcaf83e0	-0.021425188
166	0x3b6f67e0	0.003653042
167	0xb90162a1	-0.00012339141
168	0x3abab8e3	0.0014245774
169	0xbddccf8a	-0.107817724
170	0xbc3ade3c	-0.011405524
171	0x3d8c10de	0.06839155
172	0x3ca82ccc	0.020529173
173	0x3d910ae9	0.07082159
174	0xbe01c3f3	-0.12672405
175	0x3d3bf636	0.045889102
176	0xbd8be0c8	-0.06829983
177	0xbe1bffa9	-0.15234245
178	0x3e1c9e3f	0.15294741
179	0x3d06e3ac	0.03293197
180	0x3cd2d0fa	0.025734413
181	0xbd917e64	-0.07104185
182	0xbdd0532f	-0.10172116
183	0x3d3213c5	0.043475885
184	0x3c03e2f4	0.008049715
185	0xbdd76339	-0.10516972
186	0xbddedbf8	-0.108817995
187	0xbd73276b	-0.059363764
188	0x3d3ea55a	0.04654441
189	0x3d0fcbe3	0.03510655
190	0xbcfa5a5c	-0.030560665
191	0xb919442a	-0.0001461661

fc.2.bias f4 [3]
0	0xbd231b26	-0.039820813
1	0xbdb34551	-0.087534554
2	0x3d7be4b4	0.061497405
