main/models/MLPREAL1/best_model.pt (torch, 120888 bytes, 7 tensors)

hist_emb.weight f4 [7, 8]
000000 0e e7 73 bf 8f 01 f4 bf 92 95 41 3e 0f 05 b0 bf
       -0.95274436 -1.9062976 0.18904713 -1.3751544
000010 ef 17 26 c0 0b d9 3a 3f 25 bc b5 be 68 26 62 bf
       -2.5952108 0.7298743 -0.35495105 -0.88339853
000020 c0 9d 2a bf 4c 16 9f 3f d9 2d 2a be f4 19 41 40
       -0.6664696 1.242868 -0.16619052 3.017209
000030 32 c4 9e 3f 22 c5 66 bd bf 01 40 3f 2d 2e 8a 3f
       1.2403624 -0.056340344 0.75002664 1.0795342
000040 fc 33 3a 3f 06 a6 0c bf d6 05 bd bd c6 80 81 bf
       0.7273557 -0.5494083 -0.09229629 -1.0117424
000050 06 da d6 bf 67 82 5e be 77 47 a7 3e 65 e1 34 bf
       -1.6785285 -0.21729432 0.3267171 -0.70656425
000060 bf 8d 84 bf d8 ba 37 bf 14 a8 b9 3f 30 a5 0f c0
       -1.0355757 -0.71769476 1.4504418 -2.2444572
000070 41 10 3c be 0d d8 28 c0 cc 46 b5 bf f5 2a e8 bd
       -0.18365575 -2.6381867 -1.416223 -0.113363184
000080 a7 30 cc 3e 59 a8 f6 3e 14 cd 92 3e 1a 46 41 be
       0.3988087 0.48175314 0.28672087 -0.18874398
000090 14 48 3e bf 64 c8 05 40 9e 15 92 3e 2e 03 ff 3d
       -0.7432873 2.0903559 0.28532118 0.12451778
0000a0 c0 4f 60 bf 59 4b fc 3f 9a fc 83 be 38 06 16 bf
       -0.8762169 1.9710494 -0.25778657 -0.5860324
0000b0 7e 17 a6 bf 0d 3d 42 bf 0b cf bd bf a7 47 7e 3f
       -1.2975919 -0.75874406 -1.482881 0.9932808
0000c0 00 00 00 00 00 00 00 00 00 00 00 00 00 00 00 00
       0.0 0.0 0.0 0.0
0000d0 00 00 00 00 00 00 00 00 00 00 00 00 00 00 00 00
       0.0 0.0 0.0 0.0

fc.0.weight f4 [128, 93]
000000 9e 33 26 3d e4 37 8c bd 36 21 fa 3d 2a 28 a8 bd
       0.04057657 -0.06846598 0.12213366 -0.08210786
000010 6a 8d b6 bc 92 57 46 bd d7 e6 aa 3c c1 87 18 bd
       -0.022284228 -0.048423357 0.020862026 -0.03723884
000020 9d dc 18 3e 19 5f 22 bd a3 49 0e 3e 7e 8e 06 3e
       0.14927907 -0.039641473 0.13895278 0.13140294
000030 85 40 01 3d 7b c5 6d 3d d5 65 97 bd 39 e3 13 3d
       0.03155567 0.05804966 -0.0739247 0.03610537
000040 5e f6 27 bd 74 f8 c2 3d b7 2d 9b bd 9d 9d 2e bd
       -0.04100644 0.09520045 -0.07577079 -0.04263078
000050 c5 1d 10 bd cd dd 97 3d 06 bb fb bb 0c 29 47 3c
       -0.03518464 0.07415352 -0.007682207 0.012155782
000060 04 30 ca 3c 8e d5 71 bd 40 f8 a1 3d 56 dd 2e 3d
       0.024681099 -0.059041552 0.07908678 0.04269155
000070 c4 ec b5 bc f5 b4 9d 3d 0e 59 93 3d 4e d8 e1 3c
       -0.022207625 0.077005304 0.0719472 0.027568962
000080 05 39 1d bc 4a a6 95 bd fb 5d 3e 3d 75 37 be 3d
       -0.009596114 -0.07307108 0.046476346 0.09287921
000090 93 58 67 3d 7b 77 ad bd c5 8b bb bd 0a c6 c3 3d
       0.056480955 -0.08470055 -0.09157518 0.09559257
0000a0 e9 fe be bd cd 77 d2 bc a0 8d fd 3c d1 42 d1 bd
       -0.09325964 -0.025691891 0.030951321 -0.10217822
0000b0 b7 0b 9e bd 56 0c 8b bd e5 05 38 3d f2 0b 25 bd
       -0.07717078 -0.06789462 0.044927496 -0.040294595
0000c0 83 bb 8a 3d 32 2b b2 3d 27 db b2 bd 94 76 2b bb
       0.06774046 0.08699645 -0.08733206 -0.0026163207
0000d0 f3 c0 a8 bd fb e7 c5 bc cb 51 a1 3d 19 49 68 3d
       -0.08239927 -0.024158468 0.07876929 0.056710336
0000e0 b1 0e 87 3d 77 b8 54 3d dc 51 ce bb ab 98 e9 3c
       0.06594599 0.051933732 -0.0062963795 0.02851518
0000f0 8b 05 86 3d 7a 1e f8 3c 22 41 b2 3d c8 65 0c 3b
       0.06544026 0.03028797 0.08703829 0.002142297
000100 9b 51 d6 3c b8 b2 d5 bc 85 08 21 bd 7a 15 41 bd
       0.02616196 -0.026086196 -0.039314765 -0.047139622
000110 0b 5e 85 bd f1 60 04 3d 1c 63 a1 bc de de b7 3b
       -0.06512078 0.032319013 -0.01970058 0.0056112846
000120 27 65 b5 bd 89 5b 56 bd 20 af 1f 3d e3 b6 3e 3d
       -0.08857184 -0.05233339 0.03898537 0.046561133
000130 38 50 2d bd ff 1e b2 bd 59 f0 5d bd 53 3a 93 bd
       -0.04231283 -0.08697318 -0.05418429 -0.07188859
000140 1f b8 56 bd 02 08 c4 bd 8a 5e b2 bd 05 ed 3c 3d
       -0.052421685 -0.0957184 -0.08709438 0.046124477
000150 bf b5 58 bd 42 b3 86 3c 52 29 23 3d 9e f8 0b bd
       -0.0529077 0.016442899 0.039834328 -0.034172647
000160 55 b2 d0 3d 3c 51 a2 3d de 94 c8 3d ab 27 9b 3d
       0.10190264 0.079256505 0.09794019 0.075759254
000170 e8 cf 8c bd e7 fd b9 3d bf 84 6c bc 6e 68 b8 bd
       -0.068755925 0.09081631 -0.014435946 -0.090042934
000180 e2 77 a7 3d ef 6e 24 3e 6b 4b 50 bd 25 9f e6 3d
       0.08177163 0.16057943 -0.050853174 0.11260823
000190 ed 98 55 3e 17 b8 92 be ab a1 29 3e e1 83 38 3d
       0.20859118 -0.28656074 0.16565578 0.045047645
0001a0 e3 58 c9 bd 2e 00 33 3e 75 5f 85 bd f1 b9 92 bc
       -0.09831407 0.17480537 -0.065123476 -0.01791093
0001b0 7a b8 a2 bc 7f 65 ab bd 27 bb bd bc b5 a6 ba bd
       -0.019863356 -0.08368968 -0.02316053 -0.09113828
0001c0 89 23 89 3d c9 b6 d7 3c 42 a1 89 3c c5 68 ca bd
       0.06696231 0.026332276 0.016800527 -0.098832645
0001d0 e8 cf 94 bd 45 2a 55 3d 3a 7f 17 bd 05 fb 8a 3d
       -0.072662175 0.052042264 -0.036986567 0.067861594
0001e0 0b b6 a2 bd b9 90 e3 bc c4 9d c3 3c 73 de 88 bd
       -0.07944878 -0.02777897 0.02387894 -0.06683054
0001f0 6f 82 c7 bc 84 26 5d bd f0 7e 88 3d 66 0a 22 bd
       -0.024354188 -0.05399181 0.066648364 -0.039560698
000200 90 4f 54 bd 8c aa d2 bd d6 83 e4 3c af aa ae bd
       -0.05183369 -0.102864355 0.027894896 -0.08528649
000210 16 2c 68 3d a3 53 5d bd 54 0f 25 3d fe 35 be 3d
       0.05668267 -0.05403484 0.04029782 0.09287642
000220 bd 71 24 3d bd ae 04 3d 2f b4 2c 3d 67 42 a8 bc
       0.04014753 0.032393206 0.042164024 -0.020539476
000230 27 9a 8a 3d 43 9a 64 bd 22 80 9c bd 97 ee 6f 3b
       0.067676835 -0.055811178 -0.07641627 0.0036610716
000240 cd 1d c3 bd 5e c8 40 3c 7b b1 b4 3d 0e c5 d2 3c
       -0.095271684 0.011766521 0.08822914 0.025728729
000250 42 4e 67 bd 5b e0 b2 3c 53 a8 c1 bc dd 21 be 3d
       -0.056471117 0.021835497 -0.023639834 0.09283803
000260 8c 3f 5d bd 2f de 07 3d 63 c4 c6 bc 14 fc af bd
       -0.05401568 0.033170875 -0.024263566 -0.08593002
000270 f7 3f e5 3c a5 de 97 bd f7 39 19 3c ce 8a c0 bd
       0.027984602 -0.07415513 0.009352199 -0.09401475
000280 56 c9 92 bd 9b c5 73 bd 5f 75 c3 bd 05 d6 2f bc
       -0.07167308 -0.059514623 -0.09543871 -0.010732179
000290 16 dc 0c 3d 4d dc a8 3d 23 69 97 bd 39 15 ae bd
       0.034389578 0.08245144 -0.073931 -0.08500142
0002a0 dc 7d c7 bd 4a 4b c3 3d 2f 53 b9 bc 93 67 95 3d
       -0.09740803 0.095358446 -0.022622673 0.07295146
0002b0 8e a5 d0 bd 00 6a bb 3d bf b7 c2 bc 1f 97 ad 3d
       -0.10187827 0.09151077 -0.023769258 0.0847609
0002c0 39 0a 67 3d 47 b1 2d bd d4 e0 2b 3d 2f 76 d2 3d
       0.056406233 -0.042405393 0.04196246 0.10276448
0002d0 f4 4f 17 bd 7e 5c b8 3d 7d d0 dc bc 32 d9 7c bd
       -0.036941484 0.090020165 -0.026954884 -0.06173057
0002e0 da 5d 7b 3c 3a c0 d2 3d 86 9f f7 bc 88 8b 36 3c
       0.0153422 0.102905706 -0.030227434 0.011141665
0002f0 c8 4b 4f be 42 1a e0 3c 1e 65 57 be 67 61 87 3b
       -0.20243752 0.02735627 -0.21034667 0.0041314843
000300 2b 8d 8d bd aa dd d1 be 2c f7 44 3e 02 d4 58 3e
       -0.06911691 -0.4098943 0.19234914 0.21174625
000310 f1 24 f7 3d 64 42 fd 3c f4 10 53 3e 43 02 8c 3d
       0.12067593 0.030915447 0.20611936 0.06836369
000320 9d a6 6a bd 89 e4 bb 3c 95 dd 37 bd 7b 41 8f 3d
       -0.0572878 0.022936122 -0.04488905 0.06994911
000330 5c 1c c1 3c a2 14 6a bd e2 8c e4 3c ed ed ff 3b
       0.023573093 -0.057148583 0.02789921 0.0078103454
000340 97 ae 25 3d 62 25 8b bd 20 18 73 bd 1a e3 8b bc
       0.040449705 -0.067942396 -0.05934918 -0.017076064
000350 35 f5 ad 3d ea a0 07 3d c2 a7 59 bd 11 43 37 3d
       0.08494035 0.033112444 -0.053138502 0.044741694
000360 06 2d 58 bc 84 61 cd bd e1 87 6f bd 3d 02 1f bd
       -0.013194328 -0.10028365 -0.058479194 -0.038820494
000370 f6 13 85 3c 84 fc bd 3d 2f ca c4 bd 24 6e 35 bd
       0.01624487 0.09276679 -0.09608876 -0.04429449
000380 44 33 c5 3c 5b 74 01 bd 4c 60 69 bd f9 03 20 bd
       0.024072297 -0.031605106 -0.0569766 -0.03906629
000390 e4 bb 1b 3c 59 69 71 3d a3 c0 9a 3c 6d 94 56 3d
       0.009505246 0.058938358 0.018890684 0.052387644
0003a0 b5 a2 9f 3c 5c d4 4e bc f5 18 af 3c bb 84 3b bd
       0.019486764 -0.012623873 0.021374205 -0.04578088
0003b0 2e 56 29 bd aa 0c 9d bc 37 2d b8 bd e1 9d 4a bd
       -0.041341953 -0.019171078 -0.08992999 -0.04946697
0003c0 5a 49 b2 bd a4 f8 6d 3d 44 8d b4 bc a8 38 81 bd
       -0.08705397 0.05809845 -0.022040017 -0.063096344
0003d0 41 04 a7 3d d8 17 53 bd 3b bd 9d 3d bf c9 d3 bc
       0.08155108 -0.05153641 0.077021085 -0.025853036
0003e0 37 fc 36 bd 76 0d c6 bd 4b 6d b2 bd 79 ac ca 3c
       -0.044674125 -0.09670536 -0.08712252 0.024740444
0003f0 0d c3 18 3d c2 ad 27 3c ad f2 40 bd 95 d5 29 bd
       0.03729539 0.010234298 -0.047106434 -0.041463453

fc.0.bias f4 [128]
000000 be 24 23 3d cb e3 ce 3d b4 fb 1d bd 11 9e 92 3e
       0.039829962 0.10102042 -0.03857012 0.2863622
000010 a3 24 73 3e 54 6d 8f bd 93 dd 8f 3e 75 87 a8 bd
       0.23744445 -0.070032746 0.28098735 -0.082289614
000020 e3 88 e7 3d eb e7 c2 3d c1 f4 16 3e 9a f6 55 be
       0.11305406 0.09516891 0.14741804 -0.20894852
000030 d9 45 34 be ff 9d 1b 3d 3b f2 62 be bc fe d5 bd
       -0.1760477 0.037992474 -0.22162716 -0.10448977
000040 7f 32 6c 3e 90 fd d0 bc 6f 7a 98 3d 0d df 85 3e
       0.23066138 -0.025511533 0.07445227 0.26146737
000050 aa 48 bf 3e 29 12 97 3e 8d 04 57 3e 66 dd 29 3d
       0.37360126 0.29506043 0.2099783 0.041470908
000060 8d 11 52 3e 4a f5 99 3d 58 8c bf 3d 9a b6 b4 3b
       0.20514508 0.07517488 0.0935294 0.005514932
000070 21 f5 88 bd 50 b2 36 bc 43 a3 33 3d 80 66 af 3e
       -0.0668738 -0.011150911 0.04385687 0.3425789
000080 10 75 c9 3d c6 a0 a3 3e 9b 1a 1c be 55 43 04 bd
       0.09836781 0.31958598 -0.15244524 -0.032290775
000090 0e 39 17 3d 38 e4 c4 bc 0f 78 0a 3d 23 73 8b bc
       0.036919646 -0.024034604 0.033805903 -0.017022675
0000a0 6f 84 60 bd af bb a2 3e 2e 05 f2 bd 55 b2 15 be
       -0.0548138 0.31783816 -0.11817394 -0.1461881
0000b0 d2 7c ab bd 33 66 dd 3d d5 1a 84 3e c2 8a c2 3e
       -0.08373417 0.108105086 0.2580172 0.3799649
0000c0 ac fa 5d be 33 0c 02 be 74 ef 5c bd a8 d1 5c 3d
       -0.21677655 -0.12699966 -0.053939298 0.05391088
0000d0 ae ec a1 bd 83 b6 a5 3d aa 72 bf be 57 06 8d 3e
       -0.07906471 0.08091452 -0.3739217 0.275439
0000e0 bd 15 01 bd 9a ba 40 bd 0f e4 25 3e ef 43 b1 3d
       -0.031514872 -0.047052957 0.16200279 0.086555354
0000f0 b1 76 69 3d 4f 45 bf bd 44 2e a3 3e ba b7 4b ba
       0.05699796 -0.093393914 0.31871235 -0.0007771213
000100 c0 24 fb 3e 2b 36 d9 bd f8 e8 16 be 26 da 31 bd
       0.49051476 -0.10606035 -0.14737308 -0.043420933
000110 dc 9e 00 bc 1c 32 19 3e 1d 35 21 be d2 3f 75 bc
       -0.007850375 0.14960521 -0.15742917 -0.014968829
000120 ae 95 04 3e 98 69 6b 3e 19 9b 4a be 26 56 35 3e
       0.12947723 0.229895 -0.19785728 0.17708644
000130 6e 4b e9 3c d0 a7 4e 3e db be 9b 3e 3f fe 2f 3c
       0.02847835 0.20181203 0.3041905 0.010741769
000140 0f 54 58 be a8 15 fd 3d e5 65 67 be 8e 51 6d bd
       -0.21125816 0.12357646 -0.22597463 -0.057939105
000150 54 ba 62 bd ce e9 5f 3d 10 d8 0f 3e 02 ee 7d 3d
       -0.055353478 0.054666333 0.14047265 0.06199456
000160 11 8f 51 bd 12 f6 4a 3d 6a 7a 0f be 4f ca af 3b
       -0.05116183 0.049551077 -0.14011541 0.0053646932
000170 03 2a cf 3c a3 07 18 3d 0c 81 49 3d 43 cb 86 3e
       0.025288587 0.037116658 0.049195334 0.2632695
000180 4c 0e 22 be 29 22 2f 3e b4 4a 85 3e 98 7c 21 be
       -0.15825766 0.17102875 0.26033556 -0.15770185
000190 45 3d bb 3c cd 60 63 be 52 c4 2b 3e d6 e0 2d 3e
       0.022856364 -0.22204895 0.16774109 0.169803
0001a0 0c e9 36 3d 66 0c 67 bd 8b 5b 09 3d 36 f9 10 3e
       0.044655845 -0.05640831 0.033534568 0.14157566
0001b0 83 92 d5 3d ad e6 f5 bd 5b 4f ec bd b8 c1 78 bd
       0.104283355 -0.120068885 -0.11538573 -0.06073162
0001c0 43 33 2f be 6a 73 b0 bd 2e 08 a1 3e ae d4 c3 bc
       -0.17109399 -0.086157635 0.31451553 -0.023905125
0001d0 c1 83 58 be 43 51 a4 3e 2d 0e c1 3c 48 8c 6f 3e
       -0.2114401 0.32093248 0.02356633 0.23393357
0001e0 01 b6 b9 bd ea 34 42 3e d7 62 7d be 30 2a be bb
       -0.090679176 0.18965498 -0.24744736 -0.005803369
0001f0 c9 be 56 bd 38 62 51 bd 83 cf 16 3d 33 da 95 bd
       -0.05242804 -0.05111906 0.036818992 -0.07317009

fc.2.weight f4 [128, 128]
000000 5a b5 65 3d 32 b2 e2 bb 9f 7c be 39 91 ff 57 bd
       0.056081153 -0.006918215 0.00036332474 -0.05273396
000010 76 d9 84 3d 2e af 9e bd 49 14 0b 3c 64 bf d8 bc
       0.0648679 -0.077482566 0.008488723 -0.02645845
000020 ea 0e db 3d 73 9f d0 3c e4 31 17 3d 8e 8a 85 bb
       0.10696204 0.025466656 0.036912814 -0.004075355
000030 26 a5 6a 3d f3 49 59 3d 30 7f f8 3c 80 35 30 bc
       0.057286404 0.05304904 0.030334085 -0.010754943
000040 0d e4 68 3d a8 5d 44 bd 18 90 cd bd 09 6f bd 3c
       0.05685811 -0.04794088 -0.10037249 0.023124235
000050 aa de 10 3e 37 48 54 bd dd bf 2c 3d e9 ba 7f 3d
       0.1414744 -0.051826682 0.042175163 0.06243411
000060 d5 18 77 3d 08 97 84 bd 88 af 09 be 26 e0 19 bd
       0.060326416 -0.064741194 -0.13445866 -0.03756728
000070 8d 5f 13 be fc 91 9c 3c 0d c5 8b bc e5 30 9a 3d
       -0.14391918 0.01911258 -0.017061735 0.07528857
000080 d4 8f 46 3d 17 77 62 bd e2 f2 ea 3c 7b a8 cf bc
       0.04847701 -0.055289354 0.028680269 -0.025348892
000090 8d 6d f8 3c a3 59 b8 bd b5 74 7b 3c 8e 4a 6a 3d
       0.030325675 -0.09001472 0.015347649 0.057200007
0000a0 51 9f 26 3e 62 18 90 bd 1d 70 c3 bd b6 93 d0 3c
       0.16271712 -0.07035901 -0.09542868 0.025461059
0000b0 0d 14 b7 3c 22 39 43 bd 41 55 16 3e 69 89 d2 bd
       0.022348428 -0.047661908 0.1468096 -0.10280115
0000c0 63 76 49 bd fa e1 2c 3d 38 87 84 3d 3d a3 84 bd
       -0.049185168 0.042207696 0.064711034 -0.06476448
0000d0 e3 e9 7f 3d 7b f3 2f 3d 7d 8f 86 bb be 52 f7 3d
       0.06247891 0.04295681 -0.0041064606 0.12076329
0000e0 22 26 02 3e 09 62 f0 bc 60 6c 09 3d ec 81 9a 3d
       0.12709859 -0.029343622 0.03355062 0.07544312
0000f0 ce a5 66 3d fd 2a b1 bd 3d 8f 99 3b a6 a7 a5 3c
       0.056310467 -0.086507775 0.004686265 0.020221543
000100 1b c5 7d 3e 41 bb 5a bd 1a 13 92 3c 00 08 24 3d
       0.24782221 -0.053401235 0.017831374 0.040046692
000110 80 0a 35 3d 48 f5 99 3d 70 b8 65 bd 80 9b 9f bd
       0.044199467 0.07517487 -0.056084096 -0.07793331
000120 42 8b 31 3d fc 0c 56 3d 14 e0 0b bd b6 cf 9b 3d
       0.043345697 0.052258477 -0.034149244 0.07607977
000130 06 9c 2e be 60 f6 54 3e e6 eb 29 3d 5b e1 6d 3d
       -0.17051706 0.2079711 0.041484736 0.058076244
000140 ff 1e 59 3c 0d b3 90 bd 14 bb 2e 3d 66 1a 6c 3d
       0.013252019 -0.07065401 0.04265888 0.057642363
000150 4f 85 a0 3d 74 10 ee 3d cb 84 24 bd ff a3 8e 3d
       0.078379266 0.11624232 -0.040165704 0.069648735
000160 11 31 88 bd 78 d3 b8 3d 95 a0 15 bd ca e9 8d bd
       -0.06649984 0.090247095 -0.036530096 -0.06929357
000170 f3 bd f0 bc 0f 73 c6 3d 17 ca a8 bd 15 0f 66 ba
       -0.02938745 0.096899144 -0.082416706 -0.0008776051
000180 a1 f6 91 bd 28 36 d6 3d b6 ae 77 3d 19 11 93 bd
       -0.07127119 0.10459548 0.06046935 -0.071809955
000190 b1 ff 1d bd 46 2b b2 bd bb 80 22 3d 88 20 da 3c
       -0.038573924 -0.0869966 0.03967355 0.02662684
0001a0 bd ef 3f bd b8 dd 66 bd b8 10 16 3d c3 ac bd 3c
       -0.04685949 -0.05636379 0.036637038 0.023153668
0001b0 d9 0c d3 b9 ee e9 e3 3b 95 2c 9f bd 7b 2c 61 bd
       -0.00040254628 0.006955377 -0.07772175 -0.05497406
0001c0 81 d6 ba bd ad 55 5c 3c 39 30 aa 3d 79 2f 4c 3d
       -0.091229446 0.013448161 0.08309979 0.04984996
0001d0 10 e3 cf bd 43 05 ae 3d ab cf cf bd eb 99 0b 3d
       -0.101507306 0.08497097 -0.101470314 0.034082334
0001e0 58 02 19 3d 91 c2 2d bc 7f de f5 bc e6 62 58 bd
       0.03735575 -0.01060547 -0.030013321 -0.052828692
0001f0 2e 47 b0 3c a5 62 98 bd 8f 38 ea 3c 16 a4 a9 bc
       0.021518316 -0.0744069 0.028591422 -0.020708125
000200 c2 e6 81 3d 65 fa 94 be 00 28 9e bd 00 a9 c9 3c
       0.06342842 -0.29097286 -0.07722473 0.024616718
000210 58 d9 00 3d 68 00 e5 3c ca 3c de 3d 97 e2 a8 bd
       0.031457275 0.027954295 0.10851438 -0.082463436
000220 9d 3d 1c 3d 96 60 03 3d 02 0d f6 bd 5f 4b c7 bd
       0.038144697 0.032074533 -0.120142 -0.09731173
000230 9f 71 21 3d 49 f4 9a bc f9 2e 8f bd 06 85 39 bd
       0.039415 -0.018915312 -0.06991381 -0.045292877
000240 fc 3a 8e 3e 89 77 1d 3d cf 6c a8 3d 7d 01 25 3e
       0.27779377 0.038444076 0.082238786 0.16113849
000250 e0 9f bd 3d ec 8e 8b 3d 13 91 d8 be 81 f1 29 3c
       0.09259009 0.068143696 -0.42298183 0.01037252
000260 5f df 0f 3a ee 94 4d 3d 49 33 a4 bd 16 60 98 bd
       0.0005488302 0.05019086 -0.08017594 -0.07440202
000270 4a 83 a1 bd 6b bb 4f 3d a4 99 a9 be 5a 91 af 3d
       -0.078863695 0.050715845 -0.3312503 0.085726455
000280 88 1c 82 bd 0f 8c 0a 3e 0f 89 78 bd 74 32 98 bd
       -0.06353098 0.1352999 -0.060677584 -0.07431498
000290 3c e9 37 bc cb a9 77 bd f7 a4 98 3d 4d 0e 54 3d
       -0.011225041 -0.06046466 0.074533395 0.05177145
0002a0 bf 3c ec bd 75 28 9e 3e 76 f5 ad bb 81 d4 4c 3d
       -0.11535024 0.3089024 -0.0053088022 0.050007347
0002b0 af 34 77 3d 68 a0 27 bd d1 0d 21 3e 46 0f 02 3e
       0.060352977 -0.04092446 0.15727927 0.12701139
0002c0 2b a6 0b be 23 51 e2 3c 90 6e 35 bd 82 e5 ad bd
       -0.13637607 0.02762658 -0.044294894 -0.08491041
0002d0 99 d2 d8 bd 56 16 72 be bb fc d1 bc a2 f2 92 3e
       -0.10587043 -0.23641333 -0.025633207 0.2870074
0002e0 37 ad 1d be fc 1f 19 bd db 00 fb bd 21 f7 62 3d
       -0.15398107 -0.03738402 -0.122560225 0.05541146
0002f0 dd bd 4f bc fc f8 65 bd 8e 5b ee 3d ea 4d b5 3c
       -0.012679544 -0.056145653 0.116385564 0.022131879
000300 0c 06 37 3e 66 e1 0e be 0e c2 e4 3c 6b 86 b4 bc
       0.178734 -0.1395317 0.027924564 -0.022036752
000310 e3 aa cf bd 89 63 54 3d 81 37 af bd c4 53 01 3e
       -0.10140016 0.051852737 -0.085555084 0.1262961
000320 79 d8 bf bd d5 66 9b 3d 18 25 00 3d f0 51 f1 bb
       -0.09367461 0.07587973 0.031285375 -0.007364504
000330 03 8f 68 bd 46 2c e5 ba 97 00 a8 3d 35 69 87 bc
       -0.05677701 -0.0017484508 0.082032375 -0.016529659
000340 49 88 84 bd 83 5c 72 bc 1c e1 55 3c 75 ff 73 3c
       -0.06471307 -0.014792564 0.013054159 0.014892449
000350 a7 88 08 be 39 9d 67 bd 1b dc 08 3d b0 aa a3 bd
       -0.13333379 -0.056546424 0.033413034 -0.079915404
000360 36 35 ab bd 2d ff aa 3d 75 3a 67 3d 13 5b a0 3c
       -0.083597586 0.08349452 0.056452233 0.019574678
000370 05 8f 89 3c 8f 0e ea bd 57 1c 75 bd 31 a7 07 3c
       0.01679183 -0.11428558 -0.05984148 0.008279608
000380 18 f2 f0 bd 02 67 f3 3d cc 9e 9d 3d 7c 55 12 be
       -0.11764926 0.118848816 0.07696304 -0.14290422
000390 09 51 00 3d 94 43 d6 bd ce 75 96 3b ba f7 72 3d
       0.03132728 -0.10462108 0.00459168 0.05931828
0003a0 aa b6 8d 3d 7a f4 51 bd 4b 7a 8d 3c 0a 62 1d be
       0.06919606 -0.05125854 0.017270228 -0.1536943
0003b0 f2 b9 3e 3c 3f 74 b2 3d 3d 20 ef 3d 75 d2 ee 3b
       0.0116410125 0.087135784 0.11676071 0.007288272
0003c0 c1 ce 60 bd eb ea a3 3d 67 08 a4 3d 48 6f 9b 3d
       -0.054884676 0.080037914 0.08009415 0.075895846
0003d0 b2 19 73 3d 82 d9 44 3e 5e 46 61 bb c6 5c 5d 3d
       0.059350677 0.19223598 -0.0034374218 0.054043554
0003e0 ed 0d 4f bd d0 48 3c 3e 39 42 a4 bc 61 80 3e bd
       -0.05055039 0.18387151 -0.020051109 -0.04650915
0003f0 02 fa bd 3c 97 a1 b6 bd c3 32 5b 3b 05 ff de bd
       0.023190502 -0.089175396 0.0033447004 -0.10888485

fc.2.bias f4 [128]
000000 92 cb d6 3d ac 7f aa 3e f0 76 25 3e 90 bc 24 3e
       0.10488047 0.3330053 0.16158652 0.16087556
000010 24 d6 3b 3d f9 af 67 bc c8 ef 29 3e c6 0b d8 3d
       0.045858517 -0.014141076 0.16595376 0.105491206
000020 20 b4 be be 55 fd 4d bd ce fe 90 3d 91 df d2 3d
       -0.372468 -0.050290424 0.0707985 0.10296548
000030 20 1b cb 38 e3 33 9e bd 2c 3c ba bc 1f 47 b6 bd
       9.684847e-05 -0.0772474 -0.02273377 -0.08900284
000040 44 b4 41 bd 81 c3 9a 3d 35 1b ea 3c 03 a7 03 bd
       -0.047291055 0.07556821 0.028577426 -0.032141697
000050 b2 58 5d bd 2c 94 fc 3d 1e c5 7e bd 40 09 20 bc
       -0.054039665 0.12332949 -0.062199704 -0.00976783
000060 b1 7e c9 3d f9 29 79 3d 54 67 a7 bd 84 2c 94 bd
       0.098386176 0.060831044 -0.08174005 -0.07235053
000070 18 ef c0 3b 51 c8 1f be 11 c6 75 bc 61 75 f1 bd
       0.005887877 -0.15603758 -0.015000836 -0.117899664
000080 15 b5 b3 3c e7 c1 cd bc 88 11 73 3c 43 e9 71 bc
       0.021936933 -0.025116874 0.014835723 -0.014765087
000090 59 90 b4 bd 6b 19 aa bd 18 55 93 3c 09 3e 68 3d
       -0.08816595 -0.08305629 0.017984912 0.056699786
0000a0 54 65 94 3c 6e 9c 9e bc 16 32 98 3e 0e 1d 67 bd
       0.018114723 -0.0193617 0.29725713 -0.056424193
0000b0 dd 73 55 3d ea 5f 2c 3d 4b ea 1a be 04 0b 12 3c
       0.05211245 0.04208366 -0.15128438 0.008913759
0000c0 79 c8 86 3d d6 ce f5 3b 72 76 2a be b1 f1 91 bd
       0.06581206 0.0075014634 -0.16646746 -0.07126177
0000d0 6c 6b 5a 3e 27 13 01 3c f1 16 6d 3d 9d 56 28 bd
       0.2133004 0.007878101 0.057883207 -0.041098226
0000e0 68 eb 96 bd 8e 79 69 3e 3d 50 05 3c 79 88 cb 3c
       -0.07369119 0.22800276 0.008136806 0.024845349
0000f0 f4 3c 99 bc c6 71 fb 3d b4 ee 12 3e ce ee e7 3c
       -0.018705823 0.1227756 0.1434887 0.028312113
000100 54 48 b1 bd 28 d2 a9 3c e3 3b c5 bd 24 0e 57 bd
       -0.086563736 0.020730093 -0.09630563 -0.05250372
000110 23 3e 6d bc 95 81 be 3c 82 9a 37 bd 21 bc 70 bd
       -0.014480147 0.023255149 -0.044825085 -0.058773164
000120 4e 6a 2f 3d 50 72 b9 3d 0c 1d d5 3d c1 57 93 bd
       0.04282599 0.090550065 0.10405931 -0.07194472
000130 9d c8 b2 bd ac 70 8e 3e 03 d8 25 3e 0c 0e 48 3d
       -0.0872967 0.27820337 0.16195683 0.04884152
000140 3a 1f 54 3c b2 d3 28 3d 3a 40 98 bd d2 70 a4 bd
       0.012946898 0.041217513 -0.07434125 -0.08029331
000150 5d 90 a4 bb b5 99 11 bd d5 1f 08 be 32 32 94 3c
       -0.0050220923 -0.035546977 -0.13293393 0.018090341
000160 db 79 e6 3d 21 55 b7 bd d0 28 46 bd bf aa aa 3c
       0.11253711 -0.08951784 -0.048378766 0.020833371
000170 69 8c 32 3e f0 0c 80 bb b2 89 a0 3e 92 af f4 3d
       0.17436375 -0.0039077923 0.31355053 0.1194755
000180 d0 b8 8f 3d ea 44 1a 3c 65 bd f4 3d 7a 87 31 be
       0.07017672 0.009415844 0.11950187 -0.17336836
000190 60 08 83 bd 72 ed 1b 3d 8e ef d3 3d 8f c6 92 bd
       -0.06398082 0.038068242 0.10348426 -0.07166778
0001a0 25 05 75 bd 39 e3 c5 3d a5 0a 07 be c2 0c 89 bd
       -0.05981936 0.0966248 -0.13187654 -0.066918865
0001b0 6e bf 78 bc 23 75 a0 3c cc 72 6a be 05 41 d1 bd
       -0.015182359 0.019587105 -0.22895354 -0.102174796
0001c0 e7 42 27 bc d7 61 1a bd 41 f3 b2 3c f0 69 e6 bb
       -0.010208822 -0.037690964 0.021844508 -0.0070316717
0001d0 10 ca 57 3c ea a5 ad 3c 8e 78 83 3e 5b ae 93 bd
       0.013170734 0.021197278 0.25677913 -0.0721099
0001e0 1f 5c 22 3d c9 61 a1 3d bc fe 2f 3c 31 d7 16 3e
       0.039638635 0.07879979 0.010741886 0.14730527
0001f0 47 75 d9 3d ea 77 9f bd e8 fd 67 3d 07 75 02 3d
       0.10618072 -0.07786544 0.05663863 0.031849887

fc.4.weight f4 [6, 128]
000000 4b f2 30 3c 30 38 25 be e3 fa e1 be 9f df 2a 3d
       0.010799955 -0.16134715 -0.44136724 0.041717168
000010 90 e2 1e bc b3 28 99 3d 92 90 ff bd 8b f3 a2 3d
       -0.009697571 0.07478466 -0.124787465 0.079566084
000020 02 ba 33 3e f8 c7 88 bd 6a 76 11 3d ed f0 46 bd
       0.17551425 -0.06678766 0.03551332 -0.04856961
000030 98 3f 50 3d 08 14 89 bb e4 29 06 bd 9d 12 35 bd
       0.050841898 -0.004183296 -0.032754794 -0.044207204
000040 b2 22 de 3d a0 74 8b ba c7 6f 2b 3d 3a c2 69 3d
       0.10846461 -0.0010639615 0.041854646 0.057069995
000050 49 2b a3 bd de d0 5e bd 9c 62 14 bd 74 0b b8 3d
       -0.0796724 -0.05439841 -0.036226854 0.089865595
000060 09 bd e1 bc 08 ac 6e ba 7f b9 e2 bb 16 45 14 3d
       -0.02755596 -0.0009104614 -0.0069190855 0.036198698
000070 aa 62 b2 3d 03 0b df 3d 6c 8a 35 3d ac 8b 72 3d
       0.08710225 0.10890772 0.044321463 0.059215233
000080 68 c3 12 3d 65 a5 9d 3d af 16 07 bd ed a6 8c 3d
       0.035830885 0.07697562 -0.032980617 0.06867776
000090 a6 5b 2f 3c 58 c6 b7 3d 95 1b 01 bd cd 66 6b bc
       0.010703003 0.08973378 -0.031520445 -0.014367771
0000a0 5a cd 0e 3d 95 a6 30 bd 76 3a 4a be 17 bb 8f bd
       0.034863807 -0.043127615 -0.19748864 -0.070181064
0000b0 62 6e e6 3c 3d c5 8f bd c1 ed a7 3d 27 7d f0 bc
       0.028128807 -0.07020042 0.08199645 -0.029356552
0000c0 fe 1a 5c 3d c3 21 24 3c 83 30 41 3e be ce 99 3c
       0.05373668 0.010017815 0.18866162 0.01877534
0000d0 f7 2b 8e 3b 0d 52 61 3c 5d 83 82 3c 84 0e 47 3d
       0.004338737 0.013752473 0.01593178 0.048597828
0000e0 df 04 5e 3d c9 c3 46 bd 43 69 95 3d f2 a4 17 3d
       0.054203864 -0.04852656 0.07295468 0.03702254
0000f0 8b 8e 93 3d 8c 02 a4 ba 93 b9 86 bd 2c c7 86 bd
       0.07204922 -0.0012512966 -0.06578364 -0.06580958
000100 cb 93 64 3d 04 e7 fa 3c 67 a2 1f bc e9 14 96 bc
       0.05580501 0.030627735 -0.00974331 -0.018320518
000110 4d d0 6a 3d 90 30 ae 3d 78 a7 3d 3d 72 8a 34 3d
       0.057327557 0.08505356 0.04630229 0.044077344
000120 a1 d1 ab bc 5f 4f 78 bd 3d 4d 8a 3d 86 d1 8d bd
       -0.020973982 -0.06062257 0.06753013 -0.06924729
000130 5e da 62 3d 2e 83 c8 bd b4 e2 a9 bc e5 f5 73 3d
       0.055384032 -0.097906455 -0.020737983 0.059560675
000140 72 0a d5 3a a0 b2 65 3d 4f 30 2a 3d aa 53 52 3c
       0.0016253723 0.056078553 0.041549977 0.01283733
000150 80 97 c8 bd cd 9c 3d bd 04 3e 59 3d dd 99 dc 3c
       -0.09794521 -0.046292115 0.05303766 0.026928836
000160 d8 9b c1 3b b4 ee be 3c 1c ef b7 3d d0 09 9b 3d
       0.0059084706 0.023307182 0.08981153 0.07570231
000170 b5 5e 91 bd bf 8b 3a bb bd 01 46 be 7d 54 7e bc
       -0.07098142 -0.0028464643 -0.193366 -0.015523073
000180 da 59 e4 3c c7 b1 0a bd 1f 4b 5d 3c 47 dd 89 3d
       0.027874876 -0.033860948 0.01350668 0.067316584
000190 f5 8b 3e 3c 0a c6 8d 3a 37 db 4f 3c 17 57 f5 bc
       0.011630048 0.0010816467 0.012686542 -0.029948754
0001a0 3c d6 5b 3d 52 78 62 bd 08 12 68 bd 23 2d 10 bd
       0.053671107 -0.055290528 -0.05665782 -0.035199296
0001b0 4d 89 74 3d a2 c4 ae bc c0 3c 99 3d a0 02 39 3e
       0.059701253 -0.021333996 0.0748229 0.18067408
0001c0 45 19 6b 3d 4c 01 0a bd 65 f5 93 3c 25 11 ab 3d
       0.057397146 -0.033692643 0.01806135 0.083528794
0001d0 12 a6 26 3d 10 11 fb 3c c7 ec 67 3c c5 6f 2d 3d
       0.04068572 0.030647784 0.014155573 0.04234292
0001e0 2d 21 81 bd 17 59 7e bd be 9d db 3c 77 4f 8b bd
       -0.06305156 -0.06209668 0.026808616 -0.06802266
0001f0 66 ba 2a bd 77 2f 2a bd 8f 44 00 3d fc 1f d5 3d
       -0.04168167 -0.041549172 0.031315383 0.10406491
000200 65 03 1d 3d a2 46 a6 bd 36 86 7d 3e 81 a6 92 3d
       0.038333315 -0.08118941 0.24758229 0.07160664
000210 45 0e 70 bd 67 ea 59 3d 52 21 9b 3d b9 85 98 3d
       -0.05860736 0.05320206 0.07574715 0.074473806
000220 93 ee 59 bd e0 70 65 bd cc e3 1c 3d ce a6 9c 3d
       -0.053206038 -0.05601585 0.03830318 0.07649003
000230 b0 ec 80 bd 75 1a 7b 3c 6a f9 d5 bc 95 22 8c 3c
       -0.062951446 0.015326132 -0.026119906 0.017106334
000240 39 81 c4 bd 36 fa 14 3b 1b 61 98 bc dc ec 8c 3c
       -0.0959496 0.0022732145 -0.018600991 0.017202787
000250 9d bf 9b bc d0 20 30 bd da 1c 49 bd c2 e8 06 3d
       -0.019012267 -0.043000042 -0.04909978 0.03293682
000260 be 3d 12 be 2a cf 5f 3d d6 54 83 3d 83 52 35 3d
       -0.14281365 0.054640926 0.064126655 0.044268142
000270 38 89 96 3c e6 fb e6 bd 53 4e 5e bc 10 cc 52 bd
       0.018375978 -0.112785146 -0.013568479 -0.05146414
000280 57 ef 96 3d 2d 45 ae bc 4c 5f 4a bd 77 f0 9c 3c
       0.07369869 -0.02127322 -0.04940729 0.019157631
000290 6b b6 80 bd 06 ac f5 3b 2e 30 6b bd 88 d7 a0 3d
       -0.062847935 0.0074973134 -0.057418995 0.07853609
0002a0 09 d8 89 3d 38 98 89 3d e1 7c 2c 3d a6 e3 30 bd
       0.067306586 0.067184865 0.04211128 -0.043185852
0002b0 48 a1 2b bd 6f 1b 50 3d 56 6c 38 be 1d 8e aa bb
       -0.041901857 0.050807413 -0.18010077 -0.0052049295
0002c0 46 6b bf bb 8d 33 fb ba b1 7a 88 be b8 95 c3 bd
       -0.0058416454 -0.0019165144 -0.26656106 -0.09550041
0002d0 f5 74 a6 3d 8d 37 6c 3c 99 a8 a3 bc 46 d7 25 3d
       0.081277765 0.014417541 -0.019977855 0.040488504
0002e0 5f e5 94 3d 10 e0 8c 3d a0 6a eb be d2 80 71 bd
       0.072703116 0.06878674 -0.45979786 -0.058960743
0002f0 40 e4 8b bd 13 e8 a6 3c a3 87 4c ba 92 92 73 bd
       -0.068306446 0.020374333 -0.0007802194 -0.059465952
000300 00 6f 16 be 53 32 a3 3d 0a 1a a5 3c ec 49 64 3d
       -0.1469078 0.07968583 0.020154018 0.05573456
000310 ed c6 36 3d 64 be 91 bd e4 12 7f 3e 5f 20 02 bd
       0.044623304 -0.07116392 0.2490955 -0.031769153
000320 49 c6 73 3b 9a 7d f0 bc d7 11 b2 3d cc 8d 49 3d
       0.0037197045 -0.029356766 0.08694809 0.049207494
000330 b2 43 5c bd 6f 92 27 3e f9 91 11 3d 5f 0d 9f 3d
       -0.053775497 0.16364454 0.0355396 0.07766222
000340 81 82 03 bd cc 31 f4 bc 2c 58 0f bb 82 49 6b bc
       -0.03210688 -0.029808901 -0.0021872623 -0.014360787
000350 27 49 e6 3d 02 a3 09 bd 9e 32 0e bd 26 a7 3d bb
       0.112444215 -0.033602722 -0.03471624 -0.002893874
000360 6b 73 f0 3c 79 c9 64 bd 99 24 dc 3b 14 3a ff bb
       0.02935191 -0.0558562 0.00671823 -0.007788906
000370 4e 7d 9b 3c a3 81 82 bc d1 41 c9 3d 94 ee 16 3c
       0.018980648 -0.015930956 0.098270066 0.009212155
000380 ff 9a 44 3d 86 0f 22 3d 11 f3 8a 3d 0d c3 c3 3c
       0.04799938 0.039565586 0.067846425 0.023896718
000390 37 33 0a bd 5e 2c c0 bb b9 38 3a 3c 3f 3e b7 3c
       -0.03374025 -0.005864664 0.011366063 0.022368548
0003a0 63 82 64 be 91 00 3a 3e 9c 4e e9 bc 48 8f 65 bd
       -0.22315364 0.18164279 -0.028479867 -0.056044847
0003b0 03 62 81 3b 7f 94 79 3d c2 cd 2a bd a3 40 c3 be
       0.0039484515 0.060932633 -0.041700132 -0.3813525
0003c0 90 14 8f 3d 48 19 85 bd c3 ff 37 bd 6a 14 87 bc
       0.06986344 -0.06498963 -0.044921648 -0.016489226
0003d0 37 1a 2e 3d df ba 4e bd 36 52 a4 3d 5b 23 86 3d
       0.04250547 -0.050471183 0.08023493 0.06549712
0003e0 49 ea 56 bd 11 96 7a 3d d5 53 60 3c 11 8b ba bd
       -0.052469525 0.06117827 0.013691862 -0.09108556
0003f0 cd a9 91 3d 75 e0 9d bd 19 98 a8 3c d8 a0 a8 3d
       0.07112465 -0.077088274 0.020580338 0.082338035

fc.4.bias f4 [6]
000000 0b ae 12 bd 38 56 04 3e 70 0a 73 3d 51 34 cc bd
       -0.03581051 0.12923515 0.059336126 -0.09970916
000010 60 5f 34 be a7 26 16 be
       -0.17614508 -0.14663182
