main/models/mlp2/best_model.pt (torch, 43256 bytes, 7 tensors)

hist_emb.weight f4 [7, 8]
00000000: 50f1 e5bf 8b8b 173f c0f8 2abf 1602 9e3f
00000010: 3dd9 31bf 4092 f23e 87cb bbbe 0ca1 97bd
00000020: aa4d 92bf c28f 6bbf 39b9 c6be 2679 80bf
00000030: 199e 8f3f d050 553f fe52 c0bf ab91 1e3f
00000040: 0afe 86bf 73fe eabd b6e7 383e 6e59 803f
00000050: 15d8 be3e 857d 4a3f 3927 c83e 14b6 bfbe
00000060: 60fe 893f 098c 323d 8ec1 e6bf 3c2c b4bf
00000070: 4ea9 70bf 01ed 973f 81ca 74bf d81d 43bf
00000080: 59c4 c03e 8608 c63f f774 3a3e d6a2 2ec0
00000090: 464a 9fbd cee3 bdbf 2430 7bbc 540c 343f
000000a0: 9068 d63f e4cc 87bf 171d 2bbf 3c13 eb3f
000000b0: 47a1 cc3f b522 b83f dedc 5a3f 60ea 7f3f
000000c0: 0000 0000 0000 0000 0000 0000 0000 0000
000000d0: 0000 0000 0000 0000 0000 0000 0000 0000
-1.7964268 0.591973 -0.6678581 1.2344387 -0.69472104 0.47377205 -0.36678717 -0.07403764
-1.1429951 -0.9201623 -0.3881319 -1.0036972 1.1220123 0.83326435 -1.5025327 0.6194102
-1.0546277 -0.114743136 0.1805714 1.0027292 0.37274233 0.7909778 0.39092425 -0.37443602
1.0780754 0.04359058 -1.8027818 -1.4075999 -0.9400834 1.1869203 -0.95621496 -0.7621741
0.376498 1.5471351 0.18208681 -2.7286887 -0.077778384 -1.4835145 -0.015331302 0.7033131
1.675066 -1.0609403 -0.6684126 1.8365245 1.5986718 1.4385592 0.85493267 0.99967
0.0 0.0 0.0 0.0 0.0 0.0 0.0 0.0

fc.0.weight f4 [64, 83]
00000000: 52b7 623d ddb6 29bc de01 adbd 6926 42bd
00000010: cb26 b73d 2099 823c 9565 123d 0653 c5bd
00000020: accc 3e3d 07af a4bc a02c c9bc d7bd 1abd
00000030: e1b7 a63d 7258 683d 8bac 5fbd b38a 3a3b
00000040: 1c61 3b3d 6c8b 713d 57f4 433d 3001 ce3d
00000050: 6ae3 debb b015 05bd a323 d8bd c36c 453d
00000060: 5f40 94bd e2e9 bb3d fd8b debd 0a5e dd3d
00000070: e26a c83d 8630 4d3d b7ff 013d ae7d 873d
00000080: 1a78 5abd 57cc 7b3d ffe5 3f3d da51 41bd
00000090: bf0b d03d 39ea e9bb c754 5e3c fb77 593d
000000a0: a431 86bd fab4 323d 1ebc e03c 9bae 1cbc
000000b0: 09c5 b93d 5df1 8dbd 8a72 69bd 6b17 de3c
000000c0: 6224 bb3d 501d f83c d4c9 0f3c 8628 84bd
000000d0: f4d1 9e3d b927 09bd bfb8 7b3d 26eb 36bd
000000e0: 0b02 db3d 1e44 a33c 844a 963c 0f5b 233d
000000f0: 6b8b a83d 81fb 013d c76a 823b f8c7 8dba
00000100: a05f b33d ca25 af3d b622 22bd a15b 4a3c
00000110: a2d9 1c3c 39b7 bf3d 1114 1838 231e 3cbd
00000120: 403c ccbd 2289 cf3d 5473 ddbd f11e cabd
00000130: 1e1c a83d f91d 36bd 8833 58bd 2931 c83d
00000140: 1436 783d e9b4 cf3c e1ad 873d 083d 2dbd
00000150: 1be3 5cbd 0211 b6bc 970b 053d 5e3e 59bd
00000160: d21f a03d 1382 743d 1a49 d23d 42af 313d
00000170: 9906 40bd 590a 15bd 5c66 a6bd 7f86 9ebd
00000180: b4ff b6bd 194d 21bc 44ae a6bd 9a46 11bc
00000190: 1b86 75bd a585 9c3d 16e8 a6bd 92ee 643d
000001a0: 236a b93d d7ae 343d 7fa4 7a3d 4249 bebd
000001b0: bd5f 59bc b269 933c b4e6 793d e49e 543c
000001c0: 8dda 763d 062f 43bd 65f9 52bd ed37 2c3d
000001d0: 647d cf3d 08db a2bd 0bca 9dbc e4cc 95bc
000001e0: deca 4dbd aa8a 85bd 237d 87bd 7399 903b
000001f0: e883 9f3d 5084 bf3d 9f76 92bd 87a8 1cbd
00000200: 1609 73bd 85ca bebd 24aa 933d 946a be3d
00000210: a6e4 af3c 3791 653c e5f9 a33d a575 ae3d
00000220: 27f1 aabd e468 d63d 5476 7f3d e48b 4d3c
00000230: 776b 19bd 0727 bdbd d27d 55ba 244f 5d3d
00000240: d83d 66bd c07e cbbc 6311 e8bc be4f 6fbd
00000250: 5c5d 903d d9fe b23b d2c6 de3c 52ba b0bd
00000260: 3aae a2bd 3e41 8cbd e4f2 cfbd f415 8dbd
00000270: 74b4 21bd 86b2 d8bd 40a7 b53c 98e1 7abd
00000280: ea0d dcbd 1736 fabc 9495 bebd f7a2 9ebc
00000290: 8b17 283b cbf6 56bd 198e 80bc 6675 7fbd
000002a0: 82de 38bc 62a2 393d f403 57bd 9c75 b53d
000002b0: 93d7 3bbd 99d6 54bd 9373 9e3c 7707 d9bd
000002c0: 5548 043d d37d 8d3c f6a9 f3bc 009f 3cbd
000002d0: 0cdb 4c3d f7b7 923d 2213 123d 5cb9 773d
000002e0: c695 b63d 79ed 7cbd ae22 983d ac7d a53d
000002f0: 6902 923d ea3a d4bd 2f39 23bd 8118 9b3c
00000300: 5eb3 453d eb98 68bc cc1b db3d 1937 f0bb
00000310: 0d6a 2bbd 2694 86bd 9e0f acbd 1177 093d
00000320: 9498 d5bd 38f1 7c3d c274 ba3d 82d3 9f3b
00000330: cbc3 9abd 3017 1c3c 06a0 8fbd c888 1abd
00000340: d7e4 b8bd 874d d5bd 4390 1a3b 4245 34bd
00000350: 4315 d73d 2160 913d 9489 9e3d 9cb2 d93d
00000360: 9b35 93bd 0dba 893d 5902 dcbc a86f d43d
00000370: 1d8a 893d eb09 69bc 6587 4bbc 84a1 c33d
00000380: dff4 d63d 5450 483b a38f 6bbd 5db7 df3d
00000390: ed3c 81bc af2a a43d f933 b6bd 0101 a0bc
000003a0: f973 b73d 3fb7 f13c 39eb b43d 9478 443d
000003b0: 37f7 4c3d 5427 d5bc 396d 48bd 2259 bbbd
000003c0: 0864 8bbc 513e 7b3d c860 653d 8fea c2bc
000003d0: 1c20 a03d 430d 473d 798c bf3d 1474 91bd
000003e0: 20be adbc 592c 9abd 97da 86bd 4e46 56bc
000003f0: 484d 773d 8e90 8fbd da7b f6bc 89cd 6f3d
0.05535061 -0.010358539 -0.08447622 -0.047399912 0.08942946 0.015942156 0.035741407 -0.09634976
0.04658191 -0.02010299 -0.024557412 -0.0377787 0.08140541 0.056724973 -0.05460791 0.0028464019
0.045746908 0.058970854 0.047840443 0.1005882 -0.006802012 -0.032491386 -0.10553672 0.048199426
-0.0723884 0.09175469 -0.108665444 0.10808952 0.09786011 0.050095104 0.03173801 0.066157684
-0.053337194 0.06147417 0.0468502 -0.0471972 0.101584904 -0.007138517 0.013570017 0.053092938
-0.06552437 0.043629624 0.027433451 -0.009563114 0.090707846 -0.06930802 -0.056994 0.027110776
0.09137799 0.030287415 0.008776147 -0.06453042 0.07754889 -0.033485148 0.061455484 -0.04465785
0.10693749 0.019929942 0.018346079 0.039881762 0.08229717 0.031733993 0.003980014 -0.0010817042
0.087584734 0.085521296 -0.039583884 0.012350948 0.009573372 0.09361119 3.6258312e-05 -0.045927178
-0.09972429 0.10133578 -0.10813013 -0.09869183 0.08208488 -0.044462178 -0.05278352 0.097750016
0.060598448 0.02535482 0.06624962 -0.042294532 -0.053927522 -0.022224907 0.032481756 -0.053037994
0.07818569 0.05969436 0.10267849 0.04338003 -0.046881292 -0.03638682 -0.08124992 -0.07740497
-0.0893549 -0.009845042 -0.08138707 -0.00886693 -0.059942346 0.07642678 -0.08149736 0.05589158
0.09053447 0.044112053 0.061192032 -0.092913166 -0.013267455 0.017994735 0.06101103 0.012977336
0.06026702 -0.047652267 -0.051507372 0.042045522 0.10131338 -0.07951933 -0.01926138 -0.018286176
-0.050242297 -0.06520589 -0.06615665 0.004412824 0.07788831 0.093514085 -0.071515314 -0.038246658
-0.059334837 -0.09315971 0.07210186 0.09297672 0.021471333 0.014011673 0.08006648 0.08518533
-0.083467774 0.10469225 0.062368706 0.01254556 -0.037456002 -0.092359595 -0.0008144054 0.054030553
-0.056211323 -0.024840713 -0.028328603 -0.058425657 0.07049057 0.005462509 0.027194414 -0.08629288
-0.07943387 -0.068483815 -0.101537496 -0.06888953 -0.039478734 -0.10580926 0.022174478 -0.0612503
-0.107448414 -0.03054337 -0.093058735 -0.019364817 0.0025648798 -0.052481454 -0.015692757 -0.06236782
-0.011283519 0.045320876 -0.052494004 0.08860323 -0.045859884 -0.05196247 0.01934222 -0.10597127
0.032295544 0.017271912 -0.02974413 -0.04605007 0.050013587 0.07163995 0.035662778 0.060479507
0.08915286 -0.06174991 0.074284896 0.08080611 0.07129366 -0.103627995 -0.039849456 0.018932583
0.04826676 -0.014196615 0.10698661 -0.007330787 -0.041849185 -0.06571226 -0.08401416 0.033560816
-0.104294926 0.06175348 0.09104301 0.0048775086 -0.07556876 0.009527013 -0.07012944 -0.0377281
-0.09028023 -0.10415178 0.0023584522 -0.044011362 0.10502102 0.07098413 0.07741085 0.1062977
-0.07187959 0.067249395 -0.026856588 0.10372859 0.06715796 -0.014223556 -0.012422417 0.09552291
0.10495924 0.0030565457 -0.05751003 0.10923646 -0.015776122 0.08015954 -0.08896632 -0.019531729
0.08957667 0.029506324 0.08833928 0.047966555 0.05004045 -0.02601973 -0.048932288 -0.0914786
-0.017015472 0.061338726 0.0560005 -0.023793487 0.078186244 0.04859663 0.09352965 -0.07102218
-0.021208823 -0.0752799 -0.065846615 -0.013078285 0.060376436 -0.070099935 -0.030088354 0.058545623

fc.0.bias f4 [64]
00000000: e78d ff3b 7aec d8bd 55f2 fb3c 3c5c d7bd
00000010: c193 a23d 1647 6a3d fc3e 18bc 42dc 693a
00000020: 9ef4 8d3d a021 233c 7213 65bc 6105 2dbc
00000030: 635a b53d d315 3abd e6e5 9dbc d9c4 9bbd
00000040: c32e 83bd 05db a43b f976 dc3d 9ed4 b7bd
00000050: ed0c b9bd d3e2 1f3e 51be ccbd 1d85 b93d
00000060: 52ec c4bd b79e bebd 5c91 39bd 5764 c5bd
00000070: 49a9 8e3c 39b4 d1bc 4103 e4bc e4c2 ae3d
00000080: 7d45 593d 5d75 0d3d edf4 923d b5b3 343e
00000090: dbbe 80bd a152 003e 91d1 d13d cb15 eb3c
000000a0: 6f33 643d 5d06 25bd ff7c 373d 557f d33d
000000b0: 1087 70bd 56f3 89bc 0ab6 3abb ee98 e4ba
000000c0: 353e 3dbd 5030 e9bb d3f4 d9bc e976 0a3e
000000d0: 9d52 963d 9a0c 7cbc 1b88 9abd 9d3a d83d
000000e0: 7256 aa3d f955 ad3c a778 bebc 1de2 d9bd
000000f0: 3356 a13d 8871 0a3d 3177 5dbc 056a ae3d
0.0077988985 -0.10591979 0.030755201 -0.10515639 0.07938338 0.0571967 -0.00929236 0.00089210656
0.06931423 0.009956747 -0.013981687 -0.010560364 0.088551305 -0.04543097 -0.019274663 -0.07605905
-0.064054035 0.005030992 0.1076488 -0.089761004 -0.090356685 0.1561387 -0.099972375 0.090585925
-0.09615387 -0.09307616 -0.04530464 -0.09638279 0.017414706 -0.025598632 -0.027833583 0.08533266
0.053044785 0.034535754 0.07175622 0.17646678 -0.06286403 0.1253152 0.1024505 0.028696915
0.055713113 -0.04028927 0.04479694 0.10327021 -0.058722556 -0.016839664 -0.0028489851 -0.0017440596
-0.046201903 -0.007116355 -0.026606 0.13521923 0.07339976 -0.015383864 -0.07545491 0.105580546
0.083172694 0.021159159 -0.02325089 -0.10638831 0.07877769 0.033799678 -0.013517187 0.08516315

fc.2.weight f4 [64, 64]
00000000: 83f1 9fbd 20f6 22bc e0b7 adbb 6c7e debd
00000010: 68a5 90bc 365b 94bd 60c3 43bd 10b3 4c3d
00000020: 4930 41bd 9856 45bd 94f6 65bd b8dc 723d
00000030: 2095 e0bb 03c4 51bd 983e fabc 4fac 4ebd
00000040: b080 46bd cf2d 8a3c b000 0eba eaf7 cd3d
00000050: 0110 4b3d c982 853d 4036 c23d 4033 a4bc
00000060: 15f5 91bd 5098 2dbd d489 0d3e c09c b03b
00000070: d0da 4a3d 4067 d33d 4011 8dbd 6803 dabc
00000080: bead d93d edf4 b93d f37e c7bc b35f 813d
00000090: 4485 ab3d 3416 a4bc c4e3 87bc d0d7 a43d
000000a0: ca7c c4bd ee0b a13d a08c e53d 4296 2dbd
000000b0: 20bf 26bd d0e0 d53d af3e 43bd 936a e1bc
000000c0: c626 a4bc 744c cbbd 9dc1 e8bd 424b 47bb
000000d0: 22a2 b4bd e365 403c ec1a b8bc a48f 9d3d
000000e0: ee52 aa3d d387 64bd 5a6d 053e d883 05be
000000f0: d315 c53d 068a e43d 46d9 70bd a5e8 4c3d
00000100: e4d4 f7bd 34e5 c93d b43b dc3d 5083 d8bd
00000110: 88d6 bebd 5099 103d eabf eb3d 4774 74bd
00000120: d3d1 8a3b cca1 71bd 29bc c03c f449 2c3b
00000130: ee78 84bd 56df a7bb d507 2e3d e631 9c3c
00000140: a86b 8cbd 61a2 eb3c f179 d53d 803b c13c
00000150: ae9a 98bd 2e8b c73c 2ec0 e6bd 8dc0 e03d
00000160: e3af d5bd 89c0 14bc ac3e 473e d03b d23d
00000170: 3bb1 40bc 8a88 93bd 8014 35bd b2e5 e33d
00000180: 3803 353d 8d4e 0c3e 537f 3f3d d1ea 87bd
00000190: 9c7a 773d 4d5e 4a3d a6ce ec3d 7eef bebc
000001a0: 7056 0a3d d8e0 6f3d 6570 fa3d ec95 a4bd
000001b0: 50fb cabc 2a32 4abd ff2b 2b3d 1871 3a3d
000001c0: 21da dd3d aeaf 263d ac35 d638 29ed 94bd
000001d0: e29b 933d 3f52 6f3c 56fc 443b 4072 283e
000001e0: 66cf 5dbd 3fe5 69bd 2652 073d a22d be3d
000001f0: 7a42 9cbc 68b0 5b3d 0880 c23d a72b d0bd
00000200: 64ff 83bd e028 09bd dcdc c7bd bcda e33d
00000210: fe79 c8bd 5161 303d faa2 9c3d ca01 bb3c
00000220: f205 183b aa53 aa3d f171 08bd dc22 9ebd
00000230: 2c76 133d a608 f93c 1c8e 82bc a7e0 cd3d
00000240: 9417 723d 2dc4 c33d 5a84 843c ce4c 9d3d
00000250: 4bc9 debd 1c68 973d b30c 073e 273c 33bd
00000260: 5264 95bd 468f 64bd c5a8 923d 549c 32bd
00000270: fbd9 b03d 65ae dcbc b6b9 593d 1ed8 af3d
00000280: 807b fd3c 3b61 3e3c 36ad 6d3d 9ddf 043e
00000290: 8059 8d3b ec3c c8bc ba5a 7c3d 3667 cc3d
000002a0: 757a f33d e278 8bbc da5b 92bd 5e7c 163d
000002b0: c487 41bd cfa4 e6ba b0a6 82bd 4116 e83a
000002c0: a0f1 123d a910 c4bc 69f2 303d acea b43d
000002d0: 92f8 e73c c8e4 743d 1314 3b3d 3ad1 2f3d
000002e0: fccd 133d f87e f63d 38a8 8fbd 9d7a 9f3d
000002f0: f124 bdbc 3415 2abd e5bc 46bd 929e fe3d
00000300: b423 f33c 08d7 4c3d 5221 f23d ee42 bebd
00000310: 8c50 343d dc4a b6bb 6e7b b83d 54ce a63d
00000320: 3788 f4bd 80f8 f4bd a982 06be 74f2 043d
00000330: a2da cd3d 6dfa 9e3d 0a62 aebd c41c 3cbd
00000340: bab4 ec3d 24ca d0bd 83d6 ccbd 466a fcbd
00000350: d23d 383c 6c6c 863d 44e3 b33d c25d 1c3d
00000360: 58ea 33bd 7f89 d53d 61bf 95bc 0a2b 8fbd
00000370: 6051 bdbd d8c5 833d a78b 6cbd 384d cabd
00000380: 6065 543d 2bd4 8dbd 00b8 353b 997c 8d3c
00000390: 588a 45bd 47da 38bd c613 a5bd 8aeb adbd
000003a0: fc9e ae3d 3fe0 053d 15c5 02bd c570 8b3d
000003b0: d873 ac3d 0e7d fdbd 6366 033d bacd 9dbd
000003c0: b6ee ebbd 30c7 e23c 217a f83b abe6 05be
000003d0: bd42 763d 0f9c 683d 07ad 263d 6346 3a3d
000003e0: 2027 b4bd aa6a ff3d adbe 5a3d 4224 47bd
000003f0: 9939 763b 6c81 e13d 8ed5 623d 5b92 6b3d
-0.078097366 -0.009946376 -0.0053014606 -0.10863957 -0.017656997 -0.072439596 -0.047793746 0.049975455
-0.04716519 -0.048178285 -0.05614336 0.059292525 -0.0068537146 -0.051212322 -0.030547425 -0.050457295
-0.04846257 0.016867546 -0.00054169726 0.100570515 0.04957581 0.06519086 0.094830036 -0.02004397
-0.07126824 -0.042381585 0.13822109 0.00538978 0.049525082 0.10322428 -0.06888056 -0.026612952
0.10628842 0.09079919 -0.024352526 0.06317081 0.08375028 -0.020030119 -0.0165881 0.080489755
-0.09594114 0.078636035 0.11208463 -0.042379625 -0.040709615 0.1044327 -0.0476672 -0.027516639
-0.02003802 -0.09926692 -0.11365054 -0.0030409847 -0.08819987 0.011743042 -0.022473775 0.07693413
0.08316599 -0.055793595 0.13029996 -0.13038576 0.09623303 0.111591384 -0.058800958 0.050026555
-0.121011525 0.0985817 0.10753575 -0.10571921 -0.09318262 0.03530246 0.11511214 -0.059681203
0.004236439 -0.058992192 0.023527222 0.0026289197 -0.06468378 -0.0051230593 0.042487938 0.019066762
-0.06856471 0.028763952 0.10423649 0.023587942 -0.07451378 0.024358358 -0.11267124 0.10974226
-0.10433938 -0.009079107 0.19457501 0.102653146 -0.011761005 -0.07203777 -0.044209003 0.11127795
0.044192523 0.1370184 0.046752285 -0.066365846 0.060419664 0.04940634 0.115628526 -0.023307558
0.03377384 0.058564037 0.12228469 -0.08036408 -0.024778038 -0.049364246 0.041790005 0.04551801
0.108326204 0.040694885 0.00010214312 -0.07271797 0.07207467 0.014607011 0.003005763 0.16449833
-0.05415287 -0.05710339 0.033037327 0.092860475 -0.019074667 0.05363503 0.09497076 -0.10164576
-0.06445196 -0.033486247 -0.097589225 0.11125705 -0.09788893 0.04306156 0.07648273 0.022828002
0.0023196903 0.08316739 -0.033311788 -0.07721493 0.03600137 0.030399632 -0.015936904 0.10052615
0.059104517 0.09558902 0.016176391 0.07680665 -0.10878237 0.07392904 0.13188438 -0.043758538
-0.07294525 -0.0558007 0.071610965 -0.043606117 0.086353265 -0.026938627 0.053155623 0.08586143
0.030942678 0.011619861 0.058026515 0.12975927 0.0043136477 -0.024443112 0.06160996 0.099806234
0.11888591 -0.017025415 -0.071464255 0.0367397 -0.047248617 -0.0017596724 -0.06379449 0.0017706827
0.035874963 -0.023933725 0.04319993 0.088338226 0.02831677 0.059788495 0.04567344 0.042924143
0.036085114 0.12035936 -0.07014507 0.077870585 -0.023088904 -0.041524127 -0.048519988 0.12432589
0.02968011 0.050009757 0.118227616 -0.092901096 0.044022128 -0.005563123 0.09007917 0.08144823
-0.119400434 -0.1196146 -0.1313578 0.032457784 0.100514665 0.07762609 -0.08514793 -0.04592587
0.11557908 -0.10194805 -0.10001852 -0.123249575 0.011245208 0.065636486 0.08783582 0.038175352
-0.04392466 0.10426616 -0.018279733 -0.06990631 -0.09244037 0.0643422 -0.05775037 -0.098780096
0.05185449 -0.069252335 0.002772808 0.017271327 -0.048227638 -0.04513004 -0.08060412 -0.08492191
0.085264176 0.03268456 -0.031926233 0.068086185 0.08420533 -0.12377368 0.032080065 -0.07705255
-0.1152014 0.02768287 0.0075829183 -0.13076274 0.06012224 0.056789454 0.040692355 0.045477282
-0.08796525 0.124715164 0.0534045 -0.048618563 0.0037570952 0.110110134 0.055379443 0.057512622

fc.2.bias f4 [64]
00000000: 2f4c 153e 9e13 1d3d 2256 b53d b53e aa3d
00000010: 5de2 353b c0d2 fa3d 0082 5d3d 30fa babd
00000020: 7aba 1f3e 98ba a73c 8b1e 553c 278b 1f3d
00000030: f9d7 bc3c dd70 c8bd 0207 12bd 898b a8bd
00000040: 68c4 6bbd b03c 5f3c bc80 f9bd 2589 febc
00000050: 256a 0a3e 44eb 84bd b0ac 783d 0b2b 0cbe
00000060: b0c4 ca3c 126b 41bd 4de1 913d 2ab4 ec3d
00000070: 8ab2 fb3d 6ee8 233c 0002 bbbc eb0f 7e3c
00000080: 579e d73d fb39 edbb a0b4 493d 862c 99bd
00000090: 195a b5bd 38a4 b8bd 321b e7bc 365f d23d
000000a0: 0565 f8bd b32d 00be 08ad 063e 053a a0bd
000000b0: 0713 bb3c c6f8 02bd e434 d7bd 3d61 c63c
000000c0: fbdf ea3d d1ee 9abc 5468 5c3d f8f3 d6bd
000000d0: 20e0 c73b 58ed 033d 8464 a83d e8d5 323c
000000e0: cb37 fa3a 377c c4bc 7920 b63c 6bac d43d
000000f0: e036 29bc ddf3 d53d 1948 5d3b 3009 4bbb
0.14579843 0.038348787 0.08854319 0.08312742 0.0027753331 0.122472286 0.054079056 -0.09129751
0.15598479 0.020474717 0.01300777 0.038951065 0.023052203 -0.09787152 -0.035651214 -0.08229739
-0.057560354 0.013625309 -0.12182757 -0.031071255 0.13517053 -0.06490186 0.060711563 -0.13688295
0.024751991 -0.04722125 0.07123051 0.11557801 0.12289913 0.010004146 -0.022828102 0.015506725
0.10528248 -0.007239578 0.049244523 -0.07479195 -0.088550754 -0.09015697 -0.02821121 0.10272066
-0.12128643 -0.12517433 0.13151944 -0.07823566 0.022836221 -0.03197553 -0.10508135 0.024216289
0.11468502 -0.018912705 0.053810433 -0.10495752 0.006099716 0.03220877 0.08222297 0.010915257
0.0019090114 -0.023985012 0.022232281 0.103844486 -0.010328025 0.10446904 0.0033764897 -0.0030980818

fc.4.weight f4 [6, 64]
00000000: 5677 cc3d 9bf5 013e bd52 54bd 9f40 c8bd
00000010: 0cd7 f73b c82a f8bc 804f 56bd 46d4 cabd
00000020: ed13 113e b178 acbb ca7b 92bd 0347 ba3c
00000030: e3b5 893d 089e 79bc bbb5 e8bd 62fe d73c
00000040: d615 8cbd 2002 42bc 0ebe d6bd c555 6cbd
00000050: 2ae8 abbd 45f9 f73d 5f25 3bbd d2c7 bebc
00000060: f79d f03d f0cb d73c 7da1 47bc 5c50 373d
00000070: c006 793b 5a1f 4d3d c494 f93d fb21 073e
00000080: 51ac c73d 0332 8a3d 98ba 8abd 6033 71bd
00000090: 5882 dabc 0061 1d3a c14f f4bd 5250 863c
000000a0: 9588 583d 9a56 b13d 9620 5b3d 3aad b0bd
000000b0: 2812 e0bd 3072 2c3c d440 cdbd d378 d83d
000000c0: a5da 083d f8fb 173d a850 e23d 287d da3d
000000d0: 0aa1 84bd 8080 53bb 45e3 ee3b c721 c5bd
000000e0: f8d1 823d e758 c23b e60f c03b 386f 3b3d
000000f0: c86b a5bc 6265 243d 9477 4c3d 463c dc3d
00000100: 7fde 85bd c85b d73d 2a37 fc3c 10f2 913c
00000110: 2e15 573d 44b4 25bd 9b5d 57bd 88b5 8d3d
00000120: 4ab4 863c 1b35 033d 933f e63c 1d5d 0bbd
00000130: 38db e4bd 2c3a 5d3d a18b 053e 8046 a23c
00000140: 400c 0e3c a2bc 81bd d4e2 04bd c456 733c
00000150: 4e08 073e b3d0 d8bc 7e36 883d fe55 61bd
00000160: a066 843d ba93 553d 6b03 983c 25ea d93d
00000170: 6c18 aa3d e0a7 0bbd 5042 aa3d dabd c93c
00000180: 049a d13c d385 9bbd b301 ed3d 04d1 783d
00000190: cf15 adbd cca2 d83d 55f7 2fbd 23f2 20bd
000001a0: 8c29 573d 7d27 b5bd 483f 9d3d bfb4 72bd
000001b0: 7233 bcbd 8900 d33d 40e3 44bb 5c27 c33c
000001c0: 6720 f83d aec0 db3d 3126 c53c 69aa 09bd
000001d0: 4053 3ebd 0671 9dbd 8e6e a33c f64a 06bd
000001e0: 3554 a73c 9fab b1bd 7ae9 d03d ebc0 043e
000001f0: a449 cdbd 1f71 d4bd 5fa3 a6bd 0e69 72bd
00000200: 3e5d fabd 9a4b 82bd fe3b 0fbc 2f30 c9bc
00000210: bd9a b83d 0cc3 c23d bdaa 0c3c a839 be3c
00000220: 75ca 22bd bf9e f8bc 6108 d03d 2582 95bb
00000230: 5eff 503d a838 10bd 40e8 0b3e 19f3 923d
00000240: bca0 77bd e848 f6bd e820 4a3d 97d9 233d
00000250: 200f ac3d ffc2 143d 0d82 843d be0a bcbc
00000260: b06d df3d e6a9 be3d 87bb b73c e4e0 bbbd
00000270: 7607 f23d 87a2 cabd e8a5 f8bc 9af7 a33d
00000280: 6660 6bbd 5c07 e0bd 45f5 a9bd f695 cbbd
00000290: 2f0e a33d 6036 44bc 2b38 0ebd 9eb9 82bd
000002a0: 7ce4 ba3d 51e0 a83d 4816 ef3d bddc e13d
000002b0: d42f c4bd d813 7bbc 8c0e e53d 692e 013e
000002c0: b15c 793d 5d7a b33c cbb1 1e3d 4e2c dd3c
000002d0: 78f8 823d e618 e7bd c1e0 ad3d cb33 c6bc
000002e0: 16c4 de3c f0cf 94bd 6e27 6d3d 48e6 8dbd
000002f0: 9608 873d 4a34 423d 3fde 493c 94c3 a83d
00000300: 7845 56be 0643 1e3d a954 bebd c4a6 863c
00000310: 7b5a 37bd 2cd6 b7bd b6c6 aabc b88f 423d
00000320: e808 b9bd d54d dfbc 3810 4a3d b671 efbc
00000330: a24f 5fbc 912c 4e3d 2af6 14be e6f7 cbbd
00000340: 2052 8e3c d441 24bd 20ff 823d 576c 793d
00000350: d6c5 7e3d 0d83 903d 6dc8 943d dbcd 9e3d
00000360: 750a cebd edcb e7bd 8e57 b53c 22d4 d13d
00000370: 28be 23bd ee26 aebd 1896 b63d 3c14 01be
00000380: 79a9 d5bd c5b9 1ebd 4a11 8fbc f009 e9bc
00000390: 17c6 1e3c a0f0 14bc 2489 03bd e446 0cbd
000003a0: 84f6 d63d eaf6 d0bd 0b08 813d b091 b83d
000003b0: 433d 1ebd 10f9 bf3c 60e9 babc 5231 dbbd
000003c0: f45d 0bbe fb86 9ebd d81d babc 53ca ffbd
000003d0: c843 513d 3466 01bd 82aa 913d ed47 15bd
000003e0: b80c 8e3d 7298 923c 6f97 04bd 58d1 8f3d
000003f0: 4038 ebbb c55c 11be 1508 cd3d a762 b93c
0.09983699 0.12691347 -0.051836718 -0.097779505 0.0075634774 -0.030293837 -0.05232191 -0.09903769
0.14167757 -0.005263411 -0.07152517 0.02273894 0.06724145 -0.0152354315 -0.11362787 0.026366416
-0.068401024 -0.011841327 -0.10485469 -0.057698984 -0.08393891 0.12108091 -0.045689937 -0.023288641
0.117488794 0.026342362 -0.012184498 0.04475437 0.0037998408 0.050078727 0.12186578 0.13196556
0.097496636 0.0674782 -0.06773871 -0.058886886 -0.02667348 0.0006003529 -0.11929274 0.016395722
0.05286463 0.08659096 0.053497873 -0.0862679 -0.10940963 0.010525271 -0.100221306 0.105699204
0.03341164 0.03710553 0.1105054 0.10668403 -0.06476028 -0.0032272637 0.0072902762 -0.09625583
0.063877046 0.005931008 0.0058612702 0.045760363 -0.020192996 0.04013575 0.049918726 0.10753684
-0.065365784 0.10515553 0.030788023 0.01781562 0.052510433 -0.040455118 -0.052579504 0.0691939
0.01644339 0.032033067 0.028106486 -0.034024347 -0.11174625 0.054010555 0.13041545 0.019809008
0.008669913 -0.06334807 -0.032442883 0.0148522295 0.13186762 -0.026466703 0.066510186 -0.05501365
0.06464887 0.052142836 0.018556317 0.10640363 0.08305439 -0.034095645 0.08313429 0.024626661
0.025586136 -0.07593884 0.1157259 0.060746208 -0.08451425 0.10577926 -0.042960484 -0.03929342
0.052529857 -0.088454224 0.076780856 -0.059254404 -0.091895 0.103028364 -0.0030042678 0.023822479
0.12115555 0.1073011 0.024066063 -0.03360978 -0.046466112 -0.07687573 0.019950178 -0.032786332
0.020425895 -0.08675312 0.10200782 0.12964217 -0.100238115 -0.10373139 -0.08136629 -0.05918222
-0.12224816 -0.06362076 -0.008742331 -0.024559109 0.09013889 0.095098585 0.008585629 0.023220852
-0.03974386 -0.030349134 0.10157848 -0.0045626336 0.051024787 -0.03521028 0.13662815 0.071752734
-0.060456023 -0.120256245 0.049347788 0.04000243 0.08401322 0.036318775 0.06470118 -0.022954341
0.10909593 0.09309749 0.022428287 -0.09173754 0.11817829 -0.09894281 -0.030352548 0.080062106
-0.05746498 -0.10938904 -0.082987346 -0.09940712 0.0796169 -0.011975855 -0.034721535 -0.0638306
0.09125611 0.0824591 0.11674172 0.110284306 -0.09579435 -0.015324555 0.11184415 0.1261536
0.060879413 0.021908933 0.038743775 0.026998665 0.06395048 -0.11284046 0.08490134 -0.024194619
0.02719311 -0.072662234 0.05789893 -0.06928688 0.065934345 0.047413148 0.012321054 0.082404286
-0.20924938 0.038638137 -0.092934914 0.016436942 -0.044764023 -0.08976397 -0.020846706 0.047500342
-0.09034902 -0.027258793 0.049331874 -0.029229026 -0.013629826 0.05033547 -0.14547029 -0.09959392
0.017373145 -0.04010184 0.063963175 0.060894337 0.06220039 0.07056246 0.07264791 0.077541076
-0.10060588 -0.11318193 0.022136476 0.10245539 -0.03997627 -0.08503519 0.08915347 -0.12605375
-0.10432715 -0.038751382 -0.017464299 -0.028447121 0.009690783 -0.009090573 -0.03211321 -0.034247294
0.10496238 -0.10203345 0.06300362 0.09012163 -0.038632642 0.023434192 -0.02281636 -0.107027665
-0.13610059 -0.07740589 -0.022719309 -0.12489762 0.05109003 -0.03159161 0.071126 -0.036445547
0.0693602 0.017894957 -0.03237098 0.07022351 -0.0071783364 -0.14195545 0.10011307 0.022630049

fc.4.bias f4 [6]
00000000: 4cae 8d3d 51d5 acbc 0b14 2cbd be0c 27bd
00000010: 1eb1 7cbd 4f40 583d
0.0691801 -0.021097811 -0.042011302 -0.040783636 -0.06169235 0.052795704
