main/models/lstm_again/best_model.pt (torch, 107318 bytes, 9 tensors)

hist_emb.weight f4 [7, 16]
000000 3c c3 de 3f 92 c0 a6 bd 04 76 10 be 21 b6 9c be
       1.7403331 -0.081421986 -0.1410752 -0.30607703
000010 d9 39 e2 be 6f c3 b7 3e 1f 10 1a be c7 52 8a bf
       -0.4418476 0.35891291 -0.15045212 -1.0806512
000020 24 04 ec bf c9 a2 09 c0 8b 07 fe 3e 68 1d 32 be
       -1.8438764 -2.1505606 0.4961513 -0.1739403
000030 1d 41 05 3f 28 f5 9d 3e 0b 41 20 c0 52 55 a8 3f
       0.5205248 0.30851102 -2.50397 1.3151038
000040 70 56 9d bc ab d1 07 bf f0 63 39 3f 24 36 00 40
       -0.019206256 -0.530543 0.7241812 2.0033045
000050 36 9c 45 3f 33 2a 43 bf 37 8b 00 bf 77 0e 6d 3f
       0.77191484 -0.76236266 -0.50212425 0.92600197
000060 52 9f 58 3f a5 ec 00 c0 c9 9a 44 3f 93 9d 3c 3f
       0.84618104 -2.0144436 0.76798683 0.7367794
000070 66 25 cf 3e c3 4b 98 bf ea 22 87 be 09 2d 44 40
       0.4045822 -1.1898121 -0.26393825 3.0652487
000080 06 b8 99 3e ff 6e 56 3f 8f 36 39 bf b4 d7 9b bf
       0.3002321 0.83763117 -0.72348875 -1.2175202
000090 40 6f 29 be b2 e5 99 3f b5 c1 02 3e 33 bf f1 be
       -0.16546345 1.2023222 0.12769206 -0.47216186
0000a0 a8 6d 94 3f cf bc 56 3f 38 c4 b6 bf f6 28 ab 3d
       1.1595964 0.8388185 -1.4278631 0.08357422
0000b0 23 fc bb 3e e7 51 e1 be 5a a5 0a 3d db 5a 58 bd
       0.36715803 -0.440078 0.033849098 -0.05282102
0000c0 a7 82 34 bf 93 b6 3b 3f cd e6 36 bf b5 7b 64 bf
       -0.7051186 0.7332546 -0.71445924 -0.8925126
0000d0 a1 ed c3 3f 86 98 bb bf 12 22 74 3e 9d 6b 8e 3f
       1.5306894 -1.4655921 0.23841122 1.1126591
0000e0 4e 8e 21 40 b0 24 28 be 48 42 da 3e 6d 3a 7c be
       2.5243106 -0.16420245 0.42628694 -0.24631663
0000f0 f3 16 b1 be ac 62 14 be 1c de 8f be 00 8e e3 be
       -0.3458782 -0.14490765 -0.28099144 -0.44444275
000100 38 47 35 bf 5f f1 07 bf d5 13 0c 40 18 c7 c3 be
       -0.70811796 -0.5310268 2.1887105 -0.38237834
000110 c7 3f 8c 3e e6 6e fc 3f 06 6d 7b bf 44 e6 d7 3e
       0.27392408 1.9721344 -0.9821323 0.42167866
000120 90 79 ca bd af e4 11 bf a9 d1 71 bf 5a 3b d0 3e
       -0.098864675 -0.5698957 -0.9446054 0.40670282
000130 b2 79 8d 3e 8d 0a 8b 3f 5d de 8d 3f 64 cd cb 3e
       0.2763191 1.0862595 1.1083485 0.39805138
000140 c8 02 dd 3e 05 36 25 bf 13 b3 b8 bf 12 4f e3 3e
       0.43166184 -0.6453555 -1.4429649 0.44396263
000150 d8 ea 80 3f 20 d3 54 3f 5f 8f 91 3f be b4 c7 3d
       1.0071669 0.8313465 1.1371878 0.09751271
000160 35 c5 fc 3d a7 8c bc bf 42 7a 5d be 34 92 43 3f
       0.12342302 -1.4730424 -0.21628669 0.76394963
000170 0d 02 27 bf 16 ca 92 be 03 72 1b bf 45 61 53 3f
       -0.65237504 -0.28669804 -0.60720843 0.82570297
000180 00 00 00 00 00 00 00 00 00 00 00 00 00 00 00 00
       0.0 0.0 0.0 0.0
000190 00 00 00 00 00 00 00 00 00 00 00 00 00 00 00 00
       0.0 0.0 0.0 0.0
0001a0 00 00 00 00 00 00 00 00 00 00 00 00 00 00 00 00
       0.0 0.0 0.0 0.0
0001b0 00 00 00 00 00 00 00 00 00 00 00 00 00 00 00 00
       0.0 0.0 0.0 0.0

hist_lstm.weight_ih_l0 f4 [256, 16]
000000 86 69 a2 3d 6c 76 56 bd 7a 72 e6 3d c8 90 7c 3d
       0.07930283 -0.05235903 0.112523034 0.06166151
000010 48 cf cb 3d 04 33 bc bd fc bc f2 bd 04 98 0c bd
       0.09951645 -0.09189418 -0.11852452 -0.03432466
000020 be 47 f7 3d 46 2c 80 bd 42 07 94 bd d2 c2 e3 3d
       0.120742306 -0.062584445 -0.07227947 0.111211434
000030 68 de 92 bd 96 6d da 3d f2 1b f6 bd 8e 10 8d bd
       -0.07171327 0.10665433 -0.12017049 -0.06887923
000040 08 4a fa bd b8 e0 e4 3c 28 07 eb bd 4c b0 a5 bd
       -0.122211516 0.027939186 -0.11475974 -0.080902666
000050 00 ef e0 3c 20 e2 26 bc f4 33 06 bd 80 20 2c bd
       0.027457714 -0.010185748 -0.03276439 -0.042023182
000060 fc 08 75 bd e0 08 98 bb 42 bb ed 3d 40 5d 9d bc
       -0.05982302 -0.00463973 0.11607982 -0.019209504
000070 e0 87 42 3d 2e 36 d9 3d d0 43 dc bc 58 7c b9 bd
       0.04749286 0.10606037 -0.026887804 -0.0905692
000080 60 25 73 3c 52 41 c5 3d 10 ee 87 3d 68 02 f8 bd
       0.014840454 0.096315995 0.06637204 -0.12109834
000090 f0 f3 8d bd 40 4a 11 3b 74 18 c2 3d 48 3c fb bc
       -0.06931293 0.00221695 0.0947732 -0.030668393
0000a0 54 19 00 bd 4c f5 27 bd ce 57 9b bd a0 6a 67 3c
       -0.031274155 -0.041005418 -0.07585107 0.0141245425
0000b0 88 a5 f6 bd a0 fd 4a bc 0c 09 e1 3d 20 78 83 3c
       -0.12043291 -0.0123895705 0.10988054 0.016048491
0000c0 58 7d b1 bc 78 8a e1 bd b0 56 b6 bd ee fa f0 3d
       -0.021666214 -0.11012739 -0.08903253 0.11766611
0000d0 c8 cc bf bd d0 cf 2d 3d f0 a4 8e 3d 16 37 aa 3d
       -0.09365231 0.042434514 0.06965053 0.08311288
0000e0 cc 9a 84 3d 92 5f 83 3d 74 37 85 bd 72 1b 9c 3d
       0.06474838 0.06414713 -0.065047175 0.07622422
0000f0 14 76 32 bd b0 7c d5 3c cc 39 cf 3d 06 e5 bc bd
       -0.04356964 0.026060432 0.10118446 -0.0922337
000100 a4 ec 8e 3d ac 70 85 bd 0e 8a e7 3d 60 32 f7 bb
       0.06978729 -0.06515631 0.11305629 -0.007543847
000110 00 ea f5 ba de 41 e6 3d 46 ec b0 3d 2c a7 53 bd
       -0.0018761754 0.11243032 0.086388156 -0.0516731
000120 02 45 86 bd e0 b2 a2 bb 66 0e b3 bd 00 a3 c0 ba
       -0.06556131 -0.004965171 -0.08742981 -0.0014697015
000130 f0 89 16 bc 00 8d 06 bb 68 05 24 bd 98 be 8e bc
       -0.00918816 -0.002053082 -0.04004422 -0.017424867
000140 ee c2 cf 3d f0 34 93 3c d2 47 9c 3d c4 f6 62 bd
       0.10144602 0.017969579 0.07630886 -0.055411115
000150 f0 c9 3d 3c c0 e2 01 bb 70 b3 e3 3d 62 90 c0 bd
       0.01158379 -0.0019818991 0.11118209 -0.09402539
000160 40 47 64 bd 30 d8 a6 3d c4 4e 83 bd e0 93 c2 bd
       -0.05573201 0.08146703 -0.06411508 -0.09500861
000170 24 5c 97 3d 88 6c 4c bd 70 92 84 3c 76 2a b2 bd
       0.07390621 -0.04990819 0.016183108 -0.08699505
000180 4c 4d 5e bd f4 09 5e bd c0 0a 9b 3b 8c b4 82 bd
       -0.054272935 -0.05420871 0.004731506 -0.06382093
000190 f4 b6 2d 3d 56 6f f4 3d 6a a4 f7 3d fc 69 47 3d
       0.042410806 0.11935298 0.12091906 0.04868506
0001a0 44 d9 15 bd 38 15 97 bd b8 98 ea 3c 62 b0 87 3d
       -0.036584154 -0.07377094 0.028637275 0.06625439
0001b0 f4 88 8e 3d 60 54 94 3d 38 6a 01 3d b0 23 25 3c
       0.069597155 0.07242656 0.03159544 0.010079309
0001c0 c0 f4 18 bb 82 85 d8 3d 88 f0 d4 3c bc 6b 43 bd
       -0.0023339242 0.105723396 0.0259936 -0.047710165
0001d0 e0 26 15 3c b2 c4 f6 3d 4c 27 b7 3d 2c ed b5 3d
       0.009103507 0.120492354 0.08943042 0.088831276
0001e0 c0 c3 43 bc d8 0a d1 3c fe 1b bd 3d be 48 f8 bd
       -0.011948526 0.025517866 0.09233855 -0.121232495
0001f0 34 7a 16 bd 08 a8 d5 bc 72 27 8b bd e8 fa 8b bd
       -0.036737636 -0.0260811 -0.06794633 -0.06834966
000200 38 ac 81 3d ae 7c 9b 3d 2e 32 b9 bd 64 45 4f 3d
       0.06331676 0.0759214 -0.09042774 0.050603285
000210 9a 6f af 3d 70 91 86 bc d8 74 f1 3d 90 80 77 bd
       0.08566208 -0.016426772 0.11789864 -0.06042534
000220 90 fa 56 bd de df c0 3d 28 5f c9 bd e8 d7 ca 3c
       -0.05248505 0.09417699 -0.09832603 0.024761155
000230 ba 07 e6 3d ec b1 6c bd 6a 49 99 bd a8 cc de 3c
       0.112319425 -0.057786867 -0.07484706 0.027197197
000240 ee 96 ac 3d 04 17 12 3d 38 9c b3 3c 10 a6 f7 3d
       0.08427225 0.03566648 0.021925077 0.12092221
000250 1a c7 94 3d b0 c5 e5 bc 56 d3 db 3d f2 ea d7 3d
       0.07264538 -0.028048366 0.107336685 0.10542859
000260 54 fa 5f bd f0 32 f0 bd 06 e5 9f bd 68 f2 c2 bd
       -0.05468209 -0.117284656 -0.07807355 -0.095188916
000270 1a 6c ce 3d 40 ff 3a bb 30 fc 5d bc 8c f2 e9 bd
       0.100792125 -0.0028533489 -0.013548896 -0.11423215
000280 e4 aa ed bd 14 4e 30 bd 90 7c b9 3d 3a f1 f2 3d
       -0.116048604 -0.04304321 0.090569615 0.118624166
000290 f4 9f 4a bd 30 b6 94 bd de 34 86 bd 4c 2a 78 3d
       -0.04946895 -0.07261312 -0.06553052 0.060587212
0002a0 50 93 8d 3c f4 14 82 3d 40 31 cf 3b aa a1 bd bd
       0.017282158 0.06351653 0.0063230097 -0.092593506
0002b0 ec fe fa bd 5c d0 e3 bd a8 44 1d 3d 78 df c7 bd
       -0.12255654 -0.11123726 0.038395554 -0.0975942
0002c0 1c 0b 95 3d 94 2f 1f 3d bc 2c 8b 3d a4 7a a6 bd
       0.072775096 0.038863733 0.06795642 -0.081288606
0002d0 d0 6e da bc d0 bc 1a 3d 64 ff 3a 3d d4 5c c2 3d
       -0.026664168 0.037777722 0.045653716 0.09490362
0002e0 30 5b e5 3d 48 28 fa 3c 18 1e 11 bd 28 e9 c1 bd
       0.11199033 0.030536786 -0.03542909 -0.09468299
0002f0 c0 00 d2 bd 32 1a ef bd 20 c7 13 bd 58 50 74 bd
       -0.10254049 -0.11674918 -0.036078572 -0.059646934
000300 48 06 8d 3d a0 65 3e bc 96 84 b8 bd c8 ba 72 bd
       0.06885964 -0.011620909 -0.09009664 -0.05926016
000310 b0 39 f2 3d 04 be 60 bd 98 ce e3 3c ec 18 28 bd
       0.11827409 -0.054868713 0.027808473 -0.041039392
000320 40 6e a8 bc 90 7e b2 bc 68 56 e0 bd c8 2b 16 bd
       -0.020560384 -0.021788865 -0.10953981 -0.036662847
000330 c0 c1 e8 3c 5c 1e 3e 3d 00 1f 7c 3d 64 22 bf 3d
       0.0284127 0.04641567 0.061553 0.09332731
000340 18 01 94 bd 50 e1 87 3c a2 ec d1 3d 16 e4 f1 3d
       -0.07226771 0.01658693 0.10250212 0.11811082
000350 38 24 ba 3c c0 46 46 3c 0e 12 ea 3d 04 13 a2 bd
       0.022722349 0.012101829 0.11429225 -0.07913783
000360 e2 17 b7 bd 40 4a d5 3b a6 99 a5 bd 6a a5 b1 bd
       -0.08940102 0.0065090954 -0.08085947 -0.08674128
000370 70 94 cf 3d 38 b4 33 bd 0c 97 cf 3d 50 31 c8 bc
       0.10135734 -0.043873042 0.10136232 -0.024437577
000380 92 39 e6 bd 00 0e db bd 0c e4 35 bd 72 59 95 bd
       -0.112414494 -0.1069603 -0.044406936 -0.07292451
000390 48 7a bd bd 68 a3 82 bd 10 f0 6e bd 7c 6f 8b 3d
       -0.09251839 -0.063788235 -0.05833441 0.06808373
0003a0 ca fc b0 bd 0c 99 7b bd a4 90 74 3d 3e 3b b9 bd
       -0.08641966 -0.061425254 0.059708253 -0.09044503
0003b0 cc 38 e7 bd 2e 3d cf bd 28 c1 05 bd 98 9e c1 3d
       -0.1129013 -0.10119091 -0.03265491 0.094540775
0003c0 58 c1 cc 3c 7c d1 cf 3d fe f3 90 3d b0 3e cd bc
       0.024994537 0.10147378 0.07077788 -0.025054306
0003d0 fe 70 e4 3d 32 3d cb 3d c0 d1 68 3d a0 30 ae 3b
       0.11154364 0.099237815 0.05684066 0.005315855
0003e0 94 2a 77 3d 00 03 3c 3a b2 ec 84 bd 5c 9f 4d 3d
       0.06034334 0.0007172078 -0.064904585 0.050200805
0003f0 6c 7f 93 bd 98 4e c6 3c a0 0f d2 3b 6c 2e 83 3d
       -0.07202038 0.024207398 0.006410554 0.06405339

hist_lstm.weight_hh_l0 f4 [256, 64]
000000 30 ef 5a 3d ea 6b 7b bd 69 2e ac bd be 04 53 bd
       0.053450763 -0.06138221 -0.084072895 -0.051518194
000010 39 f0 a8 3d cb 91 71 3d 9a 5e 42 bc c0 71 01 3e
       0.08248944 0.05897693 -0.011863375 0.12641048
000020 8a c6 ed bd c2 40 24 3d c3 d7 ac 3d 1c 5e ce bd
       -0.11610134 0.04010082 0.08439591 -0.10076544
000030 bf 26 92 3d b2 4c 53 bd a5 94 20 bd 56 5e 67 bd
       0.071362965 -0.051586814 -0.03920426 -0.05648645
000040 71 7b b0 bd c8 d6 1c bd d4 66 92 3d 7f a4 f6 3d
       -0.086172946 -0.03829077 0.07148519 0.12043094
000050 7c 62 26 bc 80 5c c2 bd 7d 44 af bd f0 6d ef bd
       -0.010155316 -0.09490299 -0.08557985 -0.11690891
000060 cb da 7a bb 7b d9 06 3e 59 05 ed bd fd 3c 47 3d
       -0.0038277383 0.131689 -0.115732856 0.048642147
000070 5b 94 8a bd b3 95 b6 3d 5d 0d dc bb d0 7f 90 3c
       -0.06766578 0.089152716 -0.00671546 0.01763907
000080 7f 68 e0 3d 7b f2 47 bd 05 1f cc 3b 86 c9 93 3d
       0.10957431 -0.04881523 0.0062292838 0.07216172
000090 53 27 db 3c 24 29 9f 3c cc d1 0d bd 28 cf 9a bd
       0.02675215 0.019428797 -0.034623906 -0.07559043
0000a0 c3 f3 36 bd 66 1f f2 3d 6b 74 a2 3d 36 9d a3 bd
       -0.044666063 0.11822395 0.07932361 -0.0798897
0000b0 a1 d3 a2 3d 25 0c ea bd 7c cc 7c 3c f4 bb c5 3d
       0.07950521 -0.11428098 0.015429612 0.0965499
0000c0 e6 b5 e0 3d 14 0a 4b bd f4 d0 5b bc 5e 53 81 3d
       0.109721944 -0.049570158 -0.0134165175 0.06314729
0000d0 62 83 f4 bd 80 8e 59 bd 10 42 4e bd 68 db 25 bd
       -0.11939122 -0.053114414 -0.05035597 -0.040492445
0000e0 16 f7 ff bb 24 13 81 bd 11 96 d6 3c 4e e0 1e bc
       -0.0078114374 -0.06302479 0.026194604 -0.009697033
0000f0 b4 8a 85 bb a3 95 da bd 96 95 80 bc 1a 96 e6 bd
       -0.0040753726 -0.10673072 -0.015696328 -0.11259098
000100 29 9f f0 bd f6 c5 e7 3d ab 39 1c 3c fc e2 eb b9
       -0.117491074 0.11317055 0.0095352335 -0.0004499181
000110 ab 0a 93 bd d0 78 bd 3b e1 fb ca bd 8b e4 dd 3d
       -0.07179769 0.0057822242 -0.09911323 0.10834607
000120 4c 99 58 bc 78 a0 aa 3d ca 65 e8 3d e6 5d a4 bc
       -0.013220143 0.08331388 0.1134754 -0.020064306
000130 1e c9 01 bd 45 d8 db 3d 98 cd af bd e7 08 03 3d
       -0.03168594 0.107346095 -0.08584136 0.03199091
000140 cf be 58 bd 3f da 8d bd f2 f6 c5 bd 5f 72 6e bc
       -0.052916344 -0.06926393 -0.09666242 -0.014553635
000150 8d 99 fa 3c 43 08 e5 bd db cd 87 3c d4 3f ab 3d
       0.030590797 -0.111832164 0.016577652 0.083617836
000160 4a a5 33 bd e0 63 85 3d 9f f9 7e bc b7 16 bb bc
       -0.043858804 0.0651319 -0.015562444 -0.02283798
000170 2f 9c 00 3d a6 2a 69 3d a2 2a 15 bd fb 16 cc 3d
       0.03139895 0.05692544 -0.03641761 0.09965321
000180 57 4a 2a 3d 1a e4 cc 3c e5 ea c2 bd 67 ad da bd
       0.041574802 0.025011111 -0.09517459 -0.10677605
000190 83 35 e1 bd ea 53 0c 3d 71 97 b8 bc 26 6e e2 bd
       -0.10996535 0.034259714 -0.02253315 -0.110561654
0001a0 7e e2 4f bd 43 20 64 bb 14 6c 81 3d c9 d1 f9 bd
       -0.05075311 -0.0034809269 0.063194424 -0.121982165
0001b0 6e ef ec 3d 48 21 a0 3c e5 33 8b bd dd 0f 86 3d
       0.11569105 0.01954712 -0.067970075 0.065459944
0001c0 44 56 f8 3d ce 28 13 bd d8 6f ce bc b4 05 73 bc
       0.12125829 -0.035927586 -0.025199816 -0.014832903
0001d0 0f 7a 21 bb 59 56 3f 3d 2d 48 38 bd 52 60 d3 bd
       -0.0024639403 0.046713207 -0.044990707 -0.10321106
0001e0 10 e7 83 3b 35 5f cc bd 36 45 8d bc 14 20 a2 3d
       0.0040253475 -0.09979097 -0.017244916 0.07916275
0001f0 88 85 af bd ef 03 af bd 10 4e 8c 3d 2a 3a 86 bc
       -0.08570391 -0.08545672 0.06850827 -0.016385157
000200 ca 1b b5 bd 51 3e 49 bc e6 19 68 3d 74 fd 9f b9
       -0.08843191 -0.012282924 0.056665324 -0.0003051568
000210 3c a2 68 3d 1c da 02 3d fc 16 b8 3d 57 d2 c7 3d
       0.056795344 0.031946287 0.08988759 0.09756916
000220 72 91 55 3d 37 ec 79 3c 02 be 2c 3d 2c 7e 2c bd
       0.05214066 0.015254072 0.042173393 -0.042112514
000230 a8 72 8c 3d 51 be 0d bc 4c c2 b1 bc 6f 3d d4 bd
       0.068578064 -0.008651332 -0.021699093 -0.1036328
000240 74 3a ee 3d 75 a7 b7 bd 56 1b cc bd c8 73 69 bd
       0.11632243 -0.08967487 -0.099661514 -0.056995183
000250 3d 6b 68 ba 39 11 f7 3b 6f b3 95 3d 0d 78 ef 3d
       -0.00088660774 0.007539895 0.07309615 0.1169282
000260 e7 49 d5 3c db fc c1 bd 79 6e 92 3d 83 2a a1 3c
       0.026036216 -0.094720565 0.07149977 0.019673591
000270 33 4c d0 3d 71 50 02 3e 18 aa ae bc 47 e6 a5 bc
       0.10170784 0.12725998 -0.021321341 -0.020251406
000280 be c7 94 bd c7 ea 97 bd 4b b1 72 bd 94 26 c6 bb
       -0.0726466 -0.07417827 -0.05925111 -0.0060470793
000290 c0 d8 a6 3d f2 31 67 bc a0 b5 f8 bd 0a dc b4 bd
       0.081468105 -0.014111029 -0.12144017 -0.088310316
0002a0 5e 4c c5 bd e8 25 9d bc 73 02 9b 3d 32 33 a0 3d
       -0.096337065 -0.019183114 0.075688265 0.07822265
0002b0 3f 8e a0 3d 45 9c b9 bd eb de 2f bd 75 05 ed 3d
       0.07839631 -0.09063009 -0.0429372 0.115733065
0002c0 69 b6 68 3d 0a a7 18 3c d4 91 4a 3d e8 85 79 bd
       0.056814585 0.009317169 0.04945548 -0.06091872
0002d0 1d 8a a7 3d c9 72 1b 3d e5 3c bb 3d a0 8d 75 bd
       0.0818064 0.037951265 0.09142474 -0.059949517
0002e0 a5 8b 8b 3c 28 1f 20 bd db cb 51 bd 08 3f 75 bc
       0.017034361 -0.039092213 -0.051219802 -0.014968641
0002f0 32 30 f8 bd 6a f1 d3 bb e8 19 bc bb 23 99 d9 3d
       -0.121185675 -0.006467988 -0.005740393 0.10624912
000300 02 45 87 3d 81 d1 67 bd 22 23 19 bd 27 2a be 3c
       0.06604959 -0.056596283 -0.03738702 0.02321346
000310 1f 76 02 bd 20 2f a3 38 f2 63 be 3d bc 9c 9a 3d
       -0.03185093 7.7812234e-05 0.09296407 0.07549426
000320 4f 45 51 bd 45 2c 8b bd 3f b0 83 bd 24 1b a9 3d
       -0.05109149 -0.06795553 -0.06430101 0.0825713
000330 04 4a d7 3b 8f 5d a5 bd 9a 00 23 ba 12 c6 25 bd
       0.0065701026 -0.080744855 -0.0006218046 -0.040472098
000340 a0 7e 21 bd b4 f8 df bd ea 76 ef bd 9b 38 3d 3c
       -0.0394274 -0.10936108 -0.11692603 0.01154914
000350 a0 ff 84 bd 53 82 d4 3c b5 5c cd 3b eb e0 27 bd
       -0.06494069 0.02594105 0.006267155 -0.040985983
000360 95 e5 bb 3d 49 a2 a6 bd 4c dd e8 3d 00 7c 0b be
       0.09174649 -0.08136422 0.11370334 -0.13621521
000370 c2 8f 3e bd 82 66 c9 3d ea 69 cf 3c 83 19 93 bc
       -0.046523817 0.09834005 0.025319058 -0.0179565
000380 94 08 5d 3d e0 7f df 3d 17 88 0d 3d e9 b6 f1 3d
       0.05396326 0.10913062 0.034553614 0.118024655
000390 56 e5 10 3b 57 e4 7b 3c ec 8f a0 3d 72 ba 55 bd
       0.002210935 0.015374265 0.07839951 -0.05217976
0003a0 eb b4 ae 3d f9 a3 9b 3d 2c 45 1f 3c 36 78 ad 3d
       0.08530601 0.07599635 0.009721082 0.08470194
0003b0 45 07 fc 3b f9 42 83 3c b8 29 0b bd 5b b8 e0 3d
       0.0076912963 0.016023146 -0.033975333 0.10972663
0003c0 8e d0 ee bd c4 99 ea bc 9f 69 1d 3d 50 56 c1 3c
       -0.116608724 -0.028637774 0.038430806 0.023600727
0003d0 4f fd e8 bd 32 78 2c 3d 82 32 f4 3b 62 46 43 bd
       -0.1137644 0.042106815 0.00745231 -0.047674544
0003e0 bf 95 26 3d e2 af 87 bd 9d 19 8c bd f9 53 87 bc
       0.040670153 -0.06625344 -0.06840823 -0.016519533
0003f0 f7 71 c3 3d 87 eb 9f 3b bf d7 ab 3d 4f 91 9b 3b
       0.095432214 0.004880372 0.0839076 0.0047475467

hist_lstm.bias_ih_l0 f4 [256]
000000 ed 5b 82 bd 4c 0e 20 bb cd 17 ad bd 16 19 fa bb
       -0.0636519 -0.0024422584 -0.08451805 -0.007632385
000010 55 f5 2a bd db 43 8a 3d 71 3d e7 bd d9 91 09 be
       -0.041737873 0.06751224 -0.11291016 -0.13434543
000020 bb 6a 7d bd 2b 60 ca bd 4b 3b 2c bc a4 97 94 3d
       -0.061869364 -0.09881624 -0.010512183 0.07255486
000030 cd a1 de bd 1c fc 5b bc 70 6c 1b 3d 22 01 89 3d
       -0.10870705 -0.013426807 0.03794521 0.06689669
000040 3e 91 bd 3c 6f 3d 23 bd fc dc c9 3c 7e e9 47 3c
       0.023140546 -0.03985351 0.024641506 0.012201665
000050 66 71 e4 3d 90 94 85 bd 05 53 2e 3d 14 b4 64 b7
       0.111544415 -0.06522477 0.042559642 -1.3631787e-05
000060 a9 e2 d8 3c 4c 83 91 3d 61 8f bb 3b 56 be fd 3c
       0.026475267 0.07105121 0.005723879 0.030974548
000070 6a ac 4a bd ad f4 b9 bd 94 c5 99 3d 1d ea be 3d
       -0.049480833 -0.09079871 0.07508388 0.09321997
000080 ef cd 75 bd d2 4f 3c bd 63 ac 42 3b 7b 5a 18 bd
       -0.060010847 -0.04597456 0.0029704801 -0.037195664
000090 b3 2a 50 bd 54 21 39 bc cf 7d c2 bd 48 32 d9 3d
       -0.05082197 -0.01129945 -0.09496652 0.106052935
0000a0 b8 37 eb 3d 18 56 e0 3d c0 d3 99 3d b3 2a f1 bd
       0.11485237 0.10953921 0.07511091 -0.11775722
0000b0 4f d8 f4 bb 71 47 c9 3d 0e 29 a1 bd 97 bf f1 3c
       -0.007472075 0.098280795 -0.07869159 0.029510302
0000c0 9a c4 a7 bd 84 91 e1 bc 81 36 d0 bd b8 eb 14 bb
       -0.08191796 -0.027535208 -0.10166646 -0.0022723507
0000d0 7f be ff bd b0 26 08 3e ae bd 06 be 8e f1 08 be
       -0.12487506 0.13296008 -0.13158295 -0.13373396
0000e0 94 26 87 bd 57 fd 59 3d 2f 58 62 3d 21 49 a8 bd
       -0.06599155 0.05322012 0.05525988 -0.08217073
0000f0 7d 47 71 bd 3e d6 23 3d 6d fe 77 3d b3 34 4b 3c
       -0.058906067 0.03999924 0.060545374 0.012402701
000100 47 7c 04 3d db 0f 8e 3d fa 38 c6 bc 7f 10 83 bd
       0.032345083 0.06936618 -0.02419709 -0.06399631
000110 94 18 b3 bd 61 fb 20 3d d0 91 67 bd 4b 57 09 3d
       -0.08744922 0.039302234 -0.056535542 0.033530515
000120 fe 58 4e bc 86 f3 9c 3c e2 4a fd 3d 50 6e 2d bd
       -0.01259446 0.01915909 0.123677984 -0.04234153
000130 9e 0e e0 bd d3 03 96 bd 50 82 c4 bc 77 77 89 3d
       -0.10940288 -0.07324948 -0.02398792 0.06712239
000140 2d d0 44 3c af ca 11 bd 3b 50 88 3d f1 3b f0 bd
       0.012012524 -0.035593685 0.06655928 -0.11730183
000150 1e ff 62 bc fb 71 af 3d 91 28 c5 bd c2 a9 eb 3d
       -0.01385477 0.08566662 -0.09626878 0.11506988
000160 e1 a4 7a bd fc 9e c9 bd fc 46 f6 bd a2 f6 bf 3d
       -0.061192397 -0.09844777 -0.12025258 0.09373213
000170 2d e1 d9 3d 8d 15 45 bd 8e 01 fb 3d ec fb d4 bd
       0.10638652 -0.048116256 0.12256156 -0.10399613
000180 f2 55 ea 3d c2 14 4a bc 29 a0 fe 3d 6e e5 0a 3c
       0.11442174 -0.012334051 0.12432892 0.008477552
000190 42 f1 0e 3d 3d 2b 88 3d 16 e6 c5 3c 25 ef a8 3d
       0.03489805 0.06648872 0.024157565 0.08248738
0001a0 74 9a 8e 3d 47 b5 81 3c 6d fb f6 3d a2 23 9b 3d
       0.06963053 0.01583351 0.120596744 0.07575156
0001b0 5a fd d2 3d 13 47 47 bd 74 6e 08 be f3 89 8c bd
       0.10302229 -0.048651766 -0.13323385 -0.06862249
0001c0 0d b3 b9 3c 0c d8 0f 3d 93 8d 65 3d 40 d0 04 3d
       0.022668386 0.035118148 0.05604322 0.032425165
0001d0 70 f1 f6 bd b2 4e b5 bc 98 3b 84 bb 7c 4a c5 bd
       -0.12057769 -0.022132251 -0.0040354244 -0.096333474
0001e0 67 33 19 bd 05 c2 8e 3c d1 a7 fb 3d 03 c4 3e 3d
       -0.037402537 0.0174265 0.12287868 0.04657365
0001f0 11 d4 e7 bc 92 19 c0 3d 56 43 7d bd 87 23 6c bb
       -0.028299363 0.09379877 -0.061831795 -0.0036031918
000200 38 63 b5 bd d9 25 ef 3c b8 76 78 3d 1a 39 12 bd
       -0.08856815 0.029192852 0.060660094 -0.035698988
000210 d6 ff 47 3d 5f c5 65 3d 17 8e 5a bd 60 aa d1 bd
       0.04882797 0.05609643 -0.053358164 -0.102375746
000220 66 c9 ce 3d 3a c4 41 3d 1d ef f0 bd dd 4d 8a bd
       0.100970075 0.047306277 -0.11764357 -0.067531325
000230 41 2a 58 bd c2 79 54 3d e3 e9 d9 bd ff d0 fb 3d
       -0.05277467 0.05187393 -0.106403135 0.12295722
000240 bb 0a 02 be 11 cd c7 bd 16 53 cd 3d 11 47 61 3b
       -0.12699406 -0.0975591 0.10025613 0.0034374634
000250 57 43 f3 bd c6 15 80 3c b4 91 4b 3d fe d6 14 bd
       -0.118780784 0.015635382 0.0496995 -0.036337845
000260 29 8f 33 3b 3d 36 0d bd 28 4e e6 bd 1f 77 88 3d
       0.0027398563 -0.034475554 -0.11245376 0.066633455
000270 af 75 de bd a6 75 5d bd 91 91 ba 3c c8 8d e0 bd
       -0.1086229 -0.054067276 0.02277449 -0.109645426
000280 02 98 02 be e5 4c e6 bd fb 0e ad bd 7b 0b 84 bd
       -0.12753299 -0.11245135 -0.08450123 -0.06447502
000290 92 c3 bb b9 12 94 a6 bd d5 cd 68 bd ff 6b 7d bd
       -0.0003581313 -0.08133711 -0.05683692 -0.06187057
0002a0 7a ef f6 bc 4b a4 be 3d b8 01 43 bd cf c2 2d bd
       -0.030143488 0.0930868 -0.04760906 -0.042422112
0002b0 fc 81 a4 3b 99 b0 0a be 7c 36 45 3d fb 5b 63 3d
       0.005020378 -0.13543929 0.048147663 0.05550764
0002c0 97 b9 7e 3d 6b e4 eb 3c f6 37 ab 3d d9 bf 8b 3d
       0.06218871 0.028795442 0.08360283 0.068237014
0002d0 2b 19 d0 3d c8 2c 08 3e 3e 4f a4 bd 8e 3b 0e bd
       0.101610504 0.13298333 -0.08022927 -0.034724765
0002e0 90 c0 39 bc 0d 18 05 be f4 2c 93 bd 4c 54 26 3d
       -0.011337414 -0.12997456 -0.071863085 0.040607736
0002f0 be 71 da 3c 87 c8 ed bd a5 77 3f 3d 93 81 d5 3d
       0.026665565 -0.11610513 0.04674496 0.10425105
000300 6b 4c 9c 3d ac aa 06 3e b8 6a f8 bd 83 b1 ed bd
       0.07631763 0.13151044 -0.1212973 -0.11606123
000310 ec 76 e1 3d 92 4d b7 3d bc 0f 8a bd 29 a4 5f bd
       0.11009011 0.08950342 -0.06741282 -0.054599915
000320 7d 9f e0 3c 41 30 1b bd 3e 62 ab 3d 46 7e 07 be
       0.0274198 -0.037887815 0.083683476 -0.13231763
000330 df 7f a4 3d f7 e6 4f bd 59 b3 ca 3d f5 a2 97 bb
       0.08032202 -0.050757375 0.09897489 -0.0046275803
000340 54 a3 0c 3d ee 77 e9 bd 8f c9 00 3d 60 b1 e7 bd
       0.03433545 -0.11399828 0.03144222 -0.113131285
000350 3a 8a bf bd 6e d0 9e 3d 84 74 66 bd fd 78 09 be
       -0.093525365 0.077545986 -0.05626346 -0.1342506
000360 e3 a1 b0 3d a0 cf 27 bb da 0c 9e 3d 71 8b 79 bd
       0.086246274 -0.0025605932 0.07717295 -0.060923997
000370 8c ea 8f bd d2 49 89 3c 63 80 0b 3d 7a 8f 0f 3d
       -0.07027158 0.016758833 0.034057986 0.03504894
000380 c4 6e 43 bd 62 ea cb bc 31 32 ad 3d 1f 59 5d 3a
       -0.047713056 -0.024892036 0.08456839 0.0008443761
000390 0b 86 06 3e ef 30 d1 3d d7 e7 95 bd 15 c0 6a 3d
       0.13137071 0.102144115 -0.073196106 0.05731209
0003a0 5a 2a f2 3d 09 28 08 bc 39 cf c3 3c 86 42 1a 3d
       0.11824484 -0.008310326 0.023902522 0.037661098
0003b0 6e 0b 87 bd eb f0 a3 bb af c9 a8 bc 72 24 32 3c
       -0.06593977 -0.005003085 -0.020603983 0.010872947
0003c0 80 01 ac bd 13 0b f8 bd da ef ba 3c 2f 6e 32 bd
       -0.083987236 -0.12111487 0.022819448 -0.04356211
0003d0 7c f4 fc bc fc 04 08 bd 20 65 26 bb 72 3c e2 3c
       -0.030878298 -0.03320788 -0.0025389865 0.027616713
0003e0 0a 4e 2a bd 30 42 2a 3d 68 21 9f bd a2 92 d5 bd
       -0.04157833 0.041567028 -0.077700436 -0.104283586
0003f0 2f 11 f8 bd 6d 2b 52 3d 96 d4 8b bd 5e 1d cf bc
       -0.121126525 0.051310945 -0.06827657 -0.025282558

hist_lstm.bias_hh_l0 f4 [256]
000000 81 6d 6d bd 81 0c e6 bd d1 e1 8e bd 7d b9 1e bd
       -0.05796576 -0.11232854 -0.06976665 -0.038751114
000010 60 7c 00 3d a4 79 0a 3c 00 04 95 3c 4a 8a 8f bd
       0.031368613 0.008451853 0.018190384 -0.070087984
000020 65 94 cd 3c a8 72 7c bd 54 0b 25 3d dd 26 07 bb
       0.025095174 -0.061632782 0.040294006 -0.002062253
000030 02 f7 e9 3c b1 0c 85 bd 1a a6 91 3d d4 51 0c 3d
       0.028560165 -0.06496561 0.071117595 0.034257725
000040 ed 17 8e 3d 01 b7 a7 3c 0a ab d6 3d 7c 63 bd bd
       0.06938157 0.020473005 0.10481842 -0.09247491
000050 e1 20 a4 bc 10 c9 25 3d 21 36 37 bb f6 ce 73 3d
       -0.02003521 0.04047495 -0.0027955847 0.059523545
000060 c1 10 58 3c bf 04 67 3d 74 84 02 be 54 45 f3 bc
       0.013187588 0.05640101 -0.1274584 -0.029696144
000070 79 a4 21 bd 4a 40 09 3e ae f2 56 3d 93 f5 c6 bc
       -0.039463494 0.1340343 0.05247753 -0.02428702
000080 5a 91 a4 3d b0 5b ed bd b1 a6 a7 bd 7d 23 47 3c
       0.08035536 -0.11589754 -0.08186091 0.012154457
000090 85 54 3d bc 36 8c 5f bd 87 53 b1 3d d0 f7 de bd
       -0.011555796 -0.054577075 0.0865851 -0.1088711
0000a0 33 bd 67 3d f9 4f 54 3d f5 f2 89 3d 0d 78 ce 3d
       0.05657692 0.05183408 0.067357935 0.100814916
0000b0 64 2f b5 bd c2 f8 17 3c 1e 25 c3 3d 60 40 ae 3d
       -0.0884693 0.009275617 0.09528564 0.08508372
0000c0 70 4f cd 3d b4 91 bd 3d 16 8d 68 bd b9 6f 14 bd
       0.10024917 0.09256306 -0.056775175 -0.03623936
0000d0 4c 9c 69 3d 23 f4 c3 3d 5f 42 a7 bd 60 d2 eb bc
       0.057033822 0.0956805 -0.08166956 -0.028786838
0000e0 0e 21 9e 3d 3b 02 29 bd 33 f0 d2 bd ee 47 24 bd
       0.077211484 -0.041261893 -0.102997206 -0.04010766
0000f0 b7 07 c1 3d 2a ae 40 bd 16 7c d2 bc c0 47 aa bd
       0.094252996 -0.047041096 -0.025693934 -0.083144665
000100 3e c7 8a 3d 53 68 d1 3d 94 a9 04 3c 15 05 87 3d
       0.06776284 0.102249764 0.008097071 0.06592766
000110 8e ba 3d bc c0 33 d5 bd 9c ae 54 bd df 95 2d 3d
       -0.011580123 -0.10410261 -0.051924333 0.042379256
000120 8b 43 17 bd 1d a6 0a bd d4 e0 fb 3d 51 7f d6 bd
       -0.03692965 -0.033849824 0.12298742 -0.104735024
000130 b0 9e fc 3d 60 9c 3c 3d fb 2f b7 3d f4 6f 53 bd
       0.12334955 0.04604757 0.089446984 -0.05162044
000140 0a 25 b2 3d 28 a1 ad bd 21 cc 6d bd cf dc b4 bd
       0.08698471 -0.08478004 -0.058056 -0.088311784
000150 24 0b b1 3d cd 21 bf bd 32 a0 0d be 2b 79 f1 bc
       0.08644703 -0.09332619 -0.13830641 -0.029476723
000160 11 c8 46 bd 68 dd 95 3d 26 f7 a6 bd 16 b8 38 3d
       -0.048530642 0.073176205 -0.081526086 0.045097433
000170 11 75 b8 3d f3 00 8e 3c 44 99 be 3d c6 f4 a3 3d
       0.09006704 0.017334437 0.09306577 0.08005671
000180 8e 04 bd 3d ad 92 37 bd 0e e2 8b 3d 60 59 25 bc
       0.09229384 -0.044817615 0.06830226 -0.010092109
000190 2d eb 03 3e dd 2b 04 3e 41 fe 6b bd 6b 33 e5 3d
       0.12882681 0.12907358 -0.057615522 0.11191448
0001a0 8d e7 51 3d ce d1 57 3c 1b 43 f2 3d 64 8f ff 3d
       0.051246215 0.01317258 0.118292056 0.124785215
0001b0 14 c6 98 3d f5 38 03 3e bc e2 96 bd 57 d6 1c 3d
       0.074596554 0.12814696 -0.07367465 0.038290348
0001c0 f3 22 c2 3d 48 f6 48 bd fb dc f9 bd d9 c0 6e 3d
       0.09479322 -0.049062997 -0.12200352 0.058289383
0001d0 d2 6a a6 bd b4 c7 b5 bd 40 e8 9b 3d 6a 15 e3 3d
       -0.08125843 -0.08875981 0.076126575 0.11088069
0001e0 8d aa 57 bd c7 69 68 3c ce 0f 0e 3d 77 4d c3 bd
       -0.052652884 0.0141853755 0.03468304 -0.095362596
0001f0 db ee 47 3d 52 63 d0 3c be c2 dd 3d 3c e2 bf 3b
       0.048811775 0.025437985 0.1082816 0.0058558267
000200 d4 6e 8c bd 04 02 9d 3d 34 12 e8 bd ba b3 01 3c
       -0.06857076 0.076664 -0.11331597 0.007916385
000210 20 57 d8 3d 51 47 d9 bc ca e2 a9 3d 06 e1 dd bd
       0.10563493 -0.026523264 0.0829521 -0.108339354
000220 17 4f 87 3c 35 5a fd bc 72 e3 d3 bc 80 99 17 bd
       0.016517205 -0.030926803 -0.02586529 -0.037011623
000230 18 53 5a bc a8 4c ea 3d 29 c5 7a bd f3 12 d2 bd
       -0.013325475 0.11440402 -0.061223183 -0.102575205
000240 0c 44 e7 3d f7 5a f9 3d f4 f9 a8 3d ea e6 9c 3c
       0.11292276 0.12175553 0.082508 0.019153077
000250 6b 6a cc 3d 77 fd d3 bd 28 e5 b6 bc 50 33 b5 bd
       0.09981235 -0.10351079 -0.022326067 -0.08847678
000260 87 59 d5 bd f1 4b 81 3d ae 03 a6 bd 1a f1 0a bc
       -0.104174666 0.06313313 -0.081061706 -0.008480335
000270 09 55 dd bd f2 23 89 bd 99 6f 83 3d 85 d5 cf bc
       -0.10807235 -0.06696309 0.0641777 -0.025370369
000280 41 c8 1f 3d 99 5a 73 bd 1f 71 ec bd 47 af b5 3d
       0.039009336 -0.059412573 -0.11545014 0.08871322
000290 19 01 d6 3c 0d 1d ea 3c 31 8d 97 bc ef 80 e1 bd
       0.02612357 0.028578306 -0.018499942 -0.1101092
0002a0 92 72 d1 bc 35 77 c1 3d 0a a8 90 3c b6 13 b6 bd
       -0.025567327 0.09446565 0.017658252 -0.08890478
0002b0 dc c7 c5 3d f6 c3 f1 bd fa 77 89 3d ea 08 b4 bd
       0.09657261 -0.11804955 0.06712337 -0.08790763
0002c0 f9 af 74 bc 93 ef a8 3c 71 98 99 bc 8d 79 9b bd
       -0.014934533 0.02062205 -0.018749448 -0.07591543
0002d0 27 0c ea 3d ec 56 05 3e 3c 2b e1 3d 08 e5 ce 3d
       0.11428099 0.1302144 0.109945744 0.10102278
0002e0 d3 c0 7f 3d 16 1b 03 3d fa 37 d1 3d ca d0 b1 bd
       0.06243975 0.032008253 0.10215755 -0.086824015
0002f0 36 1a d6 3c 37 65 d4 3d d7 86 0f bd 5d 8f 05 3c
       0.026135545 0.10370868 -0.035040703 0.008151856
000300 cd 1f ac bd b1 c7 f2 3d 41 0d d8 3c cd 1a 98 3d
       -0.08404503 0.11854494 0.026373507 0.07426987
000310 1e 7c e7 3d 10 fd 04 bc 92 6e 93 bd e1 d5 9c bd
       0.1130297 -0.008116975 -0.07198824 -0.07657982
000320 fa 15 9c 3d 3c 4c 6d 3b 36 1a 3f 3c 7a c5 e4 bd
       0.07621379 0.003620877 0.011663964 -0.11170478
000330 1a 23 82 3d 9e 74 a8 bd d9 c2 0a be fa 3a f6 3d
       0.06354351 -0.08225368 -0.13550891 0.12022968
000340 0d 39 62 3d 55 37 96 bb e8 a1 93 bd 46 48 a9 3d
       0.05523019 -0.004584233 -0.072086155 0.08265738
000350 15 d1 4d ba 6e 63 b0 3d 9a 06 e4 bb c4 cb 74 bd
       -0.0007851285 0.08612715 -0.006958795 -0.05976464
000360 4e ac 9b bc 34 1e e1 bc 63 cc 49 3d 48 8c 81 bd
       -0.01900306 -0.027480222 0.049267184 -0.06325585
000370 62 a9 8b 3c 58 d1 17 3d 2a 07 8e bd 04 00 b9 ba
       0.017048541 0.03706488 -0.0693496 -0.0014114385
000380 7c f8 ae bd 0e b5 fe 3d 05 17 c0 3d 9c 66 9a 3d
       -0.085434884 0.12436877 0.093793906 0.075391024
000390 0d a6 85 bd 94 6b 62 bd c7 68 d9 bd 84 4a 9a bd
       -0.06525812 -0.055278376 -0.10615688 -0.07533744
0003a0 52 91 20 3d 9d ee b9 bd fb 08 a2 bd c1 b4 fa bb
       0.03920109 -0.09078715 -0.07911869 -0.007650942
0003b0 2f 2d 65 bd d7 2a 8c 3d 4d cf 72 3d d3 6b f3 bd
       -0.055951294 0.068441086 0.05927973 -0.118858
0003c0 d2 a8 d4 3c 7e bc b7 3c 97 76 26 3d 69 14 19 bc
       0.025959406 0.022428747 0.04064044 -0.009343245
0003d0 d3 49 80 bd 39 78 f0 3d 4f 55 97 bb ae a8 ab 3d
       -0.06264081 0.11741681 -0.004618324 0.083817825
0003e0 66 eb 59 3c 55 56 a5 3d 06 18 49 3d 06 22 03 3e
       0.013300752 0.08073107 0.049095176 0.12805948
0003f0 87 3b b8 3d 8b fc cc 3d f4 cb 0d bb 8e ed 40 bc
       0.08995729 0.10009106 -0.0021636458 -0.011775387

fc.0.weight f4 [64, 67]
000000 0a e9 69 bb 51 26 79 3d 2f c2 b6 3d 21 0d 86 bc
       -0.003569188 0.060827557 0.08923756 -0.016363682
000010 f4 2d af bd 6d 04 2c 3d d0 0b 8f bc 6e 3d 4a 3c
       -0.08553687 0.04199641 -0.017461687 0.012343748
000020 06 2c 4c 3c af 82 64 3d b4 57 da bc a6 ea 62 bd
       0.012461668 0.055788692 -0.026653148 -0.05539956
000030 93 2d e8 3d 0a 24 41 bd 95 c1 52 bd 32 43 a2 3c
       0.113368176 -0.04715351 -0.051454145 0.019807432
000040 42 29 a4 bd fa 4b 0d 3d c3 cd e9 bc 6b 7b d0 bc
       -0.08015682 0.034496285 -0.028540498 -0.025449475
000050 cc b4 f1 bd 8f e7 57 bd 16 09 0a 3d 73 ec b8 3d
       -0.118020624 -0.052711066 0.03370007 0.09029474
000060 43 20 81 3c b8 2b 0d bd 81 75 29 3d 71 0b c9 bd
       0.015762454 -0.03446552 0.041371826 -0.098166354
000070 cf 27 9c bc e8 4c b5 bd 34 30 95 3a 93 3d 8f bc
       -0.019061951 -0.08852559 0.0011382164 -0.017485416
000080 bb e2 a7 3d c6 ff 06 be 0a eb ee 3c 8c 5d 2f 3d
       0.08197542 -0.13183507 0.02916481 0.042813823
000090 b9 0a a2 3d 88 f5 d2 3b a0 6d 95 bd c1 b8 f9 bb
       0.079122014 0.006437961 -0.072963 -0.0076209013
0000a0 a1 98 f7 bc 57 eb 4a bd e9 27 66 bd 1e 48 c2 bd
       -0.030224146 -0.049540844 -0.056190405 -0.094864115
0000b0 4b 05 46 bd e9 61 45 3d cb ea 44 3d 00 46 99 bb
       -0.04834489 0.048189078 0.04807548 -0.004677534
0000c0 bd c7 92 bd d9 e7 f1 3c dc 59 4c bd 86 f0 d6 3d
       -0.07167003 0.029529499 -0.049890384 0.10495095
0000d0 e1 9c a6 bd c0 da 05 3d b5 1a fa bd ca ff cd 3d
       -0.08135391 0.03267932 -0.12212125 0.100585535
0000e0 b4 7d f3 bd 34 c2 ae 3d 41 82 38 bd da 54 87 3d
       -0.1188921 0.08533135 -0.045046095 0.06607981
0000f0 29 cc 41 bc 86 c5 a4 3b a7 d3 cc 3d 98 b4 dc bc
       -0.011828461 0.0050284294 0.10001307 -0.026941583
000100 5a a4 08 be ed ee f3 3c c0 d4 c3 bd 05 cc 8f 3d
       -0.13343945 0.029777015 -0.09562063 0.070213355
000110 09 ef bb 3d 2c 94 e5 bc 8a 40 eb 3d ee 9b 03 be
       0.09176452 -0.028024755 0.11486919 -0.12852451
000120 60 c5 61 bb 7b 6c a0 3d 5c 9f 94 bd 9c 34 f9 bd
       -0.003444992 0.07833191 -0.07256958 -0.121682376
000130 53 39 2b bd cc 45 b9 3d e7 d2 69 bd 18 58 8d bd
       -0.041802716 0.09046516 -0.057085898 -0.06901568
000140 46 9e 3a 3c b3 0a 58 bd 53 4d 9f 3d 7c 37 9d bd
       0.011390274 -0.05274458 0.0777842 -0.076765984
000150 1c 52 39 bd 33 04 c8 bd 1c b3 77 3d 77 0c 66 3c
       -0.04524432 -0.09766426 0.060473546 0.014041058
000160 b5 ec cb 3d a6 6d 2b bd 34 d5 8c 3d 87 cf 95 bd
       0.09957258 -0.041852616 0.06876603 -0.07314973
000170 ac 04 d8 3c 10 3a a4 bd 29 a3 f6 3d 8c cb 17 3c
       0.026369415 -0.08018887 0.12042839 0.009264838
000180 ef 78 52 bd 67 2f 0f bd 8f 03 99 3d f5 0f 0f 3d
       -0.051384863 -0.034957316 0.07471382 0.034927327
000190 10 7c b7 3c 97 93 e1 3d 25 e6 ad 3d 11 11 8b bd
       0.022398025 0.11014479 0.08491162 -0.067903645
0001a0 d9 74 41 3c 01 d3 f1 3b 2e 44 9f 3d b9 8e a7 3d
       0.011807644 0.00737989 0.07776676 0.08181519
0001b0 aa 80 03 3e c2 38 80 3d b6 7e 9b bd cc 9c ad 3d
       0.1284205 0.06260826 -0.075925276 0.08477172
0001c0 62 c0 6f 3c e6 7d 0c bb d2 d4 dc bd fb 60 ad bb
       0.01463327 -0.0021437346 -0.1078278 -0.005291102
0001d0 ff 47 6c bd 03 ce b8 3d 10 3d cf bd f5 ad ea bd
       -0.05768585 0.090236686 -0.101190686 -0.11458961
0001e0 e2 5a f6 3c 24 e8 25 bd b4 1c 21 3d 85 ad a9 3b
       0.030072633 -0.04050459 0.039334014 0.005178156
0001f0 7a ec d1 3d ad d0 b8 bd 3a 40 cf bd 7c 03 91 bd
       0.102501824 -0.09024177 -0.10119672 -0.07080743
000200 f8 d6 21 bd 98 40 2c 3d 6c 6a 88 3d c5 a1 95 3d
       -0.03951165 0.04205379 0.06660923 0.07306246
000210 a8 8c bc bd 55 e7 0f 3d 7b ed 77 bd 22 9f b1 3d
       -0.092065156 0.035132725 -0.060529213 0.0867293
000220 3b ba d7 3d c4 2b dd bc e4 50 2e bd b8 c5 fc bc
       0.105335675 -0.026998408 -0.042557612 -0.030855998
000230 73 c1 a2 bd 78 7e 01 bd 50 1c c9 bd 8e a5 f7 bc
       -0.07947054 -0.03161475 -0.09819853 -0.03023031
000240 8a 3d d6 bd 66 02 f2 bd 8a f9 8e bd 99 89 ad 3d
       -0.104609564 -0.11816864 -0.069811895 0.0847351
000250 0e 15 06 3e fb 69 c5 3d e0 9a aa bd a7 7c 87 bd
       0.13093969 0.09639355 -0.08330321 -0.066155724
000260 e2 ef e2 bd 37 33 e6 3b bb 1f 9c bd c2 0f ab bd
       -0.1108091 0.0070251483 -0.076232396 -0.08352615
000270 ae 60 66 bd 2d a0 b6 bd 1e a8 7e bd c1 8c c2 bd
       -0.056244545 -0.0891727 -0.062172048 -0.09499503
000280 16 cb d1 bd a2 cc ae bd dd 88 b9 3d 3b ca 25 3d
       -0.10243814 -0.08535124 0.09059308 0.040476065
000290 47 64 ab 3d 94 fc a3 bd 53 4a b9 3c 8e eb de bc
       0.08368736 -0.0800716 0.022618448 -0.02721193
0002a0 1f 59 6f bd f7 1e 97 3d 08 49 84 bd 86 bc 19 3d
       -0.058434602 0.07378953 -0.06459242 0.037533306
0002b0 3b 01 e1 3c 77 e4 67 bd 50 a9 3a 3d 6d a5 e8 3d
       0.027466407 -0.056614365 0.045571625 0.113596775
0002c0 e6 45 af 3c f0 d3 02 3d 52 10 b8 bd 25 0a 77 3d
       0.021395635 0.0319404 -0.08987488 0.06031241
0002d0 7b 18 43 3d 79 e1 d8 bd 2e 14 0d 3e c5 80 9e 3d
       0.04763077 -0.105898805 0.13777229 0.077394046
0002e0 8c 72 8f bd 1a 27 dc 3d 73 32 39 3d 8e c8 8b bc
       -0.0700427 0.107496455 0.045214128 -0.017063405
0002f0 b8 4c ef bd 34 5b 6b bd 54 64 d1 3d 9e 16 93 3c
       -0.11684555 -0.057460025 0.10224214 0.01795512
000300 8b b6 2d bd e4 ba d5 bd 86 2c bd 3c 97 cc c0 3d
       -0.042410415 -0.10436037 0.02309252 0.094140224
000310 4d 59 98 bd 4f ce aa bd 7c 10 de 3d e9 01 d9 3d
       -0.07438908 -0.083401315 0.10842988 0.105960675
000320 1f 5a 91 bd 94 9b dd bc 89 4d 94 bd 21 14 60 3d
       -0.07097267 -0.027051724 -0.07241351 0.054706696
000330 1f c6 b9 ba 55 71 f5 3b 6e 7c 3d 3d d6 99 a4 bd
       -0.0014173425 0.007490317 0.046261244 -0.080371544
000340 ee 79 c0 bd 85 43 a6 bd fa 54 97 bd 25 05 cd bd
       -0.09398256 -0.08118347 -0.07389255 -0.10010747
000350 e9 db 9e bd 6c b5 97 3b 60 09 d3 bc 4f 89 ce 3d
       -0.07756788 0.0046297815 -0.025761306 0.10084783
000360 6c 0b ce 3c 22 e3 59 3d 42 f0 02 3d dd 62 8b bd
       0.02515193 0.053195126 0.03196741 -0.06805966
000370 6f 87 bc 3c ac f1 06 3d 4a 5f e7 bd 7e 39 41 3d
       0.023013799 0.03294532 -0.11297472 0.04717397
000380 f4 11 6e 3d 0b f4 2f bd ca 52 ac 3d f1 17 d3 bc
       0.05812259 -0.042957347 0.08414228 -0.025768252
000390 e8 80 86 bd cb 8b b4 3d ca 48 84 3d 35 1c f8 3d
       -0.06567556 0.08815726 0.06459196 0.12114755
0003a0 8a 37 8f ba 3b 77 3e bc b5 e4 2c bd 8f 2d 70 bd
       -0.0010926586 -0.011625106 -0.0422103 -0.058637198
0003b0 40 87 d5 3d 41 b7 ba bd 5b 96 6c 3d 3f f5 e0 3d
       0.104261875 -0.09116984 0.057760578 0.10984277
0003c0 9b c5 9a 3d 74 5e 38 ba 88 d8 a9 3d a0 c6 78 bd
       0.075572215 -0.00070331176 0.08293253 -0.0607363
0003d0 58 b2 cd 3d 95 a5 85 3c 63 ba a9 3c b8 e9 46 bd
       0.10043782 0.016314307 0.020718759 -0.048562735
0003e0 3e e0 93 bd df fc 50 3d a6 1c 4c 3d 1d 63 ed bc
       -0.07220505 0.051022407 0.04983201 -0.028977925
0003f0 a1 05 37 bd bd 79 c0 3d ca d9 c7 bd c2 90 a9 bd
       -0.044683103 0.0939822 -0.09758337 -0.082795635

fc.0.bias f4 [64]
000000 6e 17 9d bd 1f 07 81 bd 3e b2 60 3d dc bd 4b 3d
       -0.076704845 -0.06300186 0.054857485 0.04974161
000010 95 7b 34 bd 2c b9 a6 3d 49 3a e2 bd ad 7b df bd
       -0.04406317 0.081407875 -0.11046273 -0.10912261
000020 42 5c d2 3d f5 13 d4 3d bd 6e 90 3c d2 2a 83 bd
       0.10271503 0.10355369 0.01763093 -0.06404652
000030 dd 2d 2a 3d 57 33 6c bd fb 8d 8f bd e1 d7 b7 3d
       0.041547645 -0.05766615 -0.070095025 0.089767225
000040 3f 8a 33 bc ea c5 97 3d 76 50 48 3d b0 62 9f 3d
       -0.010958253 0.07410796 0.04890486 0.07782495
000050 1c ab 45 bc 72 32 b7 3d c1 6e 09 3b b2 0d fa bd
       -0.012064721 0.089451686 0.0020970555 -0.122096434
000060 3e bf 71 bb 02 af ee 3d 7b 97 eb 3d 07 75 3a bd
       -0.003688767 0.11654474 0.11503502 -0.045521762
000070 e5 fb bd bd fc d7 3f 3d fb 12 85 3c 38 49 a4 bc
       -0.09276561 0.046836838 0.016244402 -0.020054445
000080 8f b2 a1 3c 49 af 5f bd 92 4a 21 3d c4 98 98 3d
       0.019738464 -0.054610524 0.039377756 0.07451013
000090 d4 6e cf 3d aa ad 74 3d 62 ac ec bb b5 79 31 3d
       0.10128561 0.05973593 -0.007222698 0.04332896
0000a0 cb 96 84 3c 2e 20 d9 3d 22 02 8f 3b 0d fb 39 3d
       0.016185185 0.10601841 0.004364268 0.045405436
0000b0 6f 49 8b 3d e6 03 80 bc 71 c1 1f ba f2 1b 49 3d
       0.06801116 -0.015626859 -0.00060941937 0.049098916
0000c0 df b3 fa 3d 1e da 81 bd 2c 58 bb bd 1f cd 08 3e
       0.12241339 -0.06340431 -0.09147677 0.13359497
0000d0 ad 86 46 bd 7b 6f cb bd 28 f6 e1 3c 26 40 3e bd
       -0.04846828 -0.099333726 0.027583197 -0.046447895
0000e0 38 58 90 bd aa aa 9a 3c 0a 7c ef bd 06 a4 17 bd
       -0.070480764 0.018880207 -0.116935804 -0.03702166
0000f0 77 e1 94 3d f7 41 8b 3d 3a b1 f5 3c d2 f9 c2 bd
       0.072695665 0.06799691 0.029991735 -0.09520306

fc.2.weight f4 [6, 64]
000000 36 c7 87 bd 7b b0 6f 3d 47 75 93 bc c0 7b fc 3c
       -0.06629793 0.058517914 -0.018000258 0.030820727
000010 10 a9 26 3d 53 52 31 bd b0 eb d4 bd 40 dd c5 bb
       0.040688574 -0.0432914 -0.10396516 -0.006038338
000020 38 74 36 3d 92 e9 8a bd 53 0c 14 bd 3c 64 c3 bd
       0.04454443 -0.06782831 -0.036144566 -0.095406026
000030 7a 2c 8e 3d 5b 90 3a 3d ec 04 e2 3d d0 21 ef 3d
       0.06942077 0.045547824 0.11036095 0.11676371
000040 ab 04 05 3e 62 e2 47 3d 04 13 d4 3c 0f 17 99 bd
       0.12990062 0.04879988 0.025887974 -0.07475101
000050 16 15 f0 3d 03 9b ab 3d 04 06 09 3e 87 a2 d1 bd
       0.11722772 0.083791755 0.13381201 -0.10236078
000060 b0 e2 8f 3a 45 9b a3 3d 83 1f 9d 3d bd 64 6c 3b
       0.0010977592 0.079886 0.07672026 0.0036070787
000070 cf 3a a4 bd 7d ed 01 3e b0 79 22 bd 6a db a4 3c
       -0.08019029 0.12688251 -0.03966683 0.020124156
000080 e0 cd 17 3d 5a df a4 3d bd 2c df 3d 34 b1 e3 3d
       0.037061572 0.080504134 0.10897205 0.11117783
000090 f4 63 23 bd 20 93 30 bd df 4c 5f 3d d9 77 2c bd
       -0.039890245 -0.04310906 0.05451667 -0.042106483
0000a0 38 42 f3 3d db 64 35 3d b8 35 90 3d 52 9c d6 bd
       0.118778646 0.044285636 0.07041496 -0.104790345
0000b0 70 3b 6d bc 4f 8d c8 bd 88 78 be 3d 45 c4 31 3d
       -0.014479503 -0.097925775 0.09300333 0.043400068
0000c0 25 b9 f1 3c fd 72 03 3d a1 9c f1 bc 13 55 8a 3d
       0.02950723 0.032092083 -0.029493632 0.06754508
0000d0 c3 3c b1 3d d6 84 cb 3d f6 8a d2 bc 0a 32 19 bd
       0.086541675 0.09937446 -0.025701027 -0.037401237
0000e0 2c 04 ca 3d a6 65 e6 bd 12 c2 be bd ec bd cb bd
       0.09864077 -0.11249857 -0.0931436 -0.09948334
0000f0 c4 79 8d 3c d0 d4 53 3d e4 10 e2 3d 0a 22 74 bd
       0.017269976 0.051716626 0.11038378 -0.059602775
000100 17 cb b6 bd 29 89 95 bd d0 54 47 bd 6a 86 f8 3d
       -0.08925455 -0.07301552 -0.048664868 0.121350124
000110 93 f4 ca 3d ce 30 2b 3d 97 30 a6 3c 7a f9 96 3d
       0.0990993 0.04179459 0.020286841 0.07371803
000120 63 48 24 3d e8 ed 95 bd cb ea 1b bd e8 51 44 3d
       0.040108096 -0.07320768 -0.038065713 0.047929674
000130 26 92 d4 bd d3 22 a3 bc 57 26 82 3b 62 57 87 ba
       -0.10379438 -0.019914066 0.0039718556 -0.0010325725
000140 c4 d2 6e 3b 70 89 99 bc b8 85 83 3d b4 73 fd 3c
       0.0036441544 -0.018742293 0.06421989 0.03093896
000150 7f 3f 3e bd 74 04 e4 3d f6 d0 ef 3d 41 af 67 3d
       -0.046447273 0.11133662 0.11709778 0.05656362
000160 b6 3c e6 bd 5e 52 76 bc e2 cd 84 3d 90 0b 9b bc
       -0.112420484 -0.015034286 0.064845815 -0.018926412
000170 43 ab 36 3c dc 63 cd bd e4 ce be 3d 6a fb 63 3d
       0.01114923 -0.10028812 0.09316805 0.05565969
000180 d9 a8 e8 3d 69 94 83 3d 27 b5 ff bc a4 ab fd 3d
       0.1136033 0.06424791 -0.03121431 0.123862535
000190 e4 c0 0a 3d 30 b8 8a 3c 75 e6 1f 3d 6e 11 89 bc
       0.03387536 0.01693353 0.03903814 -0.016731944
0001a0 40 22 38 bc d8 cd f3 bb a2 d7 68 3d 50 3b e0 bd
       -0.011238635 -0.00744031 0.05684627 -0.10948813
0001b0 98 95 d4 3c c6 99 94 bd 32 1e fa 3d 47 4e d1 bd
       0.025950238 -0.072558925 0.122127905 -0.10220008
0001c0 73 e7 21 bd b7 60 25 3c 61 74 cd 3d 92 a2 95 3d
       -0.039527368 0.010093859 0.10031963 0.073063985
0001d0 0b af 40 bc a8 54 4e bd 2b 52 e4 bd fd d0 73 bd
       -0.0117604835 -0.050373703 -0.11148485 -0.05952548
0001e0 68 45 0c bd eb 2e fc 3d 88 44 fd 3d 58 d7 a1 bd
       -0.03424588 0.123136364 0.12366587 -0.07902402
0001f0 2e da ac 3a 34 b2 e0 3c 68 2c be bd c6 0f e1 3d
       0.0013187581 0.027428724 -0.092858136 0.10989337
000200 35 6e 7e 3d 72 97 42 3d 1b e2 82 bd 8c 26 04 bd
       0.06211682 0.04750771 -0.063907824 -0.032263324
000210 d3 92 ab 3d d2 44 45 bd f1 a6 17 3d 7f 04 e9 3d
       0.08377614 -0.048161335 0.037024442 0.11377811
000220 dc b3 08 be 50 54 8d 3c 46 c7 c0 3c b0 48 95 3c
       -0.13349861 0.017252117 0.023532521 0.018223137
000230 fa 65 ed 3d 34 fa ab 3d 5c 7f e5 3d c7 ce 8f 3d
       0.11591716 0.08397332 0.112059325 0.070218615
000240 ed 8b da 3d c6 09 3c 3c c8 7d 01 3e 87 f2 13 3e
       0.1067122 0.01147694 0.12645638 0.14447986
000250 d7 cc 70 3d 7c d2 37 bb 36 1f 0c 3e 73 66 05 3d
       0.0587891 -0.0028049042 0.13683781 0.032568406
000260 5d 3a 40 3d 5f 8d ba 3c 4d 62 8c bd 4e 93 a9 3d
       0.04693066 0.02277249 -0.06854687 0.08280049
000270 f5 5a 2b 3d 73 3d f9 bd da 1a ad 3d ec 2b 18 3d
       0.04183479 -0.12169924 0.08452387 0.037151262
000280 eb 9a 98 bd 45 27 bc 3c 15 95 00 bd 3f b7 79 3c
       -0.07451423 0.022967944 -0.031392176 0.015241443
000290 bd 3f 3b 3c 24 0b e0 bd 8a 4a da bd e6 ac bb 3d
       0.011428771 -0.10939625 -0.106587484 0.09163837
0002a0 60 b4 cd bd 90 6c b8 3d d7 25 05 bc 68 e3 d2 3c
       -0.100441694 0.09005082 -0.0081266975 0.025743201
0002b0 90 32 30 3c 21 39 c5 bd fa c0 d8 3d b8 bf d5 3d
       0.010754243 -0.09630037 0.10583682 0.10436958
0002c0 e5 c7 18 3d de fc c4 bd 3a 86 26 bd 5f 32 55 3d
       0.03730001 -0.09618543 -0.040655352 0.05204999
0002d0 1a fc d3 bb a0 49 a8 3d ed 0b 08 3e fe fd fa bd
       -0.006469262 0.08217168 0.132858 -0.122554764
0002e0 79 a8 2e bd 76 e4 eb 3d 8e d5 76 bd be a3 6b bd
       -0.042641137 0.11518185 -0.060262255 -0.057529204
0002f0 4c 26 9e bd 7a 1d 92 ba 00 13 99 bc a5 23 c8 bc
       -0.07722148 -0.0011147701 -0.018685818 -0.02443106
000300 20 9a c5 3d 0d b4 6e bd df cd 41 bd 06 85 8e 3d
       0.09648538 -0.05827718 -0.047315475 0.06958966
000310 e6 c4 c8 3c c7 a1 ad 3c fc 1d 8f bd 11 5c 08 be
       0.024507951 0.021195306 -0.06988141 -0.1331637
000320 67 1e 06 be d8 e4 b7 3c e0 e7 07 be a8 62 6d bd
       -0.13097535 0.022447988 -0.13272047 -0.057955414
000330 ed c0 d3 bd 39 73 44 bc c6 2d 05 be 68 b1 a7 3c
       -0.10339532 -0.011990362 -0.13005742 0.020470336
000340 f9 5c f3 bd ad ad e0 bd 09 a7 05 be 53 48 50 3d
       -0.118829675 -0.10970626 -0.13052 0.050850224
000350 96 63 b4 bc e6 3a 4d bc 39 86 a1 bd 2c 7c 55 bd
       -0.022020143 -0.0125262495 -0.07886929 -0.052120373
000360 9c 6a 6e bd f4 51 81 bd ad e9 c6 bd 8e a4 f2 bd
       -0.05820714 -0.063144594 -0.09712539 -0.118477926
000370 d0 7b 13 3c f4 cb dc bd 54 9c ad bd 0b 3c d8 bd
       0.009001687 -0.107810885 -0.08477083 -0.10558327
000380 af 14 d5 3c f4 c3 1e 3d 58 a6 c4 3d 8a 52 0d 3d
       0.02601084 0.038761094 0.0960204 0.034502544
000390 d7 cb 35 bd 80 f5 e3 ba a7 01 14 be 80 2c 95 3d
       -0.04438385 -0.001739189 -0.14453755 0.07283878
0003a0 46 f8 f1 bd 4f 5d ae 3d b9 1a 55 3d 56 0a 99 3d
       -0.118149325 0.08513891 0.052027438 0.074726745
0003b0 b4 0f 0c bd 8a 12 20 3d ea 4f ad bd be 2e 03 be
       -0.034194663 0.03908018 -0.08462508 -0.128108
0003c0 31 07 d2 bd e0 e4 01 3c ab a4 c3 bc ef ee ad ba
       -0.10255278 0.007928103 -0.02388223 -0.001327006
0003d0 f4 c4 12 be 52 13 df bd 6d 73 52 bc b1 18 91 bd
       -0.14332944 -0.10892357 -0.012844902 -0.07084788
0003e0 8e ec b6 3d 3c b4 4c bd ce 76 d1 3d cb 22 06 3d
       0.08931838 -0.049976572 0.10227738 0.032748025
0003f0 61 bd e6 bd 58 b4 58 3d f8 f7 90 3c d8 ce e8 3b
       -0.1126659 0.052906364 0.017696366 0.007104736

fc.2.bias f4 [6]
000000 9a 7c d5 bd 2e 84 07 3e 7a a1 42 3d da b2 b8 bd
       -0.104241565 0.13234016 0.047517277 -0.09018488
000010 10 10 77 bd ca 45 f6 3a
       -0.060318053 0.0018789109
