main/models/MLP2SanityAgain/best_model.pt (torch, 119352 bytes, 7 tensors)

hist_emb.weight f4 [7, 8]
000000 aa 7e 0f 40 78 a3 0f bf 2d bc 04 3f ff 46 d1 3e
       2.242106 -0.5610881 0.51849633 0.40874478
000010 a4 5a 00 40 ef c9 b4 3d 78 90 98 3f 1a 67 35 bd
       2.0055323 0.08827578 1.1919088 -0.04428778
000020 e2 3e 0a 3f 08 0f 8d bf eb ea f3 be 61 32 87 bf
       0.540022 -1.1020212 -0.47640166 -1.056225
000030 9b 04 33 bf ce e0 53 3f ae ca 5a bf 0d 2f 10 bf
       -0.699289 0.827649 -0.85465515 -0.56321794
000040 d7 bc 07 c0 08 e9 54 bf d1 a8 90 3f 31 e7 1d bf
       -2.1209009 -0.8316808 1.1301519 -0.61680895
000050 19 f3 50 bf eb df 8f be 0a a0 82 3f f2 80 05 3e
       -0.8162094 -0.28100523 1.020509 0.1303747
000060 00 00 00 00 00 00 00 00 00 00 00 00 00 00 00 00
       0.0 0.0 0.0 0.0
000070 00 00 00 00 00 00 00 00 00 00 00 00 00 00 00 00
       0.0 0.0 0.0 0.0
000080 4f 5a 15 3e 9c 5c 58 be 27 9a d2 bf b6 eb 98 bf
       0.14585231 -0.21129078 -1.6453294 -1.1946933
000090 50 1a 53 3f 2e ba a2 be 1d f7 da bf c6 a9 b5 3e
       0.82462025 -0.3178267 -1.7106663 0.3548109
0000a0 64 eb 4f bf 7e 0c 1f bf ec 1c c5 3d 9c 46 81 3e
       -0.8121855 -0.62128437 0.09624657 0.25249183
0000b0 fe 78 1b 3f f7 ee 2a 3e 9d b9 0b bf a4 02 3a 3f
       0.60731494 0.1669272 -0.545801 0.7266028
0000c0 9d 19 53 3e fc 2c da bf 21 d6 1b 3f 94 17 0b c0
       0.2061524 -1.7044978 0.6087361 -2.173314
0000d0 5d 2d 7f 3f 12 4c c2 3e 5b 39 4b 3f 86 21 71 bf
       0.99678594 0.37948662 0.7938439 -0.9419178

fc.0.weight f4 [128, 93]
000000 30 c1 cc 3c 09 e8 80 3d de 13 5f be a1 a8 1f 3c
       0.024994463 0.06294257 -0.21784922 0.009744794
000010 fe 9c d4 bd b6 34 a1 3c ed 49 8a bd d6 b8 92 bd
       -0.103815064 0.019678455 -0.067523815 -0.07164161
000020 b8 f3 bc 3e e5 35 ba bd 8f f4 a1 3e a1 da a8 3e
       0.36904693 -0.09092311 0.31631896 0.329793
000030 70 6b a0 bd e7 6d a9 bc 20 83 fb 3d 02 29 05 3d
       -0.07832992 -0.020682288 0.122808695 0.03250981
000040 2c e5 b5 bc 84 3f 42 bd 78 8d 36 3d 2b 20 ae bd
       -0.022204004 -0.047423854 0.04456851 -0.08502229
000050 75 ab 9f 3d c4 d2 66 bd 46 22 95 3c f1 ba 87 bd
       0.07796375 -0.056353346 0.01820482 -0.06627453
000060 f4 d0 2f 3d 35 7c fc bd df 8c 93 3c db 22 a6 bc
       0.042923883 -0.12328378 0.018011509 -0.020280292
000070 58 92 81 3c 70 4f 1a bd cd 39 87 bd f2 da d7 bd
       0.015816852 -0.037673414 -0.066028215 -0.105398074
000080 20 77 02 bc 34 7d 9b bd 36 14 97 3c ea 89 fa bd
       -0.007962972 -0.0759224 0.018442255 -0.12233336
000090 c0 6e eb 3d 5a 38 60 bd 0a 13 fc 3b e5 01 5c bc
       0.11495733 -0.05474124 0.0076926993 -0.013428186
0000a0 e1 58 6b 3d 2e 23 fb bd 12 9a 54 3c c7 2d 8c 3c
       0.05745781 -0.12262569 0.012976186 0.017111672
0000b0 7a 38 6f bc 61 43 2d 3d c2 68 c1 bc f7 18 19 3c
       -0.014600867 0.042300586 -0.023609523 0.009344331
0000c0 a6 42 47 3d 11 48 68 bd e1 a9 1c 3d cb e0 4d 3d
       0.048647545 -0.056709353 0.038247947 0.050263207
0000d0 b1 55 8a bd 1e 32 c0 bb 04 7d e2 3c 4a 9d 31 bd
       -0.067546256 -0.0058653494 0.027647503 -0.043362893
0000e0 25 90 57 bd f0 8f 15 3d ab c0 8b bd 74 1f a7 bb
       -0.0526277 0.036514223 -0.06823858 -0.005100185
0000f0 31 03 56 bd 30 16 46 3d 7d bc ce 3d 50 05 52 3d
       -0.052249137 0.048361003 0.10094545 0.051274598
000100 36 9e 4a bc 04 f4 70 3c 7e 37 65 bd ab 7f a6 bd
       -0.012366822 0.014706615 -0.055961125 -0.081298195
000110 e2 76 e4 3d b5 82 74 3d f1 1c ee 3d 7f 97 ce bd
       0.111554876 0.059694964 0.11626614 -0.10087489
000120 6d 6a b5 3d f3 37 ac bd 39 8b 37 bd f0 2c 6c bc
       0.0885819 -0.08409109 -0.044810507 -0.014415011
000130 a5 f5 2c 3d 8e 57 ba bc 93 b7 b7 3d 43 fb fc 3a
       0.042226452 -0.022746827 0.08970561 0.0019300956
000140 1f a8 e8 3d ba 2f 24 bd d7 ac 96 3d 4f 74 96 bd
       0.113601916 -0.040084578 0.07357185 -0.07346403
000150 49 26 2c 3d b3 40 46 ba 7e cf 3a 3c 22 30 38 bd
       0.0420287 -0.00075627415 0.011402009 -0.044967778
000160 a8 10 f6 3d 36 fa 99 bc e7 c3 e5 bd 6c 9c 13 bd
       0.12014896 -0.018796068 -0.11219006 -0.036037847
000170 10 c5 9b 3d 06 3a 0f 3d 20 00 9a bd f9 f8 34 3d
       0.07605946 0.034967445 -0.07519555 0.04418275
000180 c0 8a f5 3c a7 85 cf 3b a5 c6 17 be 74 3d 46 3d
       0.029973388 0.0063330713 -0.1482187 0.04839845
000190 91 2f 8f bd 7f e1 01 3c 16 92 a8 bd bf c0 00 3e
       -0.069914944 0.007927298 -0.08230989 0.12573527
0001a0 31 72 9a 3d 89 df 3e 3d c8 6e c2 3d d6 54 c7 3b
       0.075413115 0.0465999 0.09493786 0.0060831113
0001b0 66 74 94 bd 74 e8 c2 bc 0c cc 7e 3b 58 9f d2 3d
       -0.07248764 -0.023792483 0.0038878946 0.10284299
0001c0 e2 87 3a bd 68 89 9b 3b 61 d4 b9 3d a3 22 cc 3c
       -0.045539744 0.0047466047 0.09073711 0.02491886
0001d0 30 ef df 3b f4 fb 19 bd 6f 6a bf 3d e0 de 7b bd
       0.0068339333 -0.037593797 0.093464725 -0.061491847
0001e0 2c fe 3c bc d1 ad 91 bc 96 80 df bc 9a aa bc bd
       -0.011535209 -0.017783077 -0.027282994 -0.09212227
0001f0 ac ac bb 3c 60 96 b8 3c ac cd 67 bd d3 58 7d 3d
       0.022909485 0.022532642 -0.05659263 0.061852288
000200 37 5f dd bc 16 d5 89 3d 97 64 65 bd e2 f3 af bd
       -0.027022941 0.06730096 -0.056004133 -0.08591439
000210 d3 67 e0 bc 0f 95 3d 3c 6c d0 99 b9 71 ee 94 3d
       -0.027393257 0.011571183 -0.0002933772 0.072720416
000220 af e3 87 bd c2 4f f1 3c c2 08 9c 3d 6d f9 0b bd
       -0.06635224 0.029456977 0.07618858 -0.034173418
000230 0c 40 df 3d e9 6e 07 bc 0c b4 9c 3c ab 65 67 bd
       0.10900888 -0.008266189 0.019128822 -0.056493443
000240 35 39 7b bd ee 1f 2c 3d 79 c5 68 b9 44 43 f0 bd
       -0.061333854 0.042022638 -0.00022198808 -0.1173158
000250 6f a2 74 3d a3 a2 3b 3d 08 da ed bc 20 68 9e 3d
       0.05972522 0.0458094 -0.02903463 0.07734704
000260 31 5f 5d 3c ea c8 99 bd bf 45 8a 3c 74 12 70 bd
       0.013511465 -0.075090244 0.01687896 -0.05861135
000270 01 85 82 bd ab cc 7d 3d ad c3 bf 3d c1 f5 b8 3d
       -0.06373025 0.061962765 0.09363494 0.09031249
000280 13 69 99 bd 0d 7f 2a 3d 4c 6a f5 3c 50 9b 0d bc
       -0.074907444 0.04162507 0.029957913 -0.008642986
000290 c7 53 46 3b 5e 7e 69 3c 03 3c 84 3c ca 7f 69 ba
       0.0030262338 0.01425132 0.016141897 -0.00089072867
0002a0 c7 7a 9f 3d 53 03 36 bd 02 5a 8b 3d df 01 de bd
       0.0778709 -0.044436764 0.06804277 -0.10840201
0002b0 fd 35 6c bc f9 b1 96 bd 4c d0 aa bc 22 bd d9 3c
       -0.014417169 -0.07358164 -0.020851277 0.026579443
0002c0 b8 fd f5 39 fd 18 84 bd 58 4e 4e 3d a0 57 dd 3b
       0.00046919077 -0.06450079 0.050367683 0.0067548305
0002d0 a2 62 ec 3c 3f 2e 4a 3c ff b6 8a 3d 26 2d 8b 3b
       0.028855626 0.0123401275 0.06773185 0.0042473255
0002e0 5f 39 4f 3c 86 b1 8b bd 9b 22 7d bd aa 3b 07 bd
       0.012647956 -0.06820969 -0.06180058 -0.033015884
0002f0 91 d2 35 39 d8 be cf bd 37 e4 22 bd b5 30 04 bd
       0.00017339947 -0.101438224 -0.039768424 -0.032273013
000300 21 45 76 bd 89 6c 96 3d 3e f7 e0 3c 29 9c ad 3d
       -0.06012452 0.0734492 0.027461644 0.08477051
000310 81 f1 e3 3c 4c 5a b3 3d 35 31 f5 3c d1 85 94 bd
       0.027825119 0.08757457 0.02993069 -0.07252086
000320 35 6c 43 3d ba bc be 3d c1 b7 ba bd ae 8c 28 3b
       0.047710616 0.093133405 -0.091170795 0.0025718617
000330 d3 1c 36 3d 26 3b 76 bd 3d 94 7e 3c 59 86 f3 bb
       0.044461083 -0.060115002 0.015538272 -0.007431787
000340 d5 20 21 bc c7 98 c0 3d a6 10 92 3d 55 28 69 bd
       -0.009834488 0.0940414 0.07132082 -0.05692323
000350 09 7c 95 3d 3f dd d3 3c 0d 39 7a 3d af ed a5 3d
       0.072990485 0.025862334 0.061089564 0.08101975
000360 88 55 12 3d 85 e3 a8 bd 0d f2 6d bd 64 90 cb 3d
       0.0357261 -0.08246521 -0.058092166 0.0993965
000370 d4 60 34 3d 6c 82 1c 3d 17 81 81 bc 98 5c 9d 3c
       0.044037655 0.038210317 -0.015808625 0.019209191
000380 bb 57 94 bd f8 24 43 bd 24 a6 84 3d 13 6f b3 bc
       -0.07243296 -0.047642678 0.06477001 -0.02190355
000390 b5 9c 07 bc 13 0b 9c 3d e1 d1 b5 bd f0 5a da bb
       -0.008277108 0.076193 -0.08877922 -0.0066636726
0003a0 0e 8a 68 bd 68 ec 64 bd 24 3e 58 3d de 79 af 3b
       -0.056772284 -0.055889517 0.052793637 0.005355104
0003b0 44 ed c0 bd 3f 72 cc bd 06 56 2c bb 65 2f b2 bd
       -0.09420255 -0.09982728 -0.002629639 -0.08700446
0003c0 c5 2f 4c 3d d8 0f 94 bd 3f 86 b9 bd db 15 43 3c
       0.049850244 -0.072295845 -0.090588085 0.011907066
0003d0 84 12 99 bd 5e 8f df bc 33 ce 86 bc 3c 79 9f bd
       -0.07474235 -0.027290042 -0.016455745 -0.077867955
0003e0 fd 18 85 bd d3 64 14 bd 3d 71 ae 3d a1 00 ea bc
       -0.06498907 -0.036228966 0.08517692 -0.028564753
0003f0 29 c9 8c bd 67 28 7c bb 87 65 a1 bb 62 bf c6 bd
       -0.06874306 -0.003847623 -0.004925433 -0.09704472

fc.0.bias f4 [128]
000000 0e fe fa bc 18 a7 da 3d 54 0b a8 bd 4d c0 a1 bd
       -0.03063872 0.10676402 -0.08205286 -0.078980066
000010 61 a6 82 bd f3 21 02 3d d2 2e 8b bd ec 8f 1f bc
       -0.063793905 0.031770658 -0.0679604 -0.0097389035
000020 05 61 e9 bd e7 b1 45 3d e3 7a fb 3c e8 9a 83 bd
       -0.11395458 0.048265364 0.030698245 -0.064260304
000030 ec 3d 6d 3d 84 3a c8 bd a1 9c 61 3d 32 25 8e 3d
       0.05792038 -0.09776786 0.055081014 0.06940688
000040 c5 c6 7a bd d7 ef b5 bb 1a 16 6b bd 14 77 1b bd
       -0.061224718 -0.005552273 -0.057394125 -0.03795536
000050 d0 46 a0 3d 15 96 db bd 7f 39 cf bc 8e 0d b2 bd
       0.078260064 -0.10721985 -0.025295971 -0.086939916
000060 94 d8 55 3d 4b 57 0b 3d c7 f8 b9 bd 17 18 a6 bd
       0.052208498 0.034018796 -0.09080654 -0.081100635
000070 8b aa 48 3d 96 62 97 3d 4a c5 39 bd 45 41 e0 3d
       0.048990767 0.07391851 -0.045354165 0.10949949
000080 c6 9e d6 bd 4a e1 a1 3d bf ed 0f 3d 22 2b 9d bc
       -0.104795024 0.079042986 0.03513884 -0.019185606
000090 e1 6a a9 3c 49 fd ce 3c 75 74 fc bc 10 a2 ca bc
       0.020680847 0.02526726 -0.03081725 -0.02473548
0000a0 01 66 ee 3c 97 21 83 3d 0b 42 72 bb 44 c1 44 bd
       0.029101374 0.06402891 -0.0036965634 -0.048035875
0000b0 7b 00 82 bd 39 27 0b 3e ad cc dd bc f5 17 c7 3d
       -0.06347748 0.13589181 -0.027075136 0.09721366
0000c0 e1 c3 94 bd 3f e6 04 3c b6 29 08 3d 1a 25 19 bc
       -0.072639234 0.008111536 0.033242904 -0.009347225
0000d0 86 85 61 bd 4f f8 8d b9 c4 37 f2 bc e4 22 ba bd
       -0.05505898 -0.0002707862 -0.029567607 -0.09088686
0000e0 37 83 ab 3d 85 ab 49 3d d4 72 50 bc 55 84 75 bd
       0.083746366 0.04923584 -0.01272269 -0.059940655
0000f0 52 b4 83 bd 69 de 75 3d 53 75 85 3d a1 54 f7 bd
       -0.06430878 0.06002656 0.065165184 -0.120766886
000100 c7 e8 a6 bd 48 7b c9 3d 26 af 18 3c 3e 9a c0 bd
       -0.081498675 0.09837967 0.009319102 -0.09404419
000110 cb f1 02 bb aa 59 82 3d 18 03 71 b9 e3 8a b8 ba
       -0.0019980546 0.06364758 -0.00022984704 -0.0014079477
000120 bf ed dd 3c be 75 98 bd 37 f4 9c 3d 9a 44 3d bd
       0.027090905 -0.074443325 0.07663768 -0.046208
000130 47 d3 70 3c 4d b4 18 bd 5a f9 6e bd 40 09 c3 3d
       0.01469881 -0.037281323 -0.05834327 0.09523249
000140 70 fc ce 3c 66 b9 14 3d 8a c0 9d bd 81 eb 47 bc
       0.025266856 0.036309622 -0.077027395 -0.012202145
000150 06 04 87 3d 42 f4 cf 3b ca 10 d0 3d 66 44 bb bd
       0.06592564 0.0063462565 0.10159452 -0.09143905
000160 a7 bc 31 bd 72 38 54 bd d3 13 58 3c 10 c9 3f 3c
       -0.043392804 -0.051811643 0.01318832 0.011705652
000170 3a 0e c1 bd 65 39 9b bc 7d 01 a7 bd 60 af 45 3c
       -0.094265416 -0.018948266 -0.08154581 0.012065738
000180 85 c4 12 bd 96 b4 99 3d fc 83 9f 3d 23 b0 12 bd
       -0.035831947 0.07505147 0.07788846 -0.03581251
000190 35 a9 e3 3c 3f 75 71 bd b6 e0 a9 3d 5b 60 0f bd
       0.027790645 -0.058949705 0.08294813 -0.035004
0001a0 e1 db 80 3c 95 7d e9 bc d1 4d b3 bd ac ae c3 3d
       0.015729846 -0.028502265 -0.08755077 0.095548004
0001b0 39 f7 5f bd 40 d4 b5 3d d1 da dd ba 97 b1 24 3d
       -0.05467913 0.08878374 -0.0016926174 0.040208425
0001c0 b9 88 b3 3d 25 83 66 3d cf 98 ff bc 11 9a 87 3d
       0.08766312 0.056277413 -0.031200795 0.06621183
0001d0 76 b6 07 bd d1 7d b1 3d b7 c1 57 3d 03 4c 46 bc
       -0.033132993 0.08666576 0.052674975 -0.012103084
0001e0 49 85 ce 3d 5b d7 36 3d 88 ff 36 bd ef 5b fa bb
       0.10084016 0.044638973 -0.044677287 -0.007640354
0001f0 60 ef 8d 3d 6e cf 9f bd 4a aa f0 bc af 69 7f bd
       0.06930423 -0.07803236 -0.029378075 -0.062356647

fc.2.weight f4 [128, 128]
000000 44 04 67 bd 32 61 91 bd 75 26 47 3c b9 40 3f 3d
       -0.056400552 -0.07098617 0.012155165 0.046692584
000010 08 0d 79 bc f8 50 b0 bd 33 f9 80 bd ad 9d 67 bd
       -0.015200861 -0.086091936 -0.06297531 -0.056546856
000020 4b 55 3e 3d dc c7 ee 3c a4 9a c6 bd 21 a0 87 3c
       0.04646806 0.029148035 -0.09697464 0.016555848
000030 ca 1d 58 be 41 81 3f bd f4 4f 5a be 6a b0 8d 3d
       -0.21105114 -0.046754126 -0.21319562 0.06918414
000040 bc b8 03 3d e2 e1 46 3c c1 f5 42 3d 32 bc 96 3c
       0.0321586 0.012138816 0.04759765 0.018400285
000050 30 3f 0b be dd a5 89 bd a6 27 0f bd 7f 9b ec bd
       -0.13598323 -0.06721089 -0.03494992 -0.11553096
000060 dc 73 94 bc 86 da 94 bd e6 e2 56 bd 73 14 74 bd
       -0.018121652 -0.072682425 -0.05246248 -0.059589814
000070 57 2e ac 3d 8b ea 3d bc 07 89 63 3c 94 e8 56 bd
       0.08407276 -0.011591564 0.01388765 -0.052467898
000080 c8 4c 2f bd af cb 4e bc 21 91 c7 bd 20 5b d8 bb
       -0.042797834 -0.012621804 -0.09744478 -0.00660266
000090 ca 73 19 bd 4c 17 b7 3c 1a 9b 5e 3c 1d 9c 29 3d
       -0.03746394 0.022349976 0.013586784 0.041408647
0000a0 f0 00 63 bd 51 1c 4b bc a0 f2 8f bd f5 2a 21 3e
       -0.055420816 -0.012396888 -0.07028699 0.15739043
0000b0 b0 44 a7 3c 3e 00 1a be c6 a2 49 3d ef 3e e0 bb
       0.020418495 -0.15039155 0.0492275 -0.00684344
0000c0 1e 9b a9 bc 3e d2 0d ba 2f af e0 bc 61 31 49 3d
       -0.020703848 -0.00054100517 -0.027427284 0.049119357
0000d0 3e a7 88 3d e8 60 42 3d 00 d1 66 bd f1 1f d8 bb
       0.06672524 0.0474557 -0.05635166 -0.0065956046
0000e0 53 22 aa bc 85 26 41 bc 80 c9 05 bc 11 46 1d bd
       -0.02076832 -0.011788969 -0.008165717 -0.0383969
0000f0 1b be 9b 3d df b5 e5 bd d3 05 2b 3d 55 c5 ba bd
       0.07604619 -0.1121633 0.0417536 -0.09119669
000100 79 7b 93 3b 61 c1 d8 3b 27 c7 90 3d 0f 92 6b bc
       0.004500803 0.0066148494 0.07069235 -0.014378085
000110 16 0b a8 3d 32 88 21 bb b2 df 80 3d 3e a4 56 bd
       0.082052395 -0.002464783 0.062926665 -0.052402727
000120 8b 79 c1 bc 78 5c e7 bc 91 76 b6 3c 11 4b 83 3d
       -0.023617527 -0.028242335 0.022273334 0.06410802
000130 3d da a5 bd 40 5a 19 3d 53 85 79 3d 77 cc 92 bd
       -0.08098266 0.037439585 0.060918164 -0.07167905
000140 d7 55 06 bf 4c 67 c8 be 48 2e b7 3c 3e 28 da 3c
       -0.5247473 -0.3914131 0.022360936 0.026630517
000150 3d 26 95 3c 0c 8b 6c bd c5 a3 d5 bd 01 1d 6c 3d
       0.01820671 -0.057749793 -0.10431627 0.057644848
000160 15 b8 42 bd 34 25 8f bd 9a d1 dc 39 3e d7 06 bd
       -0.047538836 -0.06989518 0.00042117835 -0.032920115
000170 f3 35 82 3c d1 4f 4f 3d 06 7f 13 bd ad a9 8a bc
       0.015894866 0.05061323 -0.03600981 -0.01692661
000180 53 17 3a 3c e3 89 97 3d 65 a3 d5 bc df d3 ec 3d
       0.0113581 0.07399347 -0.02607889 0.11563849
000190 78 5f e5 bc 02 d7 9f bd 88 f5 98 bb df 9c fe 3d
       -0.027999625 -0.07804681 -0.0046679415 0.124322645
0001a0 6d 82 1d 3d a8 8f 82 bd 44 e0 98 3d b6 7c 43 3d
       0.03845446 -0.063750565 0.0746465 0.047726355
0001b0 25 14 3d be e5 06 7b bb db 6c 20 bd 8d d5 8b 39
       -0.18464716 -0.003830367 -0.039166313 0.00026671254
0001c0 4b 1c d0 bd 8a da 80 bd 6a 68 a0 bd 2a 3e 3e bd
       -0.101616465 -0.06291683 -0.078324154 -0.046446003
0001d0 3b 89 5c bc b6 82 a8 bd 39 59 c7 3d a9 15 7e bc
       -0.013460453 -0.08228056 0.09733815 -0.015508094
0001e0 b7 6b 1a bc cd 1b 50 3d 8a 13 4d 3c 80 95 6a 3d
       -0.009425095 0.050807763 0.0125168655 0.05727148
0001f0 c3 5b 4e 3d 73 64 dd b9 06 29 6f 3d 1f b1 e4 3c
       0.05038048 -0.00042227245 0.058388732 0.02791649
000200 67 0c d5 3b a2 d9 36 bd 34 70 a6 bd ed 8d 06 3d
       0.0065017226 -0.044641145 -0.0812687 0.032850195
000210 8e 35 3d 3d cc 44 bb 3c 9c 6b 20 be 5b 68 12 be
       0.04619365 0.022859953 -0.1566605 -0.14297621
000220 a7 d2 1d 3d 1f 36 9c 3d 30 5f a4 3d 0e 94 68 bd
       0.03853097 0.0762751 0.08025968 -0.05678182
000230 4c 9d 20 3d 46 19 c7 bd 65 9c 07 3b 12 be 61 bd
       0.03921251 -0.097216174 0.0020692584 -0.055112906
000240 bf 5d 16 bc 23 c7 27 3c 84 a4 44 3d c9 8b 6e 3c
       -0.009177624 0.010240349 0.048008457 0.014559695
000250 20 71 3b bd 5d 6d 85 bd 98 16 b6 bc 93 68 de bc
       -0.04576218 -0.06515 -0.02222757 -0.027149474
000260 ef b5 2a 3d 7f 51 b2 bd 60 11 c4 bb 85 47 9c 3c
       0.04167741 -0.087069504 -0.0059835166 0.019077072
000270 a7 55 80 3d a1 a9 d6 bd 73 29 9e 3c e3 58 9c bb
       0.06266337 -0.10481573 0.019306874 -0.0047713383
000280 ea 91 7c bd a8 22 30 bd 64 6b 72 bc 4b 05 a6 3d
       -0.061662592 -0.0430018 -0.014796112 0.08106478
000290 93 8d ab 3d 05 02 50 3d 8b 19 3e bd 7a 36 97 3c
       0.083766125 0.050783176 -0.04641108 0.018458594
0002a0 74 49 8e 3d cd 85 93 3d 03 dd 8a 3c df 93 66 3c
       0.06947604 0.07203255 0.01695109 0.014073341
0002b0 74 18 53 bc 42 00 5d bc a7 3e 0d 3d a7 bf 20 3d
       -0.012884248 -0.013488831 0.034483578 0.039245274
0002c0 b0 ae c7 bd c7 16 75 3d c5 65 09 bd dd 65 76 3b
       -0.09750116 0.059836175 -0.03354432 0.0037597336
0002d0 b6 0a 90 bd 32 45 d4 3c b2 61 71 3d 37 34 aa 3c
       -0.07033293 0.025911901 0.05893106 0.020776851
0002e0 d9 ac ae bd 2b 08 89 bc 77 fe 0d bd 72 e2 62 3c
       -0.08529062 -0.016727528 -0.034666505 0.013847934
0002f0 73 6a c4 bc 50 96 0a bc f3 ce d5 bc 0c 6b ee 3c
       -0.02397654 -0.008458689 -0.026099658 0.029103778
000300 ec 3e 9a bd fa 46 bc bd cc cf 80 bd 52 20 67 bb
       -0.07531533 -0.09193225 -0.06289634 -0.0035267067
000310 a8 12 8b bc 2a ee f7 bd 3a 2d da bb 96 96 2a bd
       -0.01697667 -0.12105973 -0.0066582235 -0.041647516
000320 f6 c8 29 bc 52 60 89 bc 84 0e f5 3d 3f 0c 8b bd
       -0.010362854 -0.016769562 0.11965659 -0.06789445
000330 59 b2 b6 bd ba 40 d4 bd 17 99 45 3d 47 dd 3b 3d
       -0.08920736 -0.10363908 0.0482417 0.045865323
000340 5a 7e 6a 3d 85 14 90 bc 2d a9 2b 39 4e 2d 39 bd
       0.057249404 -0.01758791 0.00016370854 -0.04520922
000350 d5 0e 2a bd 93 d9 b5 3d 32 a8 69 bc d4 4f 10 3d
       -0.04151805 0.088793896 -0.014261292 0.03523238
000360 d1 43 2c 3d 6d 04 86 3d a5 21 ab 3d 67 4c 6b bd
       0.042056862 0.06543813 0.083560266 -0.05744591
000370 34 62 ad bd 19 37 06 bd 6d 6c 0a bc 8b 6c df 3c
       -0.084659964 -0.03276739 -0.008448702 0.027273437
000380 09 58 3c bd 48 e6 10 bd 3d f9 b5 bd 79 99 8b 3d
       -0.045982394 -0.035375863 -0.08885429 0.06816382
000390 9e c5 a0 bc b1 fb b7 bd d7 37 82 bc 4f 0c 2c 3d
       -0.019625481 -0.08983553 -0.015895767 0.042003926
0003a0 61 c7 f1 3c 14 bb 03 ba 40 39 dc bc 5c f2 6c 3b
       0.029514017 -0.000502513 -0.026882768 0.00361552
0003b0 84 6d 03 bc 82 14 85 bd c5 ef 85 bd 38 1f 6b bc
       -0.008021716 -0.06498052 -0.06539873 -0.014350705
0003c0 93 00 c5 3d a6 83 58 3d 2f c0 90 bd 8d bb 59 bd
       0.0961925 0.052859925 -0.07067906 -0.053157378
0003d0 89 93 e4 bd d4 22 a6 bd 7e 3c bc 3d 26 11 c3 bd
       -0.111609526 -0.08112112 0.091912255 -0.09524755
0003e0 3f b8 b0 3c 33 33 95 3d 25 ea ac bd f4 86 3e bd
       0.02157223 0.07285156 -0.08443097 -0.04651542
0003f0 ba 93 af bd 76 e4 05 3d 19 29 3f bb ad fd 8d 3b
       -0.085730985 0.03268858 -0.0029168783 0.004333219

fc.2.bias f4 [128]
000000 8d 92 b1 bd 8a f9 71 3d 08 d0 c9 3d dd 4d f0 3c
       -0.086705305 0.05907587 0.09854132 0.029334003
000010 a7 4f 63 3d ca 1e e0 3c 62 a1 07 bd 2b ec 9a 3d
       0.055495884 0.027358431 -0.03311289 0.07564577
000020 73 06 d3 bd 43 77 b4 bd 2a 7e b4 bc 25 11 9f bd
       -0.103039645 -0.0881181 -0.022032816 -0.07766942
000030 d2 68 65 3d 2b 1c 3d bd 1b 74 98 bd ff b8 d9 3c
       0.056008168 -0.04616944 -0.0744402 0.02657747
000040 b9 ab a5 3d ac 6e ad 3d 29 70 f7 bc b9 03 ba 3d
       0.08089394 0.084683746 -0.03020485 0.09082741
000050 7c 80 38 3c 58 c1 86 bd f5 65 9e 3d db b9 4e bd
       0.011261102 -0.06579846 0.077342905 -0.050470214
000060 11 0f 92 bd 90 09 3c bd fc 8a 7b bd 71 45 30 bd
       -0.0713178 -0.045907557 -0.061411843 -0.043034974
000070 c2 6d b1 3c 66 4e c6 bd 06 08 a4 3d e9 45 8a 3d
       0.021658782 -0.09682922 0.08009343 0.067516156
000080 f5 6d 5f 3d 79 c6 14 bd 4f 90 a6 3d f4 29 60 3d
       0.054548223 -0.03632209 0.081329934 0.05472751
000090 c3 e9 3a 3d cb 3d 28 3d dd bd d5 3c 59 ea 1f bd
       0.04563309 0.041074555 0.02609151 -0.03904185
0000a0 08 98 9b bb ef 2f 90 bd 47 cb 72 3d 4c 0c c0 3d
       -0.004748348 -0.070403926 0.05927589 0.093773454
0000b0 44 31 64 3c e9 92 2b bd e9 77 8a bb 85 b3 88 bc
       0.013927761 -0.04188815 -0.00422572 -0.016687164
0000c0 55 ba 33 3d ea 37 84 3d e0 65 78 3d f6 4b a8 bd
       0.043878872 0.06455977 0.06064403 -0.082176134
0000d0 3a 4a c6 3d 30 d8 5e 3d cc f0 73 bd 04 61 5c bc
       0.09682126 0.05440539 -0.059555814 -0.013450865
0000e0 68 9b ca 3b d5 10 93 bc c1 a7 80 bd ca 9f 87 bb
       0.0061830766 -0.017952362 -0.062819965 -0.0041389214
0000f0 da 8d 2e 3d 7c 98 37 bd 96 d6 d0 bb 2d ec 7d 3d
       0.04261575 -0.044823155 -0.006373237 0.061992813
000100 9f 24 c6 bd 47 bf 6f 3d 8d 5d 73 3d 57 b8 19 3c
       -0.09674954 0.058532026 0.05941539 0.009382329
000110 b3 ff fb 3c c0 41 94 3d 95 d7 bb 3d 41 f8 87 3d
       0.030761575 0.07239103 0.091719784 0.066391475
000120 37 ad 76 bd 54 3c 8b 3d 4b c5 a7 bc 39 32 84 3c
       -0.060223784 0.06798616 -0.020479819 0.01613723
000130 32 78 0c bd 68 f1 af 3b 06 7b 33 3d ca 30 a3 bc
       -0.034294315 0.005369354 0.043818496 -0.019920725
000140 48 8f 9b bd 14 97 a5 3c d1 b9 9b bd 15 91 7c bd
       -0.07595688 0.020213641 -0.07603801 -0.0616618
000150 32 0e bd 3b 8a f4 a5 3d 99 fe 99 bc d3 97 c1 3c
       0.0057695145 0.08103283 -0.01879816 0.023631966
000160 30 c1 5e bc 79 2d b9 37 b3 ac b9 b9 e2 5b f3 bc
       -0.013595864 2.2074893e-05 -0.0003541462 -0.0297069
000170 93 6f 0c 3d eb 71 22 bd f5 2b 8b 3b c3 88 32 3d
       0.034286093 -0.039659422 0.0042471834 0.043587457
000180 17 a2 15 bd 10 a1 0d bd 68 82 b3 3d 57 85 e2 3c
       -0.036531534 -0.03457743 0.087651074 0.027651472
000190 ff 60 93 bd 1c 8c 69 bb 82 a2 3f bd 42 c9 46 3d
       -0.07196235 -0.003563649 -0.04678584 0.04853178
0001a0 b9 22 b6 3c 76 47 95 bd fd e3 23 bd 75 ac 53 3d
       0.022233354 -0.07289021 -0.04001235 0.05167814
0001b0 b7 8b 15 3c e1 7f b2 3c 95 65 1b 3d 04 1f db 3d
       0.009127549 0.021789493 0.037938673 0.10699275
0001c0 20 30 b0 3d 44 27 dd 3b d1 8d 4f bd 1e 51 8d 3d
       0.08602929 0.0067490656 -0.050672356 0.069002375
0001d0 ca c7 a2 bd b4 32 a7 bd f0 2b a8 bd 75 4e 8d 3d
       -0.07948263 -0.08163968 -0.082115054 0.0689973
0001e0 38 be dc bc 6b 2f 7d 3c 66 f2 64 3b 66 6b 31 bd
       -0.026946172 0.0154532 0.003493452 -0.043315314
0001f0 5c 23 97 3d eb a4 d1 3c 25 f6 47 bc 20 bf 14 3c
       0.07379791 0.025591334 -0.0122046815 0.009078771

fc.4.weight f4 [3, 128]
000000 83 ae 1e bd e1 54 c9 3c 03 ad 88 bd fd 0a 80 bd
       -0.038740646 0.024576606 -0.06673624 -0.06252096
000010 fa ec d3 bd 83 f6 97 bd 3f 2e a3 bd 54 d9 5e bd
       -0.10347934 -0.07420065 -0.07967805 -0.05440648
000020 6c a8 b7 3d a3 de a0 bd 57 69 32 3d 90 c7 cf bc
       0.08967671 -0.078549646 0.04355749 -0.025363714
000030 6d 86 bc bd 59 cf b2 bc e6 35 6e bd 85 83 56 bb
       -0.09205327 -0.021827387 -0.05815687 -0.00327322
000040 b6 23 90 3d 51 e8 88 bd 18 14 8c 3d 08 8f af 3c
       0.07038061 -0.06684936 0.0683977 0.021430507
000050 99 eb 39 bd 56 fa 74 3d 0f 2d 93 3b dc b1 4f bc
       -0.0453907 0.05980905 0.0044914554 -0.012676682
000060 2c 43 58 3d 58 be 65 3d d6 26 13 bc 4b c2 0d be
       0.052798435 0.05608973 -0.008981427 -0.13843648
000070 c5 ca 19 3d 63 b5 16 3c 07 47 c6 bc b0 4f a4 bd
       0.03754689 0.009198519 -0.02420379 -0.08023012
000080 54 92 f8 3d 9a 09 c4 bd 59 fd 8e 3d d4 68 8b bd
       0.12137285 -0.09572144 0.06981916 -0.06807104
000090 f1 a6 03 bc 55 29 91 bd cc 05 27 bd 43 2a 21 bd
       -0.008035407 -0.070879616 -0.040777013 -0.039346945
0000a0 5a 1d 10 bc 19 4f 9c bd 50 67 8d bd 4d c3 f2 bd
       -0.00879606 -0.07632274 -0.06904471 -0.11853657
0000b0 c5 ce 3e 3d a7 51 3d bd 35 b1 3f 3d 8e 4c 15 3d
       0.04658391 -0.046220448 0.046799857 0.03644996
0000c0 9c d4 d4 bc 87 57 1f bc 15 96 57 bd bd 1a 0d bd
       -0.025980286 -0.009725458 -0.052633364 -0.034449328
0000d0 28 81 af bd 08 6c 99 3d a4 de d5 3c a9 9c 96 3d
       -0.085695565 0.074913085 0.02610714 0.07354099
0000e0 90 2e 30 3d 68 26 1f 3c 69 a4 25 3d 15 7a c4 bc
       0.043013155 0.009713747 0.040439997 -0.023983994
0000f0 59 a9 ae 3c 89 f2 80 3d b2 dc 89 3d e5 91 4e 3d
       0.021320986 0.0629626 0.067315474 0.050432105
000100 a7 7f d4 3a 68 a2 29 bd df a6 10 bd 31 d4 c9 3c
       0.001621236 -0.04141465 -0.03531539 0.024637314
000110 5c bb 93 bd 91 9c ef bd 58 17 db 3d e2 79 1d be
       -0.0721347 -0.116997845 0.10697812 -0.15378526
000120 09 05 91 bc 55 ec 1b 3d cb 47 d4 3c cc af 40 3e
       -0.017702596 0.03806718 0.02591314 0.18817061
000130 89 72 e1 3d f6 70 6e 3b d0 b8 2c bc f2 13 03 bc
       0.11008174 0.0036383248 -0.01054211 -0.008000361
000140 63 60 66 3c 8e 29 0c 3d dc 55 d1 bb e2 6d 84 bd
       0.014061066 0.034219317 -0.006388409 -0.06466271
000150 85 0b 40 bd 99 7c 9c 3d 38 6b bc bd 7e 4e 50 bd
       -0.046885986 0.076409526 -0.09200138 -0.050856106
000160 53 6e c0 bc 51 5b 3d be b0 c6 9d bd 72 31 1a be
       -0.023490107 -0.18491866 -0.07703912 -0.15057924
000170 c6 2b 5d bd eb bf c9 3d d6 13 11 3e c5 ed 55 3d
       -0.053996824 0.098510586 0.14167723 0.052228708
000180 a3 c5 8b bd b3 fe 59 3d 5b 8e 1b bd b6 4a ba 3c
       -0.068248056 0.053221416 -0.037977558 0.022740703
000190 4e bd 35 bd 44 f7 31 bd 60 b6 c5 bc 19 fd 66 bd
       -0.04436999 -0.0434487 -0.024134815 -0.056393716
0001a0 c1 60 be 3d 81 d0 0f bd 72 eb 08 3d eb e8 1c 3d
       0.09295798 -0.035110954 0.033427663 0.038308065
0001b0 92 1e e7 bd df 0a 49 bd e8 0b bb 3d 1e b0 b0 3d
       -0.11285128 -0.049082633 0.0913313 0.08627342
0001c0 55 c6 2d be dd 06 45 3d 22 7a 7d bd b3 2a 05 3d
       -0.16970189 0.04810225 -0.061884053 0.032511424
0001d0 73 bf 61 bd 7e 64 5a 3c 0b f0 61 bd e6 a0 38 bc
       -0.05511422 0.013329623 -0.055160563 -0.01126883
0001e0 33 12 bb bc 6c 11 35 bd 81 6c 65 3d e2 b8 93 3d
       -0.022835827 -0.044206068 0.05601168 0.07212998
0001f0 3e 9f 89 3d 68 f0 68 3c 07 c9 df 3b 3b 9a 9d 3d
       0.06719826 0.014217474 0.0068293842 0.07695433
000200 98 ef 21 be 61 6d 19 bc 5c 35 ec 3b a2 90 63 3d
       -0.15814054 -0.009364457 0.0072085094 0.055557854
000210 a6 b3 04 3e 98 5d 33 bb a6 a0 39 bd 40 f1 8f bd
       0.12959155 -0.0027369019 -0.045319222 -0.07028437
000220 1d bb 1a bc 3a f2 9f bc 8d 40 1a 3d 04 a6 b2 bc
       -0.009444025 -0.019524682 0.037659217 -0.021807678
000230 0e 10 11 3e 0f 51 64 3d 44 ec 5d bc 34 48 55 bd
       0.1416628 0.055741366 -0.0135451 -0.05207081
000240 47 ad 80 3d cc 10 3e 3d cb ed 7b 3d 6c 1b 50 3b
       0.0628305 0.046402737 0.061506074 0.0031754626
000250 d9 87 2f bd df 05 80 be 29 98 2f 3e b5 91 3e 3d
       -0.042854164 -0.2500448 0.17147888 0.046525676
000260 86 78 bf 3a 51 f5 c1 bd 28 d3 83 3d f3 b1 0b 3e
       0.0014608062 -0.094706185 0.06436759 0.13642101
000270 95 b4 bc bd 4a 0d 35 bd 81 80 1b 3c 77 31 42 bc
       -0.09214131 -0.044202127 0.009491087 -0.011852614
000280 63 7d 15 be 6b b6 74 3d cc fc b5 3c 84 01 8a bd
       -0.14598612 0.05974428 0.02221527 -0.0673857
000290 46 c3 9a 3d 40 91 f9 bb 90 96 0f be a3 bf 22 3e
       0.07556777 -0.007616192 -0.14022279 0.15893416
0002a0 91 23 3b 3d d7 e4 c4 3b 1c a9 3e 3d df fe 3f bc
       0.045688216 0.006008725 0.046547994 -0.011718481
0002b0 37 f5 fe bd 7e 54 db bc 6c 03 16 3c 30 9d 4e 3c
       -0.12449115 -0.026773687 0.009156089 0.012610719
0002c0 db 45 8b 3d a4 ac a2 bd 90 9a 9d 3c 99 03 6a bd
       0.06800433 -0.07943085 0.01923874 -0.057132337
0002d0 bd a6 b0 3d 19 85 40 3d 9f 13 86 3c 96 32 89 be
       0.08625553 0.04700193 0.016366778 -0.26796407
0002e0 fd 88 5e 3d 17 05 03 be 7d cc 81 3c c2 61 a4 bd
       0.05432986 -0.1279491 0.015844578 -0.08026458
0002f0 6b f6 24 be c1 2c 83 bd a6 57 11 be e0 e3 25 bd
       -0.16109626 -0.064050205 -0.14193591 -0.04050052
000300 0c 28 93 bd aa db 5b bd 84 07 b6 bd a9 75 20 3b
       -0.07185373 -0.053676285 -0.08888152 0.0024484193
000310 26 46 e5 3d f5 21 10 3e e1 28 8b ba f5 8b 2b 3d
       0.111950204 0.14075454 -0.0010617041 0.04188152
000320 6c 28 37 bd 87 98 88 bd f9 75 74 bd 4b eb 58 be
       -0.044716284 -0.06669717 -0.05968282 -0.21183507
000330 c4 24 b3 bc 33 8c b5 39 89 d4 b5 3d 26 3a 83 3d
       -0.021868117 0.00034627467 0.088784285 0.06407575
000340 be a5 40 3d 45 8e 43 3d 25 67 fc 3c db 28 04 bc
       0.047033064 0.0477431 0.030810902 -0.008066381
000350 f6 4b 1e be 13 98 98 3d ad fa 90 3d a5 94 6c bd
       -0.15458664 0.07450881 0.070790626 -0.057758946
000360 e9 22 ea 3c 6a d2 57 3d cd dd e1 3d 59 d3 53 3d
       0.0285811 0.0526909 0.11028633 0.05171523
000370 d8 fe c5 bd 5f b7 4c 3d 83 aa b3 be e0 fa 8a bd
       -0.09667748 0.049979564 -0.35091028 -0.06786132
000380 51 0a 0d 3d 9e ce d5 3c a9 bc a6 3d 48 c5 6d bd
       0.034433667 0.0260995 0.08141453 -0.05804947
000390 1c 2a 3b bc be dd 4b 3b d6 33 88 3c f4 8e c0 bc
       -0.011423614 0.003110751 0.01662628 -0.023505665
0003a0 d4 fb a2 3d c3 06 9b 3d 15 30 71 bd 64 44 01 bc
       0.07958189 0.07569649 -0.058883745 -0.007889841
0003b0 ea 36 0d 3e 8f 8e 0c 3d 62 cb 34 bd 94 06 d9 bc
       0.1379048 0.034315642 -0.044139273 -0.026492395
0003c0 95 7d a0 bd 4a e9 0a 3e 4a a3 c6 3c ef bb f1 3c
       -0.07836453 0.13565555 0.024247784 0.029508559
0003d0 a4 3d 91 3d 1d b5 45 3d cc 4a 8b 3d e1 9d 39 bd
       0.07091835 0.048268426 0.06801376 -0.04531658
0003e0 29 fb c0 bd 47 da 02 bc 77 c2 4e be 3c ec 3b 3d
       -0.09422905 -0.007986612 -0.2019137 0.045879588
0003f0 82 e0 d9 bc 7e f3 c4 bd 94 4f 67 3d 21 31 d3 3c
       -0.026596311 -0.09616755 0.056472376 0.025780262

fc.4.bias f4 [3]
000000 f0 76 31 3d 4f 51 87 3d c7 57 65 bd
       0.04332632 0.06607305 -0.055991914
