main/models/lstm4/best_model.pt (torch, 109369 bytes, 9 tensors)

hist_emb.weight f4 [7, 16]
000000 30 96 b7 3f f5 e3 01 bf a8 56 38 3e c1 a7 3d be
       1.4342709 -0.5073846 0.18001807 -0.18521024
000010 95 18 b5 bf 2e fe 6c 3e 7d e6 1f bf 17 8a 4c bf
       -1.4148127 0.23143837 -0.6246107 -0.7989821
000020 f2 14 a3 be 1d 72 e0 bf 68 33 0e bf ca 03 4e 3f
       -0.31851918 -1.7534825 -0.5554719 0.8047453
000030 ec eb e6 3e 3d 10 5d bf 74 fd 35 3f 4f 35 79 bf
       0.4510187 -0.863529 0.71089864 -0.9734697
000040 94 06 11 be 5e 53 db 3d 76 f3 94 3e 5e a2 db 3f
       -0.14162666 0.107092604 0.29091996 1.7158926
000050 6a 46 6a be f0 0d f1 3e fa 16 03 3f a6 37 8e 3e
       -0.22878423 0.47080946 0.51206934 0.2777683
000060 1f 38 ac 3f 77 24 12 3f cc 8d d9 3f 38 ac d8 3e
       1.3454627 0.5708689 1.6996398 0.42318892
000070 27 58 47 3d 63 51 1b 40 72 e6 11 bf 03 11 e2 3f
       0.048668053 2.4268425 -0.56992257 1.7661442
000080 67 26 97 3f 9c 69 84 3e 8a 34 5b bf 05 45 78 bd
       1.1808594 0.25861824 -0.85627043 -0.060612697
000090 c2 74 80 3f 25 ca 5f 3e df 2e bc 3f 25 3a d4 be
       1.0035632 0.21854456 1.4701804 -0.4145061
0000a0 9c c8 a2 3e 32 0d 82 bf 97 b2 e0 3f 03 c0 31 3f
       0.31793678 -1.0160277 1.7554501 0.6943361
0000b0 4b 9e 32 3f 86 95 e0 be da 91 4c bf 41 b8 7a 3f
       0.69772786 -0.43864077 -0.7991005 0.979374
0000c0 d7 5b 74 bf 66 c7 82 3f c5 e2 fd 3e bf 6b 28 3e
       -0.95452636 1.0217102 0.49587074 0.16447352
0000d0 c5 0b 83 bc c9 93 0b 40 c5 24 69 bf 33 75 de be
       -0.015996823 2.180895 -0.9107173 -0.4344879
0000e0 13 17 4c bf d7 d1 86 bf da 53 c0 3e a9 89 bf bf
       -0.7972271 -1.0532788 0.37563974 -1.4963886
0000f0 bb 19 ae 3e 60 30 81 3e fa ce 3f 3f 97 ed 69 bd
       0.34004006 0.2523222 0.74925196 -0.05711135
000100 42 ba 28 be eb b1 1c bf dc 49 0d 40 ae 58 8c be
       -0.16477302 -0.6120898 2.207633 -0.27411407
000110 02 5e 91 3f 76 24 51 bf 3d 6c f5 3e 86 db cc bf
       1.1356814 -0.8169626 0.47934142 -1.6004493
000120 58 d0 2a 3f 11 e7 d3 bf a4 a3 bb bd 0a e8 c5 be
       0.6672416 -1.6554891 -0.09162071 -0.38653594
000130 2b 8e 61 3f be 35 bf 3e a9 e4 67 bf 22 43 23 3f
       0.88107556 0.3734569 -0.9058328 0.6377431
000140 ff 3b b2 3f b3 5a 9e 3e 47 a1 95 bf 85 1d 2c c0
       1.3924559 0.30928573 -1.1689843 -2.6893017
000150 51 37 fc bf 58 81 e1 bf 0a a3 34 3f f6 a8 93 be
       -1.9704381 -1.7617598 0.7056128 -0.28839844
000160 a0 98 17 3f d2 bd ea bd aa 7b 01 bf c4 2a 85 3f
       0.5921726 -0.114619866 -0.5057932 1.0403676
000170 53 10 98 3f 95 c5 1b 3f ba 03 4b 3e ef fa 05 3d
       1.1879982 0.6084836 0.1982564 0.032710012
000180 00 00 00 00 00 00 00 00 00 00 00 00 00 00 00 00
       0.0 0.0 0.0 0.0
000190 00 00 00 00 00 00 00 00 00 00 00 00 00 00 00 00
       0.0 0.0 0.0 0.0
0001a0 00 00 00 00 00 00 00 00 00 00 00 00 00 00 00 00
       0.0 0.0 0.0 0.0
0001b0 00 00 00 00 00 00 00 00 00 00 00 00 00 00 00 00
       0.0 0.0 0.0 0.0

hist_lstm.weight_ih_l0 f4 [256, 16]
000000 c0 fd b7 3d 1a 76 9e bd dc b1 ff 3d 8c 58 79 3d
       0.08983946 -0.0773737 0.12485096 0.06087546
000010 b6 ca c5 bd 80 be d6 bd a0 67 b5 bc 30 f6 b9 3d
       -0.09657805 -0.10485554 -0.022144139 0.0908016
000020 e4 f3 46 3d ca a1 b6 3d a0 b7 8e 3b 38 c1 62 3d
       0.048572436 0.089175776 0.004355386 0.05536005
000030 98 00 d1 bd e4 d6 84 3d ee 81 8f bd c0 f2 94 bd
       -0.102051914 0.064863 -0.07007204 -0.072728634
000040 de 68 82 3d 34 2a c5 3d f8 32 dd 3c 24 86 7c 3d
       0.06367658 0.0962719 0.027001843 0.061651364
000050 b8 5c f2 3c 64 c5 be 3d 20 df 84 bb c4 b8 a9 3d
       0.029585227 0.09314993 -0.004054919 0.08287194
000060 68 b1 e3 bc 26 39 c8 3d 80 cc 31 bb 24 83 be bd
       -0.027794555 0.09776525 -0.0027129948 -0.09302357
000070 a0 33 c9 3d 20 1a d3 bd f0 0d da 3d c2 53 93 bd
       0.098243 -0.10307717 0.106471896 -0.0719371
000080 da 1d fd bd a0 db 5c 3c 08 a4 bb 3d a0 0e 5f bc
       -0.12359209 0.013480097 0.09162146 -0.013614327
000090 80 e8 95 bc 00 fd 57 bb 4c b5 34 bd d8 8a c3 bc
       -0.018299341 -0.0032957196 -0.04411821 -0.023869917
0000a0 f0 3f 04 bd 38 a7 f0 bc 22 5b e4 bd e8 49 62 3d
       -0.032287538 -0.029376611 -0.11150195 0.055246264
0000b0 10 b4 f9 bd 50 16 4b 3d a0 03 b3 3b 7c 9a ab 3d
       -0.12192547 0.049581826 0.0054630786 0.08379075
0000c0 c0 a5 81 bb dc f0 a7 bd 40 27 c7 bd 4a 0f c6 bd
       -0.0039565265 -0.08200237 -0.09724283 -0.09670885
0000d0 c8 74 4e 3d 08 2b b0 bc a0 05 85 bb fc 33 fc 3d
       0.05040434 -0.021504894 -0.0040595084 0.12314603
0000e0 08 9d ac 3d 64 7f 99 bd 78 e1 f1 bd 58 b3 ed 3c
       0.08428389 -0.07495001 -0.11810583 0.029016182
0000f0 f2 4d e3 bd 46 70 e4 bd 10 88 b3 3d 2a bc ec bd
       -0.11098851 -0.11154227 0.08766186 -0.11559327
000100 e2 5c d4 bd 74 f8 3e 3d 90 5e 32 3c 74 77 eb 3d
       -0.103692785 0.046623662 0.010886803 0.11497393
000110 16 a3 96 bd 64 62 e8 bd 78 9a f5 bd e4 33 9d 3d
       -0.07355325 -0.113468915 -0.11992353 0.07675913
000120 06 60 83 3d d0 11 b4 3c a0 34 65 3d 8a da ed 3d
       0.064147994 0.02198115 0.05595839 0.11613949
000130 20 cd f3 bc 10 46 f8 3c 34 aa c7 bd f0 84 7b 3d
       -0.029760897 0.030306846 -0.097492605 0.061406076
000140 36 16 aa bd 70 ab d0 3d fa 2b 81 bd 5a 57 80 3d
       -0.08305018 0.10188949 -0.06307216 0.06266661
000150 e2 cb c4 3d f0 bd bd 3d d0 8b ff 3d 80 86 40 bb
       0.096092 0.09264743 0.12477839 -0.0029377043
000160 b4 5a 15 bd f8 ee df 3d ac 85 48 bd 30 3c 77 3d
       -0.036463454 0.109342515 -0.048955604 0.060360134
000170 5e 8b 94 3d 22 14 93 bd fa 06 df 3d 98 1b 50 3d
       0.07253145 -0.071815744 0.108900025 0.050807565
000180 3e b7 ae 3d 10 a8 75 bd 54 35 90 3d 6c da 4b 3d
       0.085310444 -0.05997473 0.070414215 0.04976885
000190 fa 5c ca 3d 2a 5f b1 3d c2 20 96 bd f4 e0 f5 bd
       0.09881015 0.08660729 -0.07330467 -0.12005797
0001a0 82 22 e5 bd 20 d3 78 bd b0 20 12 3d 20 66 cc 3b
       -0.111882225 -0.06074822 0.035675704 0.00623776
0001b0 20 0e 92 bb 0e de ae bd 60 9f 68 3d 68 73 97 3c
       -0.0044572502 -0.08538447 0.056792617 0.018487647
0001c0 50 2b a1 bc f4 b8 27 3d 5c 88 71 bd 70 fa 1d bd
       -0.019673973 0.04094787 -0.058967933 -0.038568914
0001d0 90 72 fb 3d 98 43 f5 bc a8 85 d0 3d f8 88 97 bd
       0.122777104 -0.029939458 0.10181743 -0.073991716
0001e0 80 19 55 3d d4 06 81 3d 1a 15 f5 bd 98 4e 65 3d
       0.05202627 0.063001305 -0.119669154 0.055983156
0001f0 60 ff 8a bd 36 e9 ec 3d a4 3b b6 bd 48 9c cd 3c
       -0.0678699 0.11567919 -0.08898094 0.025098935
000200 08 6c e0 3c 74 ea 9b 3d 10 50 43 3c d0 45 2f bc
       0.027395263 0.07613078 0.011920944 -0.010697797
000210 6c 35 8a 3d 00 cb 26 3c 60 05 88 bd a6 1d c2 3d
       0.06748471 0.010180235 -0.0664165 0.09478311
000220 80 8f 43 bc 94 97 84 bd 98 47 ba 3c 00 5d 7b bd
       -0.011936069 -0.06474224 0.022739217 -0.06136799
000230 dc 66 88 3d d6 7a f3 bd 00 c0 8a bd e4 5c ea bd
       0.06660244 -0.118886635 -0.06774902 -0.11443499
000240 38 dc af bc 12 e5 b9 3d c4 13 8d 3d 50 19 fa bc
       -0.021467313 0.09076895 0.068885356 -0.030529648
000250 f0 4b ef bc 76 14 8a 3d 32 4f b5 3d 44 2a bd bd
       -0.029211015 0.06742184 0.08852996 -0.09236577
000260 ae 50 9f bd 30 9c cc 3d 50 5b e9 3c 18 57 e8 bd
       -0.0777906 0.09990728 0.028485924 -0.11344737
000270 72 25 de 3d fe ef c2 bd c8 37 b6 bd 40 d1 ab 3b
       0.10846986 -0.09518431 -0.08897358 0.0052434504
000280 a0 b0 78 3c 18 2d 96 bd 7e d7 f9 3d b4 d3 f7 3d
       0.015178829 -0.0733282 0.12199305 0.12100926
000290 28 35 e9 3d d6 8a a4 bd 14 b5 92 bd 30 d5 5d bc
       0.11387092 -0.08034293 -0.07163444 -0.013539597
0002a0 f8 1b fc bc b0 f7 5d bc c0 09 1c 3d 34 f6 af 3d
       -0.030775055 -0.013547823 0.038095236 0.085918814
0002b0 50 93 af 3d 40 84 90 3c 88 a7 c8 bd 10 bb dd bc
       0.085730195 0.017641187 -0.09797579 -0.027066737
0002c0 d4 52 39 bd 26 b3 8c bd 00 7a fc 3c e4 9b b6 3d
       -0.045245007 -0.06870107 0.030819893 0.089164525
0002d0 56 92 fa bd 8c 38 0c bd c0 01 58 3d b4 61 3a 3d
       -0.122349426 -0.034233615 0.052736044 0.045503333
0002e0 dc 5d 01 3d 58 7d 89 3d a0 e1 8d 3c 78 c2 11 3d
       0.031583652 0.067133605 0.0173195 0.03558585
0002f0 d6 96 9a bd 1c 30 04 bd f0 f2 a7 3c 7e 16 8c bd
       -0.07548301 -0.032272443 0.020501584 -0.068402275
000300 32 bc f0 bd 48 02 b0 bc 50 d7 5f bd 04 29 4a 3d
       -0.117546454 -0.021485463 -0.054648697 0.04935552
000310 f8 6c 71 3d 9c ae b6 3d e0 0e 93 bb 40 b0 45 3b
       0.05894181 0.08920023 -0.004487857 0.0030164868
000320 f4 74 b3 3d 08 03 16 bd 24 01 86 bd 04 c8 1f 3d
       0.087625414 -0.036623985 -0.06543186 0.03900911
000330 5c 63 dc bd 20 f9 a1 bd bc b1 f2 bd 38 a1 c0 bd
       -0.10761139 -0.07908845 -0.118503064 -0.0940575
000340 b4 5b 2d bd 34 bf 60 bd d4 20 e1 bd b0 4a 93 bd
       -0.042323783 -0.054869846 -0.109925896 -0.0719198
000350 78 70 13 3d 68 5a 93 bd 64 77 4c bd 50 33 a6 bc
       0.03599593 -0.07194978 -0.049918547 -0.02028814
000360 38 51 ba 3d 40 74 1a bd bc 69 37 3d fe 77 8f 3d
       0.090975225 -0.03770852 0.04477857 0.070053086
000370 3c e0 28 bd 50 47 a5 3c aa 96 ae 3d c4 6a 32 3d
       -0.04122947 0.020175606 0.08524831 0.04355885
000380 c6 55 ca 3d f8 d9 29 3d 6c 82 01 3d 68 24 cb bc
       0.09879641 0.041467637 0.03161852 -0.024797633
000390 6e 1c be bd 38 2e 89 bd 0c 41 01 3d aa 51 8a 3d
       -0.09282766 -0.06698269 0.031556174 0.067538574
0003a0 7e 7b cf 3d ba 03 c0 bd e4 1b 9d bd 18 a8 b6 3c
       0.10130976 -0.09375711 -0.07671335 0.02229695
0003b0 92 e9 e6 bd a6 94 f5 bd 90 87 3d bd 7a 2b a9 bd
       -0.11275019 -0.11991243 -0.04627186 -0.082602456
0003c0 a0 b9 72 bc bc 55 b6 3d 98 1a 9d bd 30 53 94 3d
       -0.014814764 0.08903071 -0.07671088 0.07242429
0003d0 10 f1 ec 3c 7c bc 05 bd d0 b3 28 3d c8 41 6e 3d
       0.028923541 -0.032650456 0.041187108 0.058168203
0003e0 20 9b 8c bd be d0 b2 bd 24 68 c8 bd 8c 33 15 3d
       -0.06865525 -0.08731221 -0.09785488 0.036426112
0003f0 88 b8 f3 3c 86 4c b1 3d 90 75 9e 3c dc 0d de bd
       0.029751077 0.08657174 0.019343168 -0.10842487

hist_lstm.weight_hh_l0 f4 [256, 64]
000000 8d 59 bb 3d 59 d0 ac 3d d9 13 91 bd e4 e2 01 be
       0.0914794 0.08438177 -0.07083864 -0.12684208
000010 2a 3c 01 be f3 f2 40 3c d3 79 bb bc 9d ce f0 3c
       -0.12620607 0.011776674 -0.022885239 0.029395396
000020 f6 61 95 bd 10 ef cf 3d 98 3f bb bc 36 45 8c 3d
       -0.07294075 0.101530194 -0.022857472 0.068491384
000030 88 31 95 bc cb 17 ca bd 5b 66 aa bd aa 1d bf bc
       -0.018212095 -0.098678194 -0.08320304 -0.023329575
000040 94 13 aa bd 08 c9 a0 3d 94 bb 20 bd c4 0d 6e 3d
       -0.083045155 0.07850844 -0.03924139 0.058118597
000050 8b ac b0 3d 82 f7 96 3d a5 1f 4f 3d c9 e3 23 bc
       0.0862666 0.07371427 0.050567288 -0.010003039
000060 8a 07 da bd f9 aa 8c 3d 4f 6c ff bd 78 2a 98 bc
       -0.10645969 0.06868548 -0.1247183 -0.018574938
000070 01 55 54 bd 5b 4f 42 bd c8 f9 8e 3d dc 59 46 3c
       -0.05183888 -0.04743896 0.06981236 0.012106385
000080 83 cd 7f bd 6c 0a 2e bd c4 b0 8e bd df 7c c0 3d
       -0.06245185 -0.042490408 -0.06967309 0.09398817
000090 97 a3 cc 3d 21 15 63 bb 93 4b 44 3d c3 ab a3 bc
       0.0999214 -0.0034650045 0.047923636 -0.019979363
0000a0 c2 bc 04 bd 2f 01 c3 3d 84 92 75 3d 53 bc 23 3d
       -0.032406576 0.0952171 0.05995418 0.03997452
0000b0 0b c3 d3 bd b0 1c 39 3d 72 1f 06 bd 0b e5 3e 3d
       -0.10339936 0.045193374 -0.032744832 0.04660515
0000c0 8b ff 4a 3d fa 64 d8 3b 07 1a c5 bd 00 3f c4 bd
       0.04956011 0.006603834 -0.09624105 -0.09582329
0000d0 aa 82 3c 39 cc bc 79 bd 9b d5 87 3d 78 43 c8 bd
       0.00017977753 -0.060971066 0.06632539 -0.09778494
0000e0 e9 4c 31 3d ca 49 08 3d 7c 2c 0a 3e 36 5c cc bd
       0.043286238 0.033273496 0.13493532 -0.09978525
0000f0 25 c4 a1 bd e1 c6 1a 3d ba 42 13 3d c3 dc cd bd
       -0.0789874 0.037787322 0.035952307 -0.100518726
000100 ff d6 ab 3d 98 7b f1 bc b6 23 a7 3d 4f e7 7e bd
       0.083906166 -0.02947788 0.08161108 -0.06223231
000110 a8 72 da 3d c3 54 9a bd 4a 40 0d be cc 44 b0 bd
       0.106664 -0.07535698 -0.13794056 -0.08606872
000120 74 da 0b bc 35 c2 23 bd e2 a3 21 bc 45 96 ae 3d
       -0.00853597 -0.039980132 -0.009865733 0.085247554
000130 cb c1 9e bd 3b ea a0 bc 18 e8 6b bd 69 66 df bd
       -0.07751807 -0.01964294 -0.05759439 -0.10908205
000140 d0 75 a5 3d dd 7f 02 3d f8 61 f7 bd 1a ac 8c bd
       0.080791116 0.03186022 -0.12079233 -0.06868763
000150 41 28 7c bd 35 70 a8 bd 31 b0 26 3e 81 15 84 bd
       -0.061561827 -0.08224527 0.16278149 -0.06449414
000160 d8 ca 07 be 03 25 bd 3d 5a c9 cf 3d 6a 17 89 3d
       -0.13260972 0.09235575 0.10145827 0.06693919
000170 ae df 84 3d 7b f8 be bd 83 bf 7f bb 1d 36 90 bd
       0.06487976 -0.09324738 -0.0039024062 -0.07041571
000180 b4 2c b3 3b da 4b ab bd 66 42 c9 bc 32 ce d5 3c
       0.0054679755 -0.08364077 -0.024567794 0.026099298
000190 f5 91 52 3d 7f 11 cc 3d 80 00 8c bd 26 be 46 bd
       0.051408727 0.099642746 -0.06836033 -0.048521183
0001a0 3c 27 c4 3d 50 79 0a 3e 6b 83 ab 3d 1a bf 9f 3d
       0.09577796 0.1352284 0.08374675 0.078001216
0001b0 2a e0 ca bd a0 f7 3f 3c 11 3a f0 3d 8a 3e 75 bb
       -0.09906037 0.011716753 0.11729825 -0.003742131
0001c0 b6 c1 a3 3d 2f c6 84 bb 10 b3 b3 bc d6 9c b8 3d
       0.07995932 -0.0040519456 -0.02193597 0.09014289
0001d0 a5 b9 47 bd ab a7 04 3e 0c 0f 9b bd 59 1d d1 bd
       -0.04876103 0.12954585 -0.07571229 -0.10210676
0001e0 e8 3d d4 bd 6c 28 7d bd dd 83 8a bd 68 6a 25 3d
       -0.1036337 -0.061806127 -0.06763432 0.04038468
0001f0 dd b5 c1 3d 9d 42 cb bc c9 a1 21 bd 78 bd cb bc
       0.09458516 -0.024812037 -0.03946093 -0.02487062
000200 96 6d 46 3d 56 fb b3 3d 0b 98 93 3d e9 0e 97 bd
       0.048444353 0.08788173 0.07206734 -0.07375891
000210 9e 3f 51 bd 18 fd 2b bd c8 b6 c0 bd c9 49 c7 bc
       -0.05108606 -0.041989416 -0.09409863 -0.024327176
000220 c1 6c e9 3d 2b ec c4 39 00 e8 19 3e d4 0e 69 bd
       0.11397696 0.00037559992 0.15029907 -0.056898907
000230 6f ba 29 be 1d 10 89 bd ff 57 af 3d 9e 8a 93 3d
       -0.16575025 -0.066925265 0.08561706 0.072041735
000240 2b b0 90 3d 5e b1 08 3e e2 4c 98 bd aa 3a 90 3d
       0.070648514 0.1334891 -0.07436539 0.07042439
000250 11 99 54 3d e5 83 94 bc 70 fc ab 3d 4e 57 d2 3b
       0.051903788 -0.018129298 0.08397758 0.006419099
000260 d4 e0 a2 bc 99 85 61 3d 7d 97 e7 bc bb 6d ea bd
       -0.019882597 0.05505905 -0.028270477 -0.11446711
000270 48 af 91 bd 1a 86 09 3e 8b 04 35 be cd 43 0b 3e
       -0.0711351 0.13430062 -0.17677514 0.13600083
000280 fb 54 ca bd b2 1b 14 be 32 e2 0a 3e a3 72 a2 3d
       -0.0987949 -0.1446369 0.13562849 0.079320215
000290 ea ec d6 3c 3e 0f 61 3c 3d 22 41 3c 10 f0 0d bc
       0.026236016 0.013736544 0.011787948 -0.008663192
0002a0 06 2b fd 3c 8e 7d 33 3b bf 82 8c 3d 5a d0 6d bd
       0.030904304 0.002738807 0.06860875 -0.058060028
0002b0 a5 b7 5a 3d e5 c8 3c 3d a4 7a 99 3b b2 e8 24 be
       0.053397793 0.046090025 0.0046838094 -0.16104391
0002c0 86 2b 89 bb 76 ad 07 be 6c d6 0f 3d 4f d3 86 3c
       -0.0041860966 -0.13249764 0.035116598 0.016458182
0002d0 73 9a 8d bd 4f 37 9c bd 63 fc e9 3c 07 e2 7b 3d
       -0.069142245 -0.07627737 0.02856273 0.061494853
0002e0 c3 7b 0b 3e c6 cb 6d 3d 09 52 02 bd 1c 2a 83 3d
       0.1362143 0.05805566 -0.031816516 0.06404516
0002f0 12 e9 e5 bd 2d 65 38 bd 1c 68 09 bd 15 2c 18 be
       -0.11226095 -0.045018364 -0.033546552 -0.14860566
000300 18 4a 85 3d 0d 51 07 3e cd 7b 0c be f8 ad d7 bd
       0.06508273 0.13214512 -0.13719101 -0.10531229
000310 90 50 31 3d 9c b9 20 be 77 58 15 be 68 07 b5 bd
       0.04328972 -0.15695804 -0.14584528 -0.08839303
000320 e8 8d b8 bc 0b 9c 82 3d bd 6e 8a bd b6 cb 6c 3c
       -0.022528604 0.06377419 -0.06759403 0.014452865
000330 59 23 8b 3d 7e 46 ec 3c 2d 65 a3 3d 0c d3 92 bd
       0.067938514 0.028842207 0.07978282 -0.0716916
000340 6e 83 0f 3e 64 a9 8e bd db 65 d0 bd 67 85 f6 bd
       0.1401498 -0.069659024 -0.101756774 -0.12037163
000350 41 a6 d4 3d 0d 16 6f 3c 19 3c d1 bd 52 cd 02 bd
       0.10383273 0.01459266 -0.10216541 -0.03193409
000360 c2 9c ac bd d4 79 4d bd 76 e8 ad 3d 65 90 26 bd
       -0.08428337 -0.050165012 0.08491604 -0.04066505
000370 8b fe f9 bd fc 60 87 bd ae a7 24 be 52 9b 29 bb
       -0.12206753 -0.06610295 -0.1607959 -0.0025879932
000380 66 62 25 be 99 55 84 bd 77 6e 1b 3d 04 fc 1c 3e
       -0.16150817 -0.06461639 0.037947144 0.15330511
000390 5b 2a 92 3d 3c db d0 3d 06 b8 f7 bc 0d cc 0a 3e
       0.07136985 0.10198066 -0.030239116 0.13554402
0003a0 9b 5c a7 bd 0d 65 9f bd 65 43 14 3e 1f 3d 4f 3d
       -0.0817196 -0.07782946 0.14478834 0.0505954
0003b0 e5 6d 11 be 56 5c 87 bd da 78 0e bd 86 c3 13 be
       -0.14202078 -0.066094086 -0.03478322 -0.14430055
0003c0 69 a4 d1 bb 5e c0 94 bd d5 17 4d 3d cb 45 27 bd
       -0.006397773 -0.07263254 0.050071556 -0.040838044
0003d0 5e 22 5d 3c 04 ce ce 3d 55 8f 5d bd 55 47 cd 3d
       0.013496963 0.10097888 -0.05409177 0.10023371
0003e0 47 4d a6 3d 48 32 87 bd 45 39 b1 3d fb 8f cc bd
       0.08120208 -0.06601387 0.086535014 -0.099883996
0003f0 e8 66 8a bc 2e c3 ca 3d 4a 7d 03 be b8 9b 12 be
       -0.016894773 0.09900509 -0.12840763 -0.14317214

hist_lstm.bias_ih_l0 f4 [256]
000000 34 d7 23 bd 89 31 e6 bd 74 85 bb 3d 81 80 a8 bb
       -0.040000156 -0.11239917 0.091563135 -0.005142272
000010 10 78 3b 3c 33 55 bb 3c 21 c6 19 3d 4e bb b7 bd
       0.011442199 0.022867775 0.037542466 -0.089712724
000020 b8 8e dc bd 48 83 a4 3c e6 a4 a0 bc 67 75 e1 bd
       -0.10769409 0.020082131 -0.01960988 -0.11008721
000030 3c ba a3 bd 4c a4 c1 3d 68 d1 d8 bd cf 65 f1 3b
       -0.07994506 0.09455165 -0.10586816 0.007366873
000040 c6 c9 39 bd c1 a5 ef bc 37 ae 22 3d 86 44 96 3d
       -0.04535844 -0.029253842 0.039716925 0.073372886
000050 dd 6d 1c 3d 0e 03 41 bd 54 18 7d bd 2d f7 4f 3d
       0.03819071 -0.047122054 -0.06179078 0.050772835
000060 f1 05 20 bd 2a 34 48 3d 05 c9 2b bd 5d 11 9e 3d
       -0.039068166 0.048877873 -0.041939754 0.077181555
000070 96 99 8c 3c cb 9e 38 bd ae 52 99 3c 55 dd 10 3e
       0.01716308 -0.04507331 0.018716183 0.14146931
000080 51 6f 93 3d 5c 30 fa 3d 5d 92 5b bd 33 26 d0 3d
       0.07198966 0.12216255 -0.05360638 0.10163536
000090 11 78 82 bd 36 23 be 3b 0c 35 1b 3e 0d 94 f3 bc
       -0.06370557 0.0058025373 0.15156955 -0.029733682
0000a0 5d 41 9e bc 25 c3 36 bd 9a 0e 0d 3c f3 b2 00 3e
       -0.019318277 -0.044619698 0.008609438 0.12568264
0000b0 85 8e c5 3d 42 9b b2 bd da 7d ed bc 50 5e 08 3e
       0.09646324 -0.08721019 -0.028990675 0.13317227
0000c0 a9 e5 b9 3d 7f cf f4 3c ec 89 79 bd 0c 8e 8f 3d
       0.09077007 0.029884098 -0.06092255 0.07009515
0000d0 47 46 84 3d 13 85 aa 3d 1f 56 59 bd 60 79 9c 3d
       0.06458717 0.08326163 -0.053060647 0.07640338
0000e0 80 bf 05 3e ac ee f7 ba c9 d2 a5 3d 0e fb 03 bd
       0.13061333 -0.0018915734 0.08096845 -0.032221846
0000f0 49 7c 9f bb f8 e1 fc 3d fe 0b c1 bd 52 6e 0e 3e
       -0.004867111 0.123477876 -0.094261155 0.13909271
000100 c5 1a 02 3d e3 62 c2 3c fb a0 25 bd e3 df fe 3d
       0.03176381 0.023728793 -0.040436726 0.12445047
000110 46 e9 00 3e 39 bb 90 bc 97 ba ff 3d fa 02 af 3d
       0.12588987 -0.0176674 0.12486761 0.085454896
000120 61 2a df 3b 2e d9 84 bc 06 df 1e 3e 50 2d dd bd
       0.006810472 -0.01621684 0.15514764 -0.10799658
000130 3d 67 86 3d 86 fd 28 bd c1 a2 59 3d 36 5b 60 3d
       0.0656266 -0.041257404 0.05313373 0.054774486
000140 c0 69 02 3d 57 64 25 3d 12 ab b0 3d 35 21 dd 3d
       0.031839132 0.040378895 0.08626379 0.10797349
000150 df 32 f8 3d 62 a0 11 bd 30 12 ed 3d 0b db 05 3e
       0.12119078 -0.035553344 0.115757346 0.1307184
000160 14 dc 90 3d 6d 4a 6f 3d 5a 41 02 3d 23 5b d8 3d
       0.070732266 0.058420587 0.031800605 0.10564258
000170 5a 24 de 3d d0 74 e0 3d f6 cf 93 3d 79 71 13 3d
       0.10846777 0.1095978 0.072174 0.035996888
000180 26 7e 63 bd dd 42 21 3e fe ee b0 bd 08 16 c5 3d
       -0.055540226 0.15748163 -0.08639334 0.09623343
000190 fb e1 bf 3d 14 88 8a bd 48 a1 f3 3d 8d 6d ca bb
       0.09369274 -0.06764236 0.11895996 -0.0061776103
0001a0 33 93 58 bc 03 7f ef 3d 05 59 80 bd b4 f1 0b bd
       -0.013218689 0.116941474 -0.06266979 -0.034166053
0001b0 ef 8e 7f 3c c2 2e 8d bd 4e 23 22 bc 22 f2 f2 3d
       0.015598043 -0.06893684 -0.009896113 0.118625894
0001c0 21 a8 96 bd 7f c3 a9 3b 37 62 c3 3d d9 d9 7b bd
       -0.07356287 0.0051807757 0.09540217 -0.061487053
0001d0 af a7 d6 bc 03 88 a6 3d 1b 59 cc 3d cc 80 5d 3d
       -0.026203005 0.08131411 0.09977933 0.05407791
0001e0 e7 35 02 3e e4 7b c2 bb 1b 06 68 bc e4 71 d6 bc
       0.12715875 -0.005935179 -0.014161612 -0.026177354
0001f0 e7 ba 15 3e 2d 0f 2a 3d 46 f5 e8 3d 08 ef 7c 3c
       0.14622079 0.04151838 0.11374907 0.015437849
000200 9e b5 0b bd 62 2f ba 3d 1c 3b be bd 7b ab 4a bd
       -0.03410875 0.09091069 -0.09288618 -0.049479943
000210 b8 23 87 bd 2a 24 0f be f9 df 05 be 64 24 14 be
       -0.0659861 -0.13978639 -0.1307372 -0.14467007
000220 fe af 2d 3c 93 72 cb 3d 41 29 41 3c 5c 6b f7 bc
       0.010601042 0.09933963 0.011789621 -0.03020256
000230 dc 1f 0f be 45 5f 3d 3c cd 60 06 3e f6 a7 0f be
       -0.13976997 0.011558359 0.13122864 -0.14028916
000240 5e 29 91 3b 34 a7 17 3e f5 d0 3b bc c1 0e 06 be
       0.00442998 0.14809877 -0.011463393 -0.13091566
000250 ff ec 43 3c 49 6e 26 3c b5 c7 a3 bd f5 49 f6 bc
       0.01195836 0.01015813 -0.079970755 -0.030064562
000260 60 e3 cc bd bb 7c b0 bd 0f 45 e9 bc f6 3b bc 3d
       -0.10004306 -0.086175404 -0.028475313 0.09191124
000270 ff 0c 2f bd 56 32 2d bd be 3c b5 bd 18 0d 58 3c
       -0.042737003 -0.042284332 -0.08849476 0.013186716
000280 30 7c 22 3d 60 b4 18 be 8a 5c 19 3e c8 d0 bd 3d
       0.039669216 -0.14912558 0.14976707 0.092683375
000290 e6 99 0d bd f8 cb 25 bd 09 f1 cf bc d2 1c 94 3d
       -0.034570597 -0.040477723 -0.02538349 0.072320595
0002a0 d2 2f d4 bd 55 65 13 3e b5 b9 73 3d 90 5d 08 3e
       -0.103606835 0.14394124 0.059503276 0.13316941
0002b0 04 7b 9f 3d 9f 0e 17 3e c5 45 e0 3c fd 97 ad bd
       0.07787135 0.14751671 0.027377019 -0.08476255
0002c0 21 a9 63 bd 78 bf 07 be a4 86 07 3e 81 ad c9 3d
       -0.055581216 -0.13256633 0.13234955 0.09847546
0002d0 0a f6 6e 3d 52 b0 04 bd b1 37 d3 bc 85 56 87 3d
       0.05834011 -0.032394715 -0.025783392 0.06608299
0002e0 0a 8e d4 3c e8 89 b4 bb 83 07 07 3e 26 3c 0f be
       0.025946636 -0.005509604 0.13186459 -0.13987789
0002f0 f3 2c 49 bd 14 f9 29 3d 19 ce c5 bd f1 27 ce bc
       -0.049115133 0.041497305 -0.09658451 -0.02516553
000300 de c3 d3 3c f7 ca d9 3d c0 13 00 3e 63 8b 36 3d
       0.025850233 0.106344156 0.12507534 0.044566523
000310 ae fe 82 3d 9d 13 97 3b 27 45 dd bc 48 a4 ca bc
       0.063962325 0.0046104924 -0.027010513 -0.024736539
000320 df 1f 79 bd 3f b6 b1 3d ad fb fa 3d bf 90 b5 3d
       -0.06082141 0.08677339 0.122550346 0.08865499
000330 c5 cf ae 3d 08 c1 dd 3d c7 0e d6 3d 7c 1b ab 3d
       0.08535723 0.108278334 0.10452037 0.083548516
000340 7b e6 97 3c 4c 3b df 3b 99 68 6b bd 05 01 19 3e
       0.018542519 0.0068124887 -0.0574728 0.14941795
000350 8d c4 ce bb 47 37 f4 bd d1 4e 63 3d 9d fe bb bd
       -0.006310052 -0.11924606 0.055495087 -0.09179423
000360 e6 94 9c 3d 92 72 e0 3c 86 a6 c7 3d 54 eb 96 bd
       0.076455876 0.027398381 0.09748559 -0.07369104
000370 64 59 f7 3d d3 d2 6a bb 7d b3 0a 3b 0b b8 f7 3d
       0.12077597 -0.0035831227 0.0021164112 0.1209565
000380 58 09 0a 3e e6 6a 8d bd da 36 99 bd 0f ef 7c bd
       0.13480127 -0.06905155 -0.07481165 -0.06175142
000390 4e 04 32 3c 16 bc 0b bd 18 bf 08 3e a4 e0 a1 bd
       0.010865284 -0.03411492 0.13354146 -0.07904175
0003a0 43 03 53 bc f7 a9 d5 3c d6 94 24 3e a4 a8 c2 3d
       -0.012879196 0.026082022 0.16072401 0.09504822
0003b0 a7 94 c1 bd f0 81 a5 3d 3e 1a d0 3c 45 91 55 3c
       -0.09452181 0.08081424 0.025403138 0.013035123
0003c0 b9 61 99 bd d1 6c 89 bd cd 81 93 3d df c3 1b bd
       -0.07489342 -0.06710208 0.07202492 -0.038028594
0003d0 4c 53 de 3c e4 c4 3f bd 5d e7 7f 3d 18 73 10 3e
       0.027139328 -0.04681863 0.062476505 0.14106405
0003e0 7a f7 ac bc bd 40 01 3e 49 6f 3c bd 54 01 28 3d
       -0.0211141 0.12622352 -0.046004567 0.04101689
0003f0 f0 35 45 3d 08 31 fb 3c 4a d1 eb bc a0 42 e9 3d
       0.048147142 0.030663028 -0.02878632 0.11389661

hist_lstm.bias_hh_l0 f4 [256]
000000 3d 4c 27 bc f5 ac 86 bd ef f5 15 3e ad ec 25 3e
       -0.010211048 -0.06575958 0.14644597 0.16203566
000010 51 60 13 3c 8a 91 bf bd e4 f0 c2 bd a5 3e af 3c
       0.008995132 -0.09353931 -0.095186025 0.021392176
000020 83 9d 68 bb 02 fb b2 bd c2 ef 54 bd 0a 4a 24 bd
       -0.0035494275 -0.08739282 -0.051986463 -0.04010967
000030 b9 15 db 3c be a2 a7 3d 3e 91 03 3d 69 b1 d8 bc
       0.026743757 0.081853375 0.032120936 -0.026451783
000040 1c 39 3f 3d 1d 2d d0 bb a2 f1 0a bd de a6 29 3e
       0.046685323 -0.006353034 -0.033921845 0.16567561
000050 b8 7e 04 bd b6 fc b4 3d ee a2 ed bc d1 3b e7 3c
       -0.03234741 0.08837263 -0.029008355 0.028226765
000060 9a 39 8f 3d eb d6 97 bd 4b 5b da 3d dd 55 cc 3d
       0.069934085 -0.07414039 0.10661944 0.099773146
000070 7f bf 0d 3d 45 79 fc 3d 28 af 2e 3d 23 f1 a7 bd
       0.034606453 0.12327818 0.04264751 -0.0820029
000080 bc 33 ab 3a e3 3f cd 3d 7d 9f 0f bd d5 8e e1 3a
       0.0013061683 0.10021951 -0.03506421 0.0017208705
000090 8f e7 1f bd 1d 61 a1 bc a4 88 53 3d c5 25 c4 3d
       -0.03903919 -0.019699628 0.051643983 0.095775165
0000a0 85 1a b9 3d 10 50 cc 3b 9f 25 18 3e 73 78 96 3d
       0.09038261 0.00623513 0.14858101 0.073471926
0000b0 a7 d1 c3 bd dc f2 3a bd 0c dd a1 bc fc 30 c2 bd
       -0.095614724 -0.045641765 -0.019758724 -0.09481999
0000c0 f1 21 f4 3d a1 ee 93 3d 96 d6 e4 3d 1e 81 8f 3d
       0.11920536 0.07223249 0.111737415 0.07007049
0000d0 b4 7a e1 bd 64 52 2c bd 12 46 62 bc d8 ea d7 3d
       -0.11009732 -0.04207076 -0.013810651 0.1054284
0000e0 f9 d9 7e 3d fb e2 69 bd 0f c9 00 3e 23 3d 16 3e
       0.062219594 -0.05710123 0.12576698 0.1467176
0000f0 2f eb b0 3d 95 f2 58 3b d3 e1 83 3d 69 94 0b 3d
       0.08638608 0.0033103575 0.06439557 0.03407708
000100 1f 8e c0 3b 2e 90 83 3d 50 05 cc 3d 3f 4b da 3d
       0.005876317 0.064239845 0.09961951 0.10658883
000110 28 4a bf 3c 6d 4f 90 bd 2f a9 3b 3c 58 0e 5d 3b
       0.02335079 -0.07046399 0.011453911 0.0033730473
000120 59 8c 2a bc d0 b9 08 3e e6 47 7f 3d 9a 30 ed 3d
       -0.010409438 0.13352132 0.062324427 0.11581536
000130 9a 45 9d 3c 58 8b bc bd 3a 6d cb 3d 59 a7 8e bd
       0.019198228 -0.09206265 0.09932943 -0.06965513
000140 fc ef e8 3d 60 1f 76 3c 67 32 75 bd 23 87 26 bd
       0.113738984 0.015022129 -0.05986252 -0.04065622
000150 cb 2b 68 bb 2e b3 4c 3d ae 33 9c bc 62 6b 11 3d
       -0.0035426493 0.049975567 -0.019067612 0.0355028
000160 5e 94 c6 3d b2 59 a0 3d b0 6b 93 bc 05 c7 03 3d
       0.096962675 0.07829608 -0.017995685 0.03217222
000170 3b 25 de 3c 55 9a 60 3d 19 9d e3 3b fc ae a6 3d
       0.027117362 0.054834682 0.0069462177 0.08138844
000180 43 90 9e bd 55 f7 08 3e 1b 87 63 3c 51 f2 18 3e
       -0.077423595 0.133756 0.013887192 0.14936186
000190 fb 8b 4d b8 3e b5 2a 3d 38 5e 0a 3e b3 c5 dc 3d
       -4.9006176e-05 0.041676752 0.13512504 0.10779896
0001a0 3a c6 8a 3d 2a 68 23 3d 89 df e8 3d dc 01 14 3e
       0.0677609 0.03989426 0.11370761 0.14453834
0001b0 ec 4d 0b be 51 4f 51 bb a7 e8 18 bd 69 43 0e 3d
       -0.13603944 -0.0031938145 -0.03733125 0.034732256
0001c0 e8 d9 74 bd 32 10 f5 3d 70 d6 5b bd a8 1e 45 3d
       -0.059778124 0.1196598 -0.0536713 0.04812494
0001d0 04 6d ad bc fb 8c b2 3d b1 68 8d 3d 4b 6f 82 bd
       -0.021170147 0.08718296 0.06904734 -0.06368884
0001e0 3f 6d d5 3b ac 90 b3 3d 20 aa 05 3e 8c 91 98 bd
       0.0065132673 0.08767828 0.13053179 -0.07449636
0001f0 80 9c 8f bd 87 bb 92 3d 9b ec f1 3c d6 d1 e9 bb
       -0.07012272 0.07164674 0.029531768 -0.00713561
000200 49 e8 e5 bc ac e8 e8 3d c1 f3 ee bc 27 63 13 be
       -0.028064864 0.11372504 -0.029168965 -0.14393292
000210 88 61 04 bd 9a 51 13 be 57 2f 00 bd 31 4c 00 bd
       -0.032319576 -0.14386597 -0.031295147 -0.03132266
000220 02 6e c4 bb 46 81 1d 3e 3b e9 0f 3e fb 1f 24 bd
       -0.0059945593 0.15381345 0.14053814 -0.04006956
000230 35 49 09 be 30 3b 35 3d 88 ae 1d 3d cc fc 99 3d
       -0.13406833 0.0442459 0.038496524 0.0751892
000240 71 14 2c 3d c1 7f 9f 3d c1 a3 0f be f3 7e 0b be
       0.042011682 0.07788039 -0.14027311 -0.13622646
000250 7f 5e 1a 3e 1a 41 da bd 28 fe 72 3d 51 ff 1d 3d
       0.1507511 -0.106569484 0.059324414 0.038573567
000260 36 0f bb 3d 16 e3 b3 bb 5e 0f 19 bd 16 e6 18 be
       0.09133761 -0.0054897172 -0.03736817 -0.14931521
000270 40 3b 17 be 8e ba 51 3d b0 e2 42 bd 47 cc 14 3e
       -0.14768696 0.051203303 -0.047579467 0.1453105
000280 96 9d 0b be 4b 45 06 bd ba c1 65 3c 5a 4e 02 3e
       -0.13634333 -0.032780927 0.014023239 0.12725201
000290 c5 a4 b5 bc 3f 85 e1 3d fe 7a 8f bd 97 9b cf 3c
       -0.022173295 0.11011743 -0.07005881 0.025342746
0002a0 18 45 ba bb 1e 14 00 3d 16 6d 0f 3e c9 20 7e 3d
       -0.005684506 0.031269185 0.14006457 0.062042985
0002b0 94 61 99 bd b9 a6 58 3d aa 40 fe 3d 0e 54 09 be
       -0.07489315 0.052893374 0.124146774 -0.1341097
0002c0 23 e6 1f 3e e3 d4 f0 3c c0 da 4f bd a9 db ec 3d
       0.15615134 0.029398387 -0.050745726 0.11565334
0002d0 6a 23 9b bc 56 03 ee 3d 0e a6 96 bd 65 43 af 3d
       -0.018937785 0.1162173 -0.07355891 0.08557776
0002e0 f3 a7 6b 3d 89 0a f1 bd ae 06 9d 3d a3 dd 1b be
       0.057533216 -0.117695875 0.0766729 -0.15221266
0002f0 77 e1 0f be 50 f3 b7 3d 05 48 da bd 30 18 1c be
       -0.14050852 0.08981955 -0.10658268 -0.15243602
000300 b5 b7 b8 bd 0f 6b e6 bd e5 50 61 bd dc 72 3a 3d
       -0.09019414 -0.112508886 -0.055008788 0.045519695
000310 0d c2 a5 bd c1 68 31 bd 8f e4 12 3c 2f 9f f8 3d
       -0.08093653 -0.04331279 0.008965625 0.12139737
000320 08 3d d6 3d be e2 d8 3c 87 e8 cf 3d 95 e4 55 ba
       0.104608595 0.026475307 0.10151773 -0.00081593666
000330 dc 22 4e 3c 53 66 8e 3d 07 48 28 3c 9e 1b 03 3d
       0.012581553 0.069531105 0.010271079 0.03200876
000340 c9 63 c7 3d b9 87 21 bb a6 6e 68 bd a0 25 27 3e
       0.097358294 -0.0024647547 -0.056746148 0.16322947
000350 64 76 13 3c be bf fc bc aa 4c 71 bc 43 4f d6 bd
       0.0090003945 -0.030853149 -0.014727751 -0.10464337
000360 c5 2a 49 3d 66 c4 df 3d 6e f7 db bc 16 6b e4 3d
       0.049113054 0.10926132 -0.026851382 0.111532375
000370 0e 7f 99 bd 56 2d f2 3d 16 51 17 3e f3 73 fd bc
       -0.07494937 0.118250534 0.14777026 -0.030939078
000380 23 79 6c 3d 91 5e 23 3d 1c c7 c5 bd f1 2f 76 3c
       0.057732712 0.039885107 -0.09657118 0.015026079
000390 02 bf 32 bd 86 b7 9d 3d 15 9e 16 bb db 0c 82 3c
       -0.04363919 0.0770102 -0.0022982408 0.01587527
0003a0 f2 26 b0 bd ea b4 19 3e 6e 7b ff bc ff 22 1d 3e
       -0.08601178 0.1501042 -0.031186786 0.15345381
0003b0 1d d5 81 bd 21 fb 82 3d 99 5d a2 3b 52 b1 cd bd
       -0.06339476 0.06395555 0.0049550054 -0.10043587
0003c0 89 d3 01 3e 56 91 56 bd a2 03 08 3e f1 39 28 3b
       0.1267835 -0.052384697 0.13282636 0.0025669301
0003d0 41 55 b7 bd ad 47 96 bc e2 38 28 3e ba 34 9d 3c
       -0.08951808 -0.018344725 0.16427949 0.019190181
0003e0 8b 07 68 3d a7 36 5d 3d 84 04 0a 3b 51 f9 6e 3d
       0.05664782 0.0540072 0.002105982 0.058343235
0003f0 89 15 4f 3d 7f 00 68 bd 22 a5 3e 3b ae 02 24 3d
       0.050557647 -0.056641098 0.0029090126 0.040041618

fc.0.weight f4 [64, 77]
000000 f6 b6 ff 3d 66 be 21 bc b3 1b a9 3d 27 67 71 bd
       0.12486069 -0.009872055 0.08257236 -0.058936264
000010 08 3c 92 3d ee 70 8c 3d 3e c3 57 3d 4d 16 d6 bb
       0.07140356 0.06857477 0.05267643 -0.00653342
000020 25 4e 80 bd 7d 7d 16 3e f2 bc 98 bd 87 b9 8e 3d
       -0.06264905 0.14696307 -0.074579135 0.0696898
000030 fe 17 7a bd 98 72 f1 bd 93 4d 7b 3d c6 fd 79 bd
       -0.061058037 -0.11789435 0.061353277 -0.061033033
000040 41 11 e1 bd 40 7b 11 bc 2d 62 29 3d af 8e ed bd
       -0.10989619 -0.008879483 0.041353393 -0.1159948
000050 2e be ec bd 60 12 8d 3c bd 3b ef 3b ac 71 11 3d
       -0.115597114 0.017220676 0.0073008225 0.035508797
000060 e4 07 03 bc 98 a7 24 3d 06 06 a5 bd 17 0d 0a 3e
       -0.007997487 0.040198892 -0.080577895 0.13481556
000070 8c 4d 8b 3d df da 2c bd 80 ca 00 3b 04 98 90 3d
       0.068019 -0.04220092 0.001965195 0.07060245
000080 30 7e 23 3d 14 a1 08 3e 4f ad c5 bc ba ec c8 bd
       0.039915264 0.13342696 -0.024130492 -0.09810777
000090 74 25 cb bd 4f e8 05 bd 35 00 c5 bd 3d 19 a8 3c
       -0.09919253 -0.03269225 -0.0961918 0.020519847
0000a0 19 34 c1 bd b6 08 17 3d 8c fd 24 bc 1c 70 04 be
       -0.09433765 0.03687354 -0.010070216 -0.12933391
0000b0 a5 04 a8 3d 06 28 5f bd dc d9 c4 bd 2b 65 95 bd
       0.08204011 -0.05448153 -0.09611866 -0.07294687
0000c0 e4 c6 13 3d 40 4c df bd 32 1f 4d 3d a6 c5 8a bd
       0.03607835 -0.109032154 0.05007858 -0.0677598
0000d0 ea 77 4e 3d 1b df 82 3d 9a 5a 1d bc d7 81 5f bd
       0.050407328 0.0639021 -0.009604121 -0.054567184
0000e0 3c 64 02 3e 53 9f a7 bd 9b 15 b1 bb d0 08 7c bd
       0.12733549 -0.081846856 -0.005404187 -0.06153184
0000f0 70 a5 00 be 82 fe 4c bd 77 5d 6d bc b7 55 74 bd
       -0.1256311 -0.050047405 -0.014487616 -0.059652057
000100 f4 c9 51 3d a6 aa 9b bd 43 0d 90 bd 54 19 73 bd
       0.051217988 -0.07600908 -0.070337795 -0.059350327
000110 53 45 e7 3d 27 f3 e4 bb 71 6c 77 3c 0e 5f 87 3d
       0.112925194 -0.006986994 0.015101538 0.06609927
000120 31 d9 c4 bb 28 f3 ad 3d 4d 3b 5c 3d 4a 41 01 be
       -0.0060073365 0.08493644 0.05376749 -0.12622562
000130 6a 58 c4 bc cb 43 d0 3d 99 03 d1 3a e0 59 e4 bc
       -0.02396794 0.101691805 0.0015946507 -0.027874887
000140 d8 3a c7 3d ad 9a 40 be 1b 97 8c bd 8d 35 94 3d
       0.097280204 -0.18809004 -0.068647586 0.072367765
000150 62 aa c3 3d 57 77 45 be 3d 10 80 3e ab 0b 84 bd
       0.09553982 -0.19283806 0.2501239 -0.06447538
000160 de b3 63 be ae fe 64 3d 76 25 54 bd c0 84 98 bd
       -0.22236583 0.055906944 -0.051793538 -0.07447195
000170 5e 2d f2 3c 83 43 f6 ba 49 f2 4d bd 76 33 a1 bd
       0.029562648 -0.0018788431 -0.05027989 -0.078711435
000180 88 57 e5 3d 64 ac 2d bc cc 19 4c bd a2 c1 9a 3d
       0.11198336 -0.010600183 -0.04982929 0.07556464
000190 22 57 a5 3d e2 bf a0 bd 6e 82 ab bc 61 6e b5 bd
       0.0807326 -0.07849099 -0.020936217 -0.08858944
0001a0 c1 17 00 3c 96 42 21 3c ad 1e a2 bc 81 6e c8 3d
       0.007818163 0.0098425355 -0.019790018 0.09786702
0001b0 06 fa 8f bd 40 3f de bd 93 1e de 3d 68 03 36 3d
       -0.0703011 -0.10851908 0.10845675 0.044436842
0001c0 14 5c 5d 3d 2b 81 e9 3b ce 4d 5b 3b de be b5 3b
       0.05404289 0.0071259937 0.0033463123 0.005546435
0001d0 9f a0 bc bc fd 0e 41 bc 99 7f 56 bd 41 fa 62 bd
       -0.023025809 -0.011783359 -0.05236778 -0.055414442
0001e0 25 6e 9f 3d 62 ce 97 3c 68 58 18 3d 68 2f 60 3d
       0.0778468 0.018531028 0.037193686 0.05473271
0001f0 88 8b 1b bd ab 6e 6c bc ad db 83 3d b3 9f c7 3d
       -0.037974864 -0.014430682 0.06438384 0.09747257
000200 02 3f b2 3d a8 82 da 3b be c7 e9 3d 59 21 7d 3d
       0.08703424 0.0066684075 0.11415051 0.06179938
000210 65 b8 ce 3d 55 a1 f6 ba 74 f1 b8 3d 18 9a fb 3c
       0.10093764 -0.0018816391 0.090304285 0.030713126
000220 81 0d 83 bd 2a c0 4e 3d 29 83 7a 3d 95 ac d3 3d
       -0.0639906 0.05047623 0.06116024 0.10335652
000230 46 32 7f 3d 87 e5 e2 3d 6e 1b d9 3c 48 2a e9 3a
       0.062303804 0.11078935 0.026502337 0.001778909
000240 60 1f c2 3d af 45 49 3d 04 49 4b 3d 99 8b 95 3d
       0.094786406 0.04913872 0.04963018 0.07302017
000250 ef e5 8c bd 79 f9 9a bd bc 40 99 3c a1 e9 93 bd
       -0.06879794 -0.075671144 0.018707626 -0.072222956
000260 de 9a 8b bd 39 9b 8c bd f2 2b 91 3d 88 0a e2 3d
       -0.06816648 -0.06865544 0.0708846 0.11037165
000270 31 b0 45 bc 8e 6a d2 3d 95 26 42 3e 6d 06 83 bc
       -0.012065933 0.1027423 0.1896003 -0.015994275
000280 48 c5 f1 3d c3 ae 25 3b ce 33 0e be 30 cb b0 bd
       0.118052065 0.0025281168 -0.1388695 -0.08632505
000290 60 ee d2 bd 57 0b 64 bc 41 8d fc 3d 94 fb f3 bd
       -0.10299373 -0.013918719 0.123316295 -0.11913219
0002a0 6a 93 9e bd e8 a2 05 be 0a f8 01 bd 23 40 2a 3d
       -0.07742961 -0.13050425 -0.03173069 0.04156507
0002b0 16 c4 a7 bd d0 8c 13 bd d9 27 65 bd 5c cf da 3c
       -0.08191697 -0.03602296 -0.055946205 0.026710205
0002c0 bc d8 0d 3e 92 9f 86 3d 78 4c d6 bc 65 89 de bd
       0.13852209 0.06573404 -0.02615951 -0.1086605
0002d0 62 9c b1 bc e7 af b8 3d 23 1c a2 bd c5 76 0a 3d
       -0.021681014 0.09017926 -0.07915523 0.033804674
0002e0 9c bd 03 3e be a0 a9 3d fc 23 72 3d 01 b3 01 bd
       0.12865299 0.08282612 0.05911635 -0.031664852
0002f0 a9 02 5f 3d b0 b0 95 bd 80 da 61 bc 68 75 ca 3d
       0.054445896 -0.07309091 -0.013785005 0.09885675
000300 7b 31 0a bc 1c d0 8b bd 86 c1 e1 bc 3e 34 b0 3d
       -0.008434649 -0.06826803 -0.0275581 0.086037144
000310 41 85 56 bd c1 cf 2d bd 83 25 8d 3d 1d 6a 0f 3c
       -0.052373175 -0.042434458 0.068919204 0.008753327
000320 68 24 d1 bd fd bf ab bd 46 42 f0 3d a1 b0 61 3c
       -0.10212022 -0.08386228 0.11731391 0.013775022
000330 ce db 8e bd c5 ba 50 bd 1b 3b 70 3d 6c 19 03 be
       -0.06975518 -0.050959367 0.058650117 -0.12802666
000340 57 32 86 3d 64 93 f5 bc e8 d8 00 3e 07 85 53 3d
       0.0655257 -0.029977508 0.12582743 0.051640537
000350 e2 d9 0e 3d 4d cf 8c bd de 0f 98 bd 2c 2b 03 3d
       0.034875758 -0.06875477 -0.074249014 0.032023594
000360 2e a1 a7 bc 76 66 78 bd 88 37 09 3e 6c 86 7f bd
       -0.020462599 -0.06064459 0.1340009 -0.062384054
000370 a4 09 70 bd bb d8 21 bc fb 75 c7 3c b9 0f 5e 3d
       -0.058602944 -0.009878333 0.02434825 0.054214213
000380 24 1e d8 bd 50 83 d9 3d e2 33 92 bc c0 af 58 3d
       -0.10552624 0.10620749 -0.017847005 0.052901983
000390 e2 f0 8d 3b e4 10 4d bd 15 03 96 3d 0b e3 a3 bc
       0.004331694 -0.050064936 0.073248066 -0.020005723
0003a0 8c 16 bc 3d 43 3b 53 3d cc d4 07 3e 50 fb 98 3d
       0.09183988 0.05157019 0.1326477 0.07469809
0003b0 44 03 7d 3d f9 f5 f4 3d cc f1 ac 3c 74 55 fc 3c
       0.061770692 0.11960978 0.021111391 0.030802466
0003c0 93 e1 6b 3d 1b ad d3 bd f9 9e e2 bd 44 4a 71 3e
       0.05758817 -0.103357516 -0.11065478 0.23563486
0003d0 38 46 ad bb 3b 2d 02 3e 18 39 4a 3d 01 bd c8 bd
       -0.0052879117 0.12712567 0.049370855 -0.09801675
0003e0 8e 3d 61 bb 69 bc b4 bd 47 4a d3 bb da e8 a9 bd
       -0.0034368965 -0.08824999 -0.0064480635 -0.08296366
0003f0 47 10 e6 3d d2 1f 10 bc 08 c8 5c bc 36 8a 74 bd
       0.112335734 -0.008796649 -0.013475426 -0.05970212

fc.0.bias f4 [64]
000000 51 34 76 3d 06 d7 1a 3d 05 f0 39 bc f3 58 4a 3d
       0.060108487 0.03780272 -0.011348729 0.049401235
000010 81 d4 b9 3d 7f b1 8f 3c 68 78 9d 3c f2 68 bd 3d
       0.09073735 0.017540691 0.019222453 0.09248532
000020 d3 88 00 3d 51 17 90 ba 3b 3c 1d bd f2 55 08 3d
       0.031380486 -0.0010993277 -0.03838752 0.03328509
000030 b3 62 8d 3d 68 1f bd 3d 45 f1 c1 bd ee 1b ce bd
       0.06903591 0.09234506 -0.09469847 -0.10063921
000040 d2 c5 36 bd dc 25 88 3d a6 28 d1 3d ae 35 a5 3d
       -0.04462225 0.06647846 0.10212831 0.08066879
000050 e9 91 f0 3c e7 8f 16 bc a4 77 6b 3d 9a 79 d1 3d
       0.02936645 -0.009189582 0.057487145 0.10228272
000060 d2 70 05 3c a6 41 08 3c 2c 4f 91 3c c7 f5 64 bc
       0.008144574 0.008316433 0.017737947 -0.0139746135
000070 e0 94 aa 3d b9 f3 96 bd f5 37 b1 bc 26 eb 17 bc
       0.08329177 -0.07370705 -0.021633128 -0.009272372
000080 11 55 91 bc f5 80 3e 3d 87 3a c6 3d d0 9a 21 bd
       -0.017740758 0.0465097 0.09679132 -0.03945428
000090 0a bf d8 bc c5 d9 82 bd 18 bf 3d bc 8e 95 55 39
       -0.026458282 -0.063891925 -0.011581205 0.00020368976
0000a0 5d 7b b0 3d 7f 78 53 bd 3c 4a 19 3c 6f 5d 09 3d
       0.0861728 -0.051628586 0.009356078 0.03353637
0000b0 0d 95 84 3d 8f e0 1e bc 2a 36 09 3e d6 9b e6 bc
       0.06473742 -0.009697094 0.13399568 -0.02815048
0000c0 4d 3a 08 3e 4c 59 77 3d f5 9c c9 3c 26 03 ca bc
       0.1330349 0.060387895 0.024610976 -0.024659704
0000d0 f8 f5 58 3c fd 27 2a 3d f2 66 05 3e 5b 22 4b bd
       0.013242237 0.041542042 0.13027552 -0.04959331
0000e0 d4 4b 64 bd a9 8f 2d 3d 7f 99 9b 3d a4 87 8c bc
       -0.055736378 0.042373333 0.075976364 -0.017154522
0000f0 a8 ce 31 bd 24 d3 d8 3c b3 24 c2 bc 7c b3 df bc
       -0.043409973 0.026467867 -0.02369914 -0.027307265

fc.2.weight f4 [6, 64]
000000 b4 71 9e bd 78 df 4b be 86 03 9b 3c 52 dc f4 3d
       -0.07736531 -0.19909465 0.018922579 0.11956085
000010 75 0d 17 be 0d ae e9 bc 76 b1 73 3d 17 03 aa 3d
       -0.14751227 -0.028525377 0.05949541 0.083013706
000020 9e f8 95 bd 3b 7e 87 3d 48 8c 82 3d 04 fa ef 3d
       -0.073228106 0.066158734 0.06374413 0.117176086
000030 75 70 c8 bd 1c 58 0c be 56 aa f1 bd d8 17 44 bd
       -0.097870745 -0.13705486 -0.11800067 -0.0478743
000040 3a 7e b0 3d 55 a4 66 bd 00 3b 29 bd 2c aa cd 3d
       0.08617826 -0.056309063 -0.041316032 0.10042223
000050 2e 70 ce bd 3a d6 97 3d 6d 76 22 3c 5d 47 cc bc
       -0.1007999 0.07413907 0.00991593 -0.024936372
000060 d4 69 fd 3d 4d 82 db 3d 4a f8 8e bd 8e 73 06 3e
       0.12373701 0.10718212 -0.06980951 0.13130018
000070 3e 82 b7 3d b7 c3 c8 bd a8 6f 9e 3d 1b c7 f8 3d
       0.089603886 -0.09802955 0.077361405 0.12147351
000080 d7 b1 24 bd d7 ec 40 bd 38 00 78 3d 7d a2 16 bc
       -0.040208664 -0.047100868 0.060547084 -0.009194014
000090 53 2c df 3d 20 f6 0f be 21 56 35 3e b7 75 68 be
       0.10897126 -0.14058733 0.17708637 -0.22701155
0000a0 34 42 1a bd 19 98 32 3e 96 de 92 bd f2 0d e0 3d
       -0.037660792 0.17440833 -0.07171361 0.1094016
0000b0 80 5f 44 bc 9f 69 8f bd 96 3d 92 3d 58 52 5e be
       -0.01198566 -0.070025675 0.07140653 -0.21711099
0000c0 e5 10 d9 3c df e9 a2 bd 80 f8 ce 3d aa 2e 29 be
       0.026497314 -0.079547636 0.10105991 -0.16521707
0000d0 85 51 6f be 50 63 2f 3e d3 ec 3d 3d f1 ef 33 3e
       -0.23370941 0.17127728 0.04636843 0.17571999
0000e0 39 ae 7a 3d 66 a7 c8 bd a4 2a dc bd d6 59 6a bd
       0.061201308 -0.09797554 -0.107503206 -0.05721458
0000f0 95 c5 17 3d 59 cf 01 be c2 37 f9 bd 6f 6e 9e 3d
       0.037053663 -0.12676753 -0.12168838 0.07735907
000100 dc 83 01 be 4f f3 0d 3d d5 f1 b3 bd 43 ab 40 3c
       -0.12647957 0.034655865 -0.0878636 0.011759582
000110 2f 9d 4a 3e 85 f1 ea bb ee d9 2b bc b5 b4 5c bd
       0.19786523 -0.0071699047 -0.01048897 -0.053883273
000120 36 15 51 3d 30 8e 9d 3d e4 95 eb bd 94 4f dc 3a
       0.05104562 0.07693136 -0.11503199 0.0016808384
000130 8b b5 c4 3d 06 78 8b 3d f8 91 0e 3e a9 08 b1 bd
       0.09604939 0.06810002 0.1392287 -0.0864423
000140 d0 91 62 bc c9 9d a3 bc 94 db 41 3d 32 30 89 bc
       -0.01382871 -0.019972699 0.047328547 -0.016746614
000150 c4 b0 43 3e 0b 4d e0 bd 0f b2 a1 3d 3c 68 44 3d
       0.191104 -0.10952195 0.0789529 0.04795097
000160 a0 b1 90 bd 75 78 14 bd 22 1e 9a 3d a7 cb 69 bb
       -0.07065129 -0.03624769 0.07525279 -0.0035674365
000170 f8 9f dc 3d f8 e8 c2 bd b4 2e 02 3e d7 10 c8 ba
       0.10772699 -0.095170915 0.12713128 -0.0015263808
000180 be d8 06 bc 6f 61 dd 3c ae f7 06 be 28 16 f5 bd
       -0.008230386 0.027023999 -0.1318042 -0.119671166
000190 0c 44 ae bd 3d 7d 49 3b 13 33 1b 3d 30 bf 0e 3e
       -0.08509073 0.0030744814 0.037890505 0.1394012
0001a0 8e 45 30 3e 20 91 ea bd 9a 92 b8 3d 96 2e a7 bd
       0.17214033 -0.11453462 0.09012337 -0.081631824
0001b0 50 1e 89 bd de 5f bc 3d e2 44 8c b9 5a f7 9d 3d
       -0.06695235 0.09197973 -0.00026754203 0.07713194
0001c0 9e 86 dd 3d e6 81 68 3d 84 b0 35 3d 2d aa 21 3d
       0.10816692 0.056764506 0.04435779 0.039468933
0001d0 f9 af 25 3e 91 14 8a 3c ab c8 17 be 99 82 62 bc
       0.1618041 0.01685551 -0.14822643 -0.013825082
0001e0 53 0f d8 bd ff ee 01 3e 48 10 db bd 96 65 c8 bd
       -0.10549798 0.12688826 -0.10696465 -0.09785001
0001f0 fa 0f 9e bd 43 bc f1 3d 5d b0 1b 3e 5a f9 ac bd
       -0.07717891 0.11803486 0.15203996 -0.084459975
000200 08 4b e5 3d 3a 77 c1 3d d4 e0 97 bd b6 f6 75 bd
       0.11195952 0.09446569 -0.074159294 -0.060049735
000210 f8 96 ef 3d 60 51 9f 3d 2c 60 5e bd a1 c1 7d bd
       0.11698717 0.07779193 -0.054290935 -0.061952237
000220 ab e8 3a 3d bd dc 9b bc 7e 24 d4 3d 3a 71 bd 3d
       0.045632046 -0.019026155 0.10358523 0.09250112
000230 b2 d2 08 3e 68 db 1a be eb a7 2e bd d1 4c 9e bd
       0.13361624 -0.1512276 -0.042640608 -0.07729495
000240 10 f5 77 bc 17 1b 8c 3d 4a 2e b1 bd de f5 95 3d
       -0.015134111 0.068411045 -0.08651407 0.07322286
000250 e9 77 b1 3d 5a 2c 94 bc ab 00 d5 3d 80 80 7d 3c
       0.08665449 -0.018087555 0.10400518 0.015472531
000260 63 3c cf 3d 42 5b 16 bd 5a 26 d4 3d a7 3e 69 be
       0.1011894 -0.036708124 0.103588775 -0.22777806
000270 b9 63 04 bc b1 7c c9 3c da 53 4d 3c 54 a8 93 bd
       -0.008080416 0.02459559 0.012532199 -0.072098404
000280 0c 2d cf bd 80 53 ab bc bc fd 0d 3d f7 73 14 bd
       -0.10116014 -0.02091384 0.034665808 -0.036243405
000290 15 e5 20 3d 76 ff 6c bd aa 51 8d bc fa 4d 06 3e
       0.03928097 -0.057860814 -0.017250855 0.13115683
0002a0 b0 28 ab bd 43 5b 49 bd 9d 5a a6 3d 5d a5 9f bd
       -0.0835737 -0.0491593 0.08122752 -0.077952124
0002b0 dc 8c 81 bd 65 0e 3e 3e 13 31 0c bd 66 49 5b 3e
       -0.06325695 0.18560179 -0.03422649 0.21414718
0002c0 9d b0 0f bd 87 d0 7d 3e ab 52 a2 3d 98 43 56 3e
       -0.03508054 0.24786578 0.07925924 0.20924222
0002d0 6f b5 0f bd 84 2d a1 bd 1a 69 4d be 8d a3 30 bd
       -0.035085138 -0.078700095 -0.20059624 -0.043124724
0002e0 8f 34 ab bd d8 d1 12 bd 5d 40 0c 3e 9f cb f1 3d
       -0.08359634 -0.035844654 0.13696428 0.11806416
0002f0 2e fe 82 3d ac ac a0 3d d0 f5 fe bc 10 5c 07 bd
       0.06396137 0.078454345 -0.031123072 -0.033046782
000300 01 7b 3c be 78 63 24 be 55 fa 1c be 2c a0 00 be
       -0.18406297 -0.1605357 -0.15329869 -0.125611
000310 f0 3d 32 be 27 b5 0c be f3 f3 65 bd 64 91 90 3b
       -0.1740644 -0.13740979 -0.05614085 0.004411863
000320 77 8e 0a be 8c ef d0 3c 78 ce a0 3d cf e0 45 bb
       -0.13530909 0.02550485 0.07851881 -0.003019381
000330 42 dd 31 3d ea a2 42 be c6 6a 90 bc 3b 10 72 bd
       0.0434239 -0.1900746 -0.017629039 -0.05909751
000340 d0 2e 81 3d 09 86 ea bd 00 f8 df 3b db 34 ac bc
       0.06307757 -0.114513464 0.006834984 -0.021021297
000350 ea b2 6d be bc 12 ce bd 66 8d e9 bb ee bb 24 be
       -0.23212782 -0.10062167 -0.0071274517 -0.16087314
000360 85 9c 9f bd 3c 45 f2 bc a1 9b 66 bd 5a 87 39 be
       -0.077935256 -0.02957403 -0.056300763 -0.18118039
000370 52 62 7d 3c 8b 54 ca 3b 4b 30 35 bd c7 bc 99 bd
       0.015465336 0.006174629 -0.04423551 -0.075067095
000380 2a c5 e8 3c 91 b0 1c be 24 5e 2f bc eb 09 6a bb
       0.028414328 -0.1530173 -0.010703597 -0.0035711478
000390 e5 85 12 be 57 06 41 3d ed 2c 23 be cc 20 64 bd
       -0.14308889 0.047125187 -0.15935107 -0.05569534
0003a0 12 7f 02 be 22 cd e9 bd aa 4a cf bc f9 51 06 bc
       -0.12743786 -0.11416079 -0.025304157 -0.008198255
0003b0 70 c0 ed bd 5e 38 2a bd d5 64 2f be fb 69 e7 bd
       -0.1160897 -0.041557662 -0.17128308 -0.11299511
0003c0 b6 57 62 bd 35 d3 1c be c8 9e 00 be 28 ec 38 be
       -0.05525943 -0.15314944 -0.1256057 -0.18058836
0003d0 d4 c4 e6 bd 3b 35 a8 3d f3 cd 62 be e5 6f 44 bd
       -0.11268011 0.08213278 -0.22148876 -0.047958273
0003e0 10 2f a6 3d ed 2a 47 3d 4a a6 05 be 53 b9 19 be
       0.08114445 0.04862492 -0.13051715 -0.15012102
0003f0 a6 31 bc bc 00 da 07 be ea 68 ca 3b 8d bf 1d bd
       -0.022972893 -0.13266754 0.0061770575 -0.038512755

fc.2.bias f4 [6]
000000 45 2b 5c 3d 09 dc 0d 3e 33 08 cb bd ac 5b cd bd
       0.053752203 0.13853468 -0.09913673 -0.10027251
000010 a6 44 02 bd 9e ff 50 bd
       -0.03180375 -0.051025026
