main/models/lstm_full/best_model.pt (torch, 43320 bytes, 7 tensors)

hist_emb.weight f4 [7, 8]
00000000: 8999 eebe 6e22 1abe 797c 91bf f0ba 2cbf
00000010: 7391 1c3f 6eac 613f feb7 463f ec7b 9d3f
00000020: ff6b a83e 77c0 bc3f b334 513e 73ba bb3e
00000030: 8894 3fbe b346 1740 9fce d2bf de07 4440
00000040: 71c4 bcbe 78f6 60be 0378 f13f 582b d0bd
00000050: 226a 473d e936 be3e 9721 aa3e 2a70 8abe
00000060: 6fbf 0ebd 3722 933f 99de 703f a569 3240
00000070: ab83 783f b3ee 913e 1bbb 3d3f 7115 f73e
00000080: 1f94 3ebf 2289 083f 1b4a 91bf 22a7 4f3f
00000090: c04e a3be 069d d93e 78c9 2c3f 54be ef3f
000000a0: 7306 1340 70d1 4cbf 1eb1 e73f 5344 8d3f
000000b0: 5e6c b4bc 1955 c8bf 41c7 8bbe 0a35 743f
000000c0: 0000 0000 0000 0000 0000 0000 0000 0000
000000d0: 0000 0000 0000 0000 0000 0000 0000 0000
-0.46601513 -0.15052196 -1.1366111 -0.67472744 0.6115944 0.8815373 0.776245 1.2303443
0.32894894 1.4746236 0.2043026 0.36665687 -0.18709004 2.3636901 -1.6469306 3.0629802
-0.36868623 -0.2196902 1.886475 -0.10164517 0.0486852 0.37151268 0.33228752 -0.270387
-0.034850534 1.1494817 0.9408966 2.787698 0.9707591 0.28502426 0.74113625 0.48258546
-0.74444765 0.5333425 -1.135074 0.811144 -0.3189602 0.42502612 0.67494917 1.8729959
2.2972686 -0.80007076 1.8100927 1.1036476 -0.02202433 -1.565097 -0.27300456 0.9539343
0.0 0.0 0.0 0.0 0.0 0.0 0.0 0.0

fc.0.weight f4 [64, 83]
00000000: c728 953c be9c 33bb 812b 4ebe 210b 383d
00000010: 1be4 a7bd fb24 bdbd 884c aebd da84 eb3c
00000020: 29fb 9c3d de80 823c 3258 803d 5d99 063c
00000030: f874 883c c00e c83d 1f27 c3bd 87b6 dc3d
00000040: 17ea debd fa62 913c 1a6d cdbc 7c0f 3cba
00000050: 633b bebd fd4a ddbd 57b0 a83d ffa9 fc3b
00000060: 4692 2e3d 572a 7cbb c3d7 abbc 7ee7 403d
00000070: b674 c33d 72f2 9c3d 3adb 833c dea2 8abd
00000080: 61e7 80bd 2b29 933d fae0 adbd bf2d c83d
00000090: 398c 1bbc 2fe9 97bd 486b ad3c 8ec9 9e3d
000000a0: 5f4c 203d d3ed d7bd 6c0b bfbd 26d8 9abd
000000b0: 7590 84bd bb3e b03d 1404 bb3d 0f8e af3d
000000c0: 2fc5 dabc 36da 463d b8a2 983d d664 c73d
000000d0: 25ed 343d 6480 72bd 0934 d43c 8708 a5bd
000000e0: b0d5 a3bd d5f8 de3d 7f62 70bd 8a38 163d
000000f0: 365e b0bc 3dab 813c 6048 333d c05a fa3c
00000100: d4d3 b2bd 038c 8f3d 7b2f a73d 30ec 8fbc
00000110: f88a 0cbd 67c5 d7bd 4304 af3c d542 333d
00000120: 7455 893d 8e15 93bd f3aa ce3d 762d 023d
00000130: fe70 9abd f151 c7bd 2a21 5d3b 100c 8b3d
00000140: 8223 3abd 58b1 93bd 4be5 9e3c 32d0 0ebd
00000150: 941e cf3b efbd 9fbe 69ec b9bd bbf8 debd
00000160: f4ba bbbd 9690 8cbd 007e cf3a 836d 17bd
00000170: a64d b7bc 9816 1dbd 5517 3cbc dd31 943d
00000180: 98c0 583d c11c 703d c426 4e3d 5aee b3bd
00000190: f4ad af3d c7b8 dc3d bfad c4bc fc53 89bc
000001a0: 2ee3 8bbd 9c9f 9fbd 96ef 173d e88f d73d
000001b0: 07d6 51bd c7a5 363d e504 c73d 15db 5a3c
000001c0: ad74 e53c bd59 543d 4300 cbbd 6af5 543d
000001d0: 935b c93c 6728 353d 3c52 12bd 44de 993d
000001e0: 6bac 873d 7110 b2bc 88e9 4ebd e7c8 c03d
000001f0: 15d2 2a3d bbcc 24bd dc6e 16bd 90bf 6a3d
00000200: 36c9 57bd cd26 1bbc 3ce9 51bd e114 a9bd
00000210: 9f26 40bd 1eec c23d 59b1 0bbd 0f45 db3d
00000220: 1898 20bd c496 32bd 8bad 84bd 1a4e debd
00000230: a877 b93d 5ac4 d5bd 8b49 b23c aed9 563d
00000240: 3275 533d 4e52 65bd 0f02 623c 4e3d 9e3d
00000250: 1361 b63d 6de1 2f3d feeb d53d 34d0 f83c
00000260: 9120 18bd aabe bebd 6335 96bc 5182 9c3c
00000270: 2d2b a9bd 8b43 bd3d 43b2 9abc f2ed ed3a
00000280: d211 29bd f26d 083d 8788 7d3d 8ae6 48bd
00000290: b8a8 1c3d 0b10 a63d 24d5 203b 1197 33bb
000002a0: e160 ee3e 11b2 33bd 0076 dcbd 4ba2 963d
000002b0: eb10 15bc 80c4 59bc 8a72 103d c6c1 c63c
000002c0: 8c4d abbd e49f b1bd 08c9 283d 4cd4 9e3d
000002d0: 7fab 913d 4043 c03d 1263 77bd 29ae ba3d
000002e0: 5f0d 7d3d e1c9 293c fac1 833d 4a56 5c3d
000002f0: bce9 373d 4dce ccbc 2f7a ac3c d5a4 06bb
00000300: a7d4 753d 6194 9c3d ea6d 9cbd 9c21 59bc
00000310: 8403 1a3d 9fe5 ad3d 4430 97bd bcd8 61bc
00000320: beee debd c648 843c f193 ce3d cf79 bd3d
00000330: 8594 8c3c 1385 b43d 09a4 ab3c 1b33 ae3c
00000340: 60dd 8c3d 863e debd aeb2 d53d fa7b 403c
00000350: 6565 04bc fb3d 9f3d cc4f 573d 6020 ce3d
00000360: 2ab6 c13d 33f5 ccbd 98c0 0a3a 7a83 603d
00000370: d4f5 db3d 6728 85bd 6905 313d e377 b7bd
00000380: 73f5 9d3d 427d ab3c cb0b 4e3d d993 c7bd
00000390: 455d b7bd 17ae 1fbd 2f51 10bd 82ad 913b
000003a0: ca4f a23d 9e0e 3d3d 0f8f 92bd d525 ab3d
000003b0: 27f5 36bd 29fc ca3d 2852 283b 7bc3 ab3d
000003c0: 0d4b d13d ca6f bbbd cd18 a03d 291c f83c
000003d0: 3d63 c93d a1b6 8cbd ed60 a93d f9b9 82bd
000003e0: 45e0 df3d 872c b83c ac65 22bd a1dc 8dbe
000003f0: 0dbe e0bd 72bb b53d f689 f4bc 38bc a13d
0.01820792 -0.0027406658 -0.20133783 0.04493249 -0.081978045 -0.09235569 -0.08510691 0.028749872
0.076650925 0.01593059 0.06266822 0.008215276 0.016657338 0.09768438 -0.09528946 0.10777002
-0.10884493 0.017747391 -0.025076438 -0.0007173938 -0.09288671 -0.108053185 0.08236759 0.007710695
0.042619966 -0.0038477385 -0.020976907 0.04709577 0.09543745 0.0766343 0.016095746 -0.06769346
-0.06294132 0.071855865 -0.084901765 0.097743504 -0.009493881 -0.07417523 0.02116932 0.07753287
0.039135333 -0.10543408 -0.093283504 -0.07560758 -0.064728655 0.08605715 0.09131637 0.085720174
-0.026705353 0.048547946 0.07452911 0.0973603 0.04417147 -0.059204474 0.025903719 -0.08058267
-0.07999742 0.10887305 -0.058687683 0.036675014 -0.021529298 0.015828723 0.043770194 0.030560851
-0.08731809 0.07009127 0.08163353 -0.017568678 -0.03431222 -0.105356984 0.021364337 0.043764908
0.06705752 -0.071818456 0.100912 0.031781636 -0.07541083 -0.09732426 0.003374169 0.0678941
-0.04544402 -0.0721156 0.019396445 -0.03486652 0.006320784 -0.31199595 -0.09078295 -0.10887285
-0.09166518 -0.06863515 0.0015830398 -0.036969673 -0.022375893 -0.038351625 -0.011480172 0.07236073
0.052918047 0.05862117 0.05032994 -0.08785696 0.08578101 0.10777431 -0.02400863 -0.01676368
-0.068304405 -0.07794115 0.03709372 0.10525495 -0.051229503 0.04459169 0.097177304 0.013357897
0.028009737 0.051843394 -0.09912159 0.051991858 0.024579799 0.044227984 -0.035722956 0.07513097
0.06624683 -0.021736355 -0.05051568 0.09413319 0.041704256 -0.04023431 -0.036726817 0.057311594
-0.052682124 -0.0094697 -0.05124782 -0.082559355 -0.046911832 0.09517692 -0.03410468 0.10706531
-0.039207548 -0.043600813 -0.06478413 -0.108547404 0.09056026 -0.10437842 0.021763584 0.05245369
0.051625438 -0.055986695 0.013794436 0.07726537 0.08905234 0.042939592 0.104454026 0.030372716
-0.037140433 -0.0931371 -0.018336004 0.019105108 -0.08260188 0.092413984 -0.01888383 0.0018152578
-0.04127676 0.033307977 0.06189778 -0.049047984 0.03824684 0.08108529 0.0024541104 -0.0027403275
0.46558288 -0.04387099 -0.10764694 0.07355174 -0.009098272 -0.013291478 0.035265483 0.02426232
-0.083644 -0.08673075 0.041207343 0.07755336 0.071127884 0.09387827 -0.060397215 0.0911525
0.06178033 0.010363073 0.064334825 0.05379323 0.04490064 -0.025000716 0.021054355 -0.0020545025
0.060017254 0.076454885 -0.07638152 -0.013252642 0.03760101 0.084910624 -0.07382253 -0.013784584
-0.1088538 0.016147982 0.10086811 0.09251749 0.017160663 0.088144444 0.020952241 0.021264603
0.068781614 -0.10851769 0.10434471 0.011748308 -0.008080815 0.07775494 0.052566335 0.10064769
0.09458573 -0.100077055 0.0005292981 0.054812886 0.10740247 -0.06501847 0.04321805 -0.089584135
0.07712831 0.020933751 0.050304215 -0.097449966 -0.089533366 -0.038984384 -0.035233673 0.0044457326
0.07925375 0.04615652 -0.071561925 0.08356825 -0.04466739 0.09911377 0.0025683735 0.08386894
0.10219393 -0.091521814 0.078172304 0.030286865 0.09833381 -0.06870771 0.0827044 -0.06383128
0.10931448 0.02248217 -0.039647743 -0.2770739 -0.10973749 0.08873643 -0.029850941 0.07897228

fc.0.bias f4 [64]
00000000: 2236 db3e d2f9 563e 85b9 34be 628b 3d3f
00000010: 8728 983e 8fb2 76be 93bd dcbd 3074 c3bd
00000020: 621e 91bc bdaa e1be 9624 603d b94f 11be
00000030: fc03 b83d dfd2 e73e a4e5 ae3e 59c5 fe3c
00000040: 4a3a fd3e f4c5 8c3b bfc6 283e fa57 dd3d
00000050: ef5e 853f 814a 7a3e 4831 1dbd 33b5 babd
00000060: 393f f0bc 5a54 93bd 4be3 1c3f 45dc 5f3f
00000070: b8d1 84be 1db2 dd3e 1216 00bf 7fe0 403d
00000080: 1684 933e 3172 a0bd a2f6 163d 7b62 9b3d
00000090: 9e7c 163f d85d 093e 7ef8 b0bd 7442 90be
000000a0: e5b1 493e 5b3e 0c3f 0318 303e 22c8 9dbe
000000b0: aaa6 ef3d 5dfb 853e 5497 193d 7c1c a03e
000000c0: 1093 873d e9dd 3b3e df28 cdbb c24d d73e
000000d0: 084a d83e 522f e3bd b106 773d 437a 52bd
000000e0: 3e98 bebc 5c22 f53d 1fe0 e03e cb5d 0a3f
000000f0: 4ca4 95bd 14da 713f cb64 5c3d 835a bbbe
0.42814738 0.20993736 -0.17648895 0.74040806 0.2971842 -0.24091552 -0.10778346 -0.095436454
-0.017714683 -0.44075575 0.05472239 -0.14190568 0.08985135 0.4527807 0.34159577 0.031099962
0.49458534 0.004296059 0.16482066 0.10807796 1.0419596 0.24442483 -0.038377076 -0.09116592
-0.029327022 -0.07193823 0.6128432 0.8744548 -0.25941253 0.43299952 -0.50033677 0.047089096
0.2881171 -0.0783428 0.0368563 0.07587143 0.587839 0.13414705 -0.08641146 -0.281757
0.19696768 0.54782647 0.1719666 -0.30816752 0.117017105 0.26168337 0.037497833 0.31271732
0.06619847 0.18346371 -0.0062609757 0.42051512 0.4224398 -0.1109301 0.060309116 -0.05138613
-0.023265954 0.11969444 0.4392099 0.54049367 -0.07306728 0.94473386 0.05380706 -0.36592492

fc.2.weight f4 [64, 64]
00000000: 00b5 acbc 788f 613d d632 a9bd cfbd 523d
00000010: f9ba 0dbb 72cf 553d e796 1c3e f4ee 053d
00000020: 8da4 6e3d b822 7cbd a630 45bd 9c0d 8abb
00000030: c827 bf3d 058f c53d 0733 8bbd c8b8 583d
00000040: a0ae bb3d a666 1b3c c645 903d 6838 08bd
00000050: 7215 cc3d b2b8 32bd 80ef 2e3b e6ca bfbd
00000060: b6a3 cebd bc95 18bd b621 65bd 55ee 103e
00000070: 96ce 263e 4605 74be 45b5 753d 8d2c 6b3d
00000080: 84cb a13c 4864 f73c 6735 a63d 980b 843c
00000090: 7a9f bbba b38f 933c ea79 8fbd f91f 3f3e
000000a0: ea10 e53c 290c 933d e04f 3dbd c013 99bd
000000b0: e30e 07be 80d8 3e3c b2c2 da3d 7617 f53d
000000c0: a695 c7bd d4f2 20bd 2dfc babd f926 8e3d
000000d0: 483b 393d 8cf4 7bbd 18a4 a13c 48ad babc
000000e0: 10dc d1bd 5feb 9a3d 5309 d8bd 6bf9 b23d
000000f0: e1d9 9b3d 87d5 52be c471 8e3d 787f 363e
00000100: e925 50bd bd92 27bd 51f7 9dbd b5ca d4bd
00000110: e1cf 96bc 7673 fb3d 81c4 af3d 98da f1bd
00000120: ecbf eebc ed6f b03d f25a dc3c 2450 55bd
00000130: 3cac 9ebd 403a 393c 4a73 0c3d f0f5 39bc
00000140: 3dc2 e6bd b65f dabd b244 9d3d b2e1 b03d
00000150: 5fef 203e 5cbf e83d 10a2 2c3d f09e bfbc
00000160: e2ab 31bc 98dc c5bd 5017 873c 43d8 d4bd
00000170: a2e7 b8bc ec31 38be ba9b 833c 46e4 de3c
00000180: a7a1 ab3c 07fd f6bb 37f4 e13d 002b ff3c
00000190: 4ff1 6d3d 141a b13d 58ba d73d 4ff9 483d
000001a0: cd6f b4bd a01a edbd d293 14be a097 a63d
000001b0: 4350 80bc b778 213d 207b 66bd 8332 5c3d
000001c0: 6218 c13d 3c2e d33d 8303 36bc 2a1b d2bd
000001d0: a5dc 3e3d 6f51 983d ae86 f8bd f2a4 c7bd
000001e0: 6316 4e3d 6665 993d c37a 9f3d d5e4 a23d
000001f0: e643 b13d edf8 3ebe 481e b73c d274 573e
00000200: e2f6 80bc 3d92 fe3d c89f 6cbc c218 fa3c
00000210: a66f b1bd 045c 01be d076 6dbe 1dcc a63d
00000220: b5ce d6bd f8b6 31be c76d d33d 3c00 723b
00000230: 5162 edbd 092b 6bbd e19c 8b3b 80a5 063d
00000240: 9883 f8bd 6900 0b3d 51de 753d 6af1 aebd
00000250: 9a4c 9a3e f34f c4bc c40a d93d 6089 61bc
00000260: 1968 aebd a6c9 f43d ae38 94bd 41bb d03c
00000270: bf68 80be 09d8 1dbe ca57 9bbd 7337 22be
00000280: 6be8 5f3d 1491 77bd 0a63 d13c 7c80 a83d
00000290: 33b5 703e 3ab0 53bd 5694 eebd 6d82 44be
000002a0: 96ed d03c 1105 5a3d 63d5 2a3d 0004 d43d
000002b0: af10 93bc 0613 87bb 208b dc3d 853b 853e
000002c0: 58a4 ec3d a94a d23d 2481 ce3c 1db6 543d
000002d0: 1f91 493d d269 0ebc 90fa 3dbc 9d88 0dbe
000002e0: 9f3e d83d a1a7 813c a382 743d 292d 733d
000002f0: 3e4b b33d 03fd 46bd 1335 b83d 4b06 d6be
00000300: 7ca3 383d 301a 9abc 6866 a7bd 3015 edbc
00000310: a8be c43d 94a5 fabd 3a10 9abd ecb1 473d
00000320: 5030 46bd 90cf d23d 041e 50bd a4ff 413d
00000330: 80fc 7ebb 94c0 a2bd 189c abbc 64b9 b6bd
00000340: 6c37 aa3d 504c e2bc d83d cb3c 28e4 a4bd
00000350: 18cd c7bd 78be 0d3d a06f cf3c 183a 2bbd
00000360: 84aa 0d3d 70a5 853d bec4 bf3d 40ec 96bb
00000370: 32b4 fe3d d048 5fbc 884e 10bd 00fb 48bb
00000380: a04c 09bd ce0a bd3d 6a16 b3bd 605c f9bc
00000390: e433 57bd 3072 e93c 9cf5 01bd 547d 243d
000003a0: 0048 c8b8 f879 a3bd a87b c13d 90f0 17bd
000003b0: 3872 a23d 0851 fcbd e8f7 fdbd 9a86 fbbd
000003c0: 6ab8 f9bd 94d9 d5bd 9286 893d cc0e fcbd
000003d0: 2053 ef3b 6c48 83bd 9652 aebd 386e 61bd
000003e0: 0efe a73d 403e 603d a02b c43c 0ec9 93bd
000003f0: f0c9 7a3d 38cb e03c 60ee a1bd b008 fdbc
-0.021082401 0.055068463 -0.08261649 0.051450547 -0.0021626337 0.05219979 0.1529194 0.032698587
0.058262397 -0.061556548 -0.048142098 -0.004213048 0.093337595 0.096464194 -0.06796842 0.052910596
0.091641665 0.0094849225 0.07044558 -0.03325692 0.09965028 -0.04363317 0.0026693046 -0.09364872
-0.10089819 -0.037252173 -0.055940352 0.14153416 0.16289744 -0.23830137 0.059987325 0.057415534
0.019750364 0.030199185 0.081156544 0.01611881 -0.0014314495 0.018012857 -0.07005675 0.1866454
0.027962167 0.07180054 -0.046218753 -0.0747447 -0.13189273 0.011648297 0.106816664 0.119673654
-0.0974534 -0.03929408 -0.0913013 0.06941027 0.04522255 -0.061512515 0.019731566 -0.022787705
-0.10247052 0.07564425 -0.105486535 0.08738979 0.076099165 -0.20589267 0.06955293 0.17822063
-0.050817404 -0.040911425 -0.077131875 -0.10390226 -0.018409671 0.12277882 0.08582402 -0.118092716
-0.02914425 0.08615098 0.026898835 -0.05207838 -0.07747695 0.011305392 0.034289636 -0.01135014
-0.11267517 -0.10662787 0.07679118 0.08636798 0.15716313 0.11364624 0.042146742 -0.023391217
-0.010844203 -0.096612155 0.016490608 -0.10392811 -0.022571389 -0.17987794 0.016065467 0.027208459
0.020951105 -0.0075374874 0.110329084 0.031148434 0.058091458 0.08647552 0.10533589 0.049065884
-0.08810387 -0.11577344 -0.14509514 0.08134389 -0.015663272 0.039421763 -0.056269765 0.05375911
0.09428479 0.10311553 -0.011109236 -0.102590874 0.04659714 0.07437407 -0.12135063 -0.09748258
0.05031432 0.07490043 0.07787087 0.079538025 0.08655529 -0.18649645 0.022353306 0.21040657
-0.015742723 0.124302365 -0.014442392 0.030529384 -0.086638734 -0.12632757 -0.23189855 0.081444
-0.10488645 -0.17354953 0.10323673 0.003692641 -0.11591018 -0.05741409 0.004260645 0.032872677
-0.121344745 0.033935938 0.06002647 -0.0854214 0.30136567 -0.023963904 0.105977565 -0.013765663
-0.08515949 0.11952524 -0.07237373 0.025479915 -0.25079915 -0.15414442 -0.07585104 -0.15841465
0.05466501 -0.06044109 0.02555992 0.082276314 0.23506622 -0.051681735 -0.116493866 -0.19190378
0.025503915 0.053227488 0.041707408 0.103523254 -0.017952291 -0.004122141 0.107687235 0.26021972
0.115547836 0.102681465 0.025208063 0.05193149 0.049210664 -0.008692222 -0.011595383 -0.13821645
0.10558819 0.015827002 0.059694897 0.05936924 0.08754586 -0.048581135 0.08994498 -0.41801676
0.045077786 -0.018811315 -0.08173829 -0.028940767 0.09606677 -0.12238613 -0.07522626 0.048753664
-0.04838592 0.10293496 -0.050809875 0.04736294 -0.0038907826 -0.079468876 -0.020948455 -0.08922079
0.08311352 -0.02762428 0.024809763 -0.0805133 -0.097559154 0.034605473 0.025321782 -0.04180345
0.034586444 0.06525695 0.093636975 -0.0046058 0.12436713 -0.0136282 -0.035231143 -0.0030667186
-0.03352034 0.092305765 -0.087445095 -0.030439556 -0.05253972 0.028496832 -0.031728372 0.040158585
-9.550154e-05 -0.07982248 0.09447414 -0.037094653 0.07931942 -0.12320143 -0.124008 -0.122815326
-0.12193377 -0.1044189 0.067151204 -0.1230751 0.0073036104 -0.06410298 -0.08511846 -0.055036753
0.08202754 0.054746866 0.023946583 -0.072160825 0.06122774 0.027440652 -0.079067945 -0.030887932

fc.2.bias f4 [64]
00000000: e94b a1bd 3547 42be 0e33 ee3e 4083 043b
00000010: 9ffc b7be 23a2 b73d fe52 fdbd 3659 423c
00000020: 23b7 5f3e bff1 9dbc f40b 8d3d 57c9 653d
00000030: d4fe 08be cc37 ac3e b7f7 e83e 227e de3d
00000040: b425 fcbd a7e9 46be 8e60 103e 23c4 b23e
00000050: b689 843d 7894 7fbd 50d4 a9bd 1921 733e
00000060: d15a b4bd 3784 5a3c f047 4e3e 9fab d03e
00000070: ca06 36bd 0788 2d3f 53b2 353e 7e53 253d
00000080: 07bc 12bd b752 acbe 511b bcbd 3caf 1a3e
00000090: 35e9 8f3d 8f07 1a3e bd00 12be da8c 71be
000000a0: 7ef9 5a3d e13d 1e39 43e0 7a3d 7162 803c
000000b0: 4d7f 65be 8e51 823d 2533 32be 59c5 fdbd
000000c0: 2a29 3f3e 210a 26be de8c 40be 61e2 d83e
000000d0: 01fa b2bd e099 793c a472 36be 41b4 0b3e
000000e0: 52aa a83d 5b9a 3f3e c6db a33d ea73 f03d
000000f0: 59a0 9a3c ba21 2b3f f5c6 09be 0e7a d8bc
-0.07875807 -0.18972476 0.46523327 0.0020219833 -0.35934922 0.08966472 -0.12369345 0.01186209
0.21847205 -0.019280313 0.068870455 0.056100216 -0.13378459 0.3363632 0.4550149 0.10863902
-0.12311879 -0.19425069 0.14099333 0.34915265 0.06471579 -0.06239745 -0.082924485 0.23743095
-0.08806384 0.013337187 0.2014463 0.40755937 -0.04444007 0.67785686 0.17743807 0.040362827
-0.035823848 -0.33656856 -0.09184898 0.15105909 0.070269026 0.15041946 -0.14258094 -0.23588887
0.05346059 0.00015091106 0.06124903 0.01567194 -0.22411843 0.063632116 -0.17402323 -0.12391157
0.18668047 -0.16214801 -0.18803737 0.42360213 -0.08739091 0.015234441 -0.1781717 0.1364298
0.08235611 0.18711226 0.08000903 0.11740859 0.018875288 0.6684834 -0.13454802 -0.026425388

fc.4.weight f4 [6, 64]
00000000: db72 c33d cfbf b53d fa42 37be 489a 91bd
00000010: ab9b 8cbe a853 993d b0c1 633c 2dd7 52bd
00000020: 5726 b73d fb4e df3d 714b cebd 72b7 22bd
00000030: 0e9c d23b d775 ed3c 1802 9f3d 1b2e 703c
00000040: 2838 68be 0b75 a73d 3122 6a3d eb3c 843d
00000050: 2164 263e c730 c93d 7c38 8d3d 0072 f93d
00000060: fc30 d4bd 8245 c53c 73d8 f0bd d9a2 e0bc
00000070: 8768 9c3a 4125 61be d069 6cbd f0ca 033c
00000080: dc0f 753c e61b 833d 9de6 b53d b3c7 573d
00000090: ccb3 d3bc dc13 babd aec6 673d b1e6 5c3d
000000a0: 495e fe3d ed09 90bd 46cc 173d 00b2 073e
000000b0: 865f 643c c7f4 883d 2063 e23d 8456 cf3d
000000c0: 63e6 cc3d 5216 4dbd 6b09 c2bd def2 d6bd
000000d0: c6c3 173e f157 a4bd e4a6 423d 4074 52bd
000000e0: a454 e43d fcc8 893b b9b6 4dbc daba 0d3d
000000f0: 9d49 85bd 24fe 5cbe 68c4 cd3c c8df c83d
00000100: d882 c73c 3167 66bd 513c 753d 348d c9bd
00000110: 9066 183e 2921 dd3c 44e1 4b3d 36e4 47bd
00000120: d643 053d 6c8c 223d a3e7 e7bc 0f16 823d
00000130: 2c89 59bd 152b 133d 21cb a93d fdb5 413d
00000140: 9b86 3d3e a096 b0bd 2cc7 a23d 5e42 a53d
00000150: 272a 033e 2cad 31bc 64e2 c8bd 6c98 c23d
00000160: b87f 933d 0c3b 83bd 1a89 a63d 54d2 b13d
00000170: c048 143b 6b34 3a3e b5d1 803c 8b4e f83b
00000180: ae8b 9abd 3c8e 01be 5a14 4abd 2bcf 333d
00000190: 244e e2bc 858d 0d3e 54a0 ee3c 6cd2 8b3a
000001a0: e7df 723d 4a9e b73c 70fa 05be 0d3d 35bd
000001b0: 8b4e 59bd 253e de3d c65b b1bd 204f d9bb
000001c0: 4570 be3d f991 c53c 2683 83bd c691 263e
000001d0: 0bf2 81bd 87b0 acbc 56c3 10bd b30a ce3d
000001e0: 8c1b cf3d 8432 d0bb cd8d 43bd a1cc 0c3d
000001f0: 4c54 dbbc 0d2c 303e 4f2e 5c3e e263 56be
00000200: d251 3fbd bffa 453d d570 f53c 143e 47bd
00000210: 766a a0bd b7c5 b93d e2c1 ffbd 6481 f13d
00000220: 9b65 84bb 2802 703d f715 803d 395e 4f3d
00000230: 3884 d3bb a592 ba3d 92ce b33d 1021 7cbd
00000240: cbd2 b23d b474 893d 3316 88bd fb91 263d
00000250: 8149 a13d 1c42 49bd 123e 703c e3af a73d
00000260: 91bf fcbc 6ec6 96bd 62be 9ebd d02d 2cbd
00000270: 0cd4 dabb c652 d83d 13ba 3f3d bebf fcbc
00000280: 3856 893d 1c0c 9d3d d63f f13c cf87 f8bc
00000290: 9fd9 663d 8005 203c 4424 86be 879d c53d
000002a0: 8875 843c b060 8a3d 49ed 5b3c c285 af3d
000002b0: a326 37bd 5c29 c0bd c0e2 243c 3d13 953d
000002c0: acb9 943c 2d3a 6ebd 957d da3d 8681 debc
000002d0: fd39 c83d 3dd6 63bd 65be a2bd ef71 013e
000002e0: 524a 263d 3ad5 bd3d 6415 2ebc 64b2 1fbc
000002f0: ab4d 31bd 8a90 bd3d 4da1 2bbe a3d9 803e
00000300: f095 623b 7b50 473d 969c fbbd ae3a e63d
00000310: 362d e4bd 31c9 013d 64cc e23d 3605 01be
00000320: 1ca3 c8be 1342 643c 0316 c3bd cab7 eaba
00000330: 0465 68bc 10ab 22bf c1f0 20bf 91a1 05be
00000340: b363 e2bd d409 94bd 1d28 043d 5a43 0fbf
00000350: 61cd d3be 5e63 b8be 1cc0 3cbe eada 92be
00000360: 5994 433d 4d74 25bc c220 0cbe d054 be3d
00000370: 5062 89bd 6436 593d 456f 6dbd f250 da3d
00000380: d1ab 113d 2ca4 53be cdfe f33b fccf b9be
00000390: e5a9 babd 67ba 8abd 7b79 2cbe 5280 9abd
000003a0: 1c93 21be fcde efbc 505a 633d 3fe7 26be
000003b0: 0f70 48bd f736 ba3b 0c16 ebbd 3246 d0bd
000003c0: 281d c4be 7836 d73d fd93 5b3d 975a aabd
000003d0: 1826 0cbe f7d8 70bd 2508 01be e8d1 c3bb
000003e0: 50cc a53b cb69 eebd cd80 713c 09fa 15be
000003f0: e56e d93d 1456 3bbe 6172 b0bc a693 ae3d
0.09543391 0.08874475 -0.17896643 -0.07109505 -0.27462515 0.07486659 0.013901159 -0.05147474
0.089428596 0.10903736 -0.10072983 -0.03972573 0.0064272946 0.028986854 0.07764071 0.01465943
-0.22677672 0.08176621 0.057161514 0.06456932 0.16249134 0.09823757 0.06895539 0.12179947
-0.103609055 0.024080995 -0.117600344 -0.027421402 0.0011933007 -0.21986867 -0.0577181 0.00804399
0.014957394 0.064018056 0.088818766 0.052680682 -0.02584257 -0.09085819 0.05658596 0.053930942
0.12420327 -0.07033143 0.037060045 0.13251495 0.01393879 0.066873126 0.11054063 0.101239234
0.1000488 -0.050070114 -0.094744526 -0.10495542 0.14820775 -0.08024586 0.04752244 -0.051380396
0.111489564 0.0042048674 -0.0125557715 0.034602024 -0.06508181 -0.21581322 0.025118068 0.09808308
0.024354383 -0.056250755 0.059871975 -0.098413855 0.14882874 0.026993351 0.049775377 -0.048801623
0.032535397 0.039684698 -0.028308695 0.063518636 -0.053109333 0.035929758 0.08290697 0.0472927
0.18508379 -0.086224794 0.07948145 0.08069299 0.12809049 -0.01084451 -0.098088056 0.095017284
0.07202095 -0.06407747 0.08131619 0.08682695 0.002262637 0.18184058 0.015724996 0.0075777224
-0.07546173 -0.12651914 -0.049335815 0.043898743 -0.027625151 0.13823517 0.029129185 0.0010667569
0.05929556 0.022414345 -0.13083816 -0.044247676 -0.05305342 0.10851697 -0.086600825 -0.006631747
0.092987575 0.024117457 -0.06421499 0.16266546 -0.06344994 -0.021080269 -0.035342537 0.100606345
0.10112676 -0.006353678 -0.047742654 0.034374837 -0.026773594 0.17204304 0.2150204 -0.2093654
-0.04670889 0.048334833 0.029961029 -0.048643187 -0.07832806 0.09070914 -0.12488152 0.117922574
-0.0040404326 0.058595806 0.062541895 0.050626967 -0.0064549707 0.091100015 0.087796345 -0.06155497
0.08731612 0.067117125 -0.06644859 0.04066656 0.07875348 -0.049135312 0.014663236 0.081878446
-0.030853065 -0.07362066 -0.077511564 -0.042035878 -0.00667811 0.10562663 0.046808314 -0.030853149
0.06705898 0.07668325 0.029449385 -0.030338196 0.056359883 0.009766936 -0.26199543 0.096491866
0.016169325 0.06756723 0.013423272 0.08570434 -0.04471458 -0.09382889 0.010063827 0.0727906
0.018154941 -0.05816095 0.10668484 -0.027161371 0.097766854 -0.055624235 -0.07946471 0.12641118
0.04059822 0.09269185 -0.010625217 -0.0097471215 -0.04328696 0.09256084 -0.1676075 0.25166044
0.0034574233 0.048660737 -0.12285726 0.11241661 -0.11141436 0.03168601 0.11074141 -0.12599644
-0.39186943 0.013931769 -0.09525683 -0.0017907557 -0.01418424 -0.6354227 -0.6286736 -0.13049914
-0.11054172 -0.07228437 0.032264818 -0.55962145 -0.4136763 -0.3601331 -0.18432659 -0.28682643
0.047748897 -0.010098529 -0.13684371 0.092935205 -0.06708205 0.053030387 -0.057967443 0.1065997
0.035564248 -0.20668095 0.007446146 -0.36291492 -0.09114436 -0.06773835 -0.16843216 -0.075440064
-0.15778774 -0.029281132 0.05550605 -0.16299151 -0.048934992 0.005682822 -0.114788145 -0.10169639
-0.38303494 0.10508436 0.05360793 -0.0831806 -0.13686407 -0.058800664 -0.12600763 -0.0059759505
0.0050597563 -0.11641272 0.014740181 -0.14646162 0.106168546 -0.18294555 -0.021538915 0.085242555

fc.4.bias f4 [6]
00000000: d599 e3bd 4b60 843e 9972 0b3e 20d8 03be
00000010: aac3 b3bc 5d2d 6fbd
-0.111133255 0.25854716 0.13617934 -0.12875414 -0.021943886 -0.05839287
