main/models/mlpSanity1/best_model.pt (torch, 120824 bytes, 7 tensors)

hist_emb.weight f4 [7, 8]
0	0xbe961f06	-0.29320544
1	0x3ea82b88	0.32845712
2	0x3fc17702	1.5114443
3	0xbd94404a	-0.07238825
4	0x3f9fed3a	1.2494271
5	0x3f018082	0.5058671
6	0x3d8ed1f8	0.06973642
7	0xbf085ccb	-0.5326659
8	0x3f80c634	1.0060487
9	0xbf80ac40	-1.0052567
10	0xbfe286e3	-1.7697414
11	0x3eedb355	0.46425882
12	0xbe9541e0	-0.2915182
13	0xbe9867f3	-0.29766807
14	0x3f8eb4d1	1.1148931
15	0x3e4927e0	0.19644117
16	0xbd933cad	-0.07189307
17	0x3fc85c4c	1.5653167
18	0x3e346445	0.17616375
19	0x3ebe8b47	0.37215635
20	0x3f45a129	0.77199036
21	0xbd726bcb	-0.05918483
22	0x3de584e8	0.112069905
23	0xbf5122f5	-0.81693965
24	0xbf1396bf	-0.57651895
25	0xbdbd8d25	-0.09255437
26	0xbe8a8ad5	-0.27059045
27	0xbedbcb9c	-0.4292878
28	0xbe616a95	-0.22013314
29	0x3f26b153	0.65114325
30	0xbf4e05f7	-0.8047785
31	0x3e992e0c	0.29917943
32	0xbf9f465c	-1.2443347
33	0x3fb066c6	1.3781364
34	0xbeb6c2ba	-0.3569544
35	0x3fa64001	1.2988282
36	0xbe156d77	-0.14592539
37	0xbf525b50	-0.8217058
38	0xbfe7f575	-1.8121783
39	0xbe9b64a3	-0.30350217
40	0x3ea75628	0.3268292
41	0xbe52c89d	-0.2058434
42	0x3f9926da	1.1964982
43	0xbecd4f10	-0.40099382
44	0x3f36822f	0.71292394
45	0x3f88f256	1.0698955
46	0xbed6294c	-0.41828382
47	0x3e814268	0.25245976
48	0x00000000	0.0
49	0x00000000	0.0
50	0x00000000	0.0
51	0x00000000	0.0
52	0x00000000	0.0
53	0x00000000	0.0
54	0x00000000	0.0
55	0x00000000	0.0

fc.0.weight f4 [128, 93]
0	0x3d8508e1	0.06495834
1	0xbd4f49ca	-0.05060748
2	0x3cc511d4	0.024056353
3	0x3d6076ab	0.05480067
4	0x3dd097a5	0.10185174
5	0xbd4ec4a8	-0.050480515
6	0xbd21ad72	-0.03947205
7	0xbd5c971f	-0.053855058
8	0x3d027e27	0.03185859
9	0xbced92d8	-0.029000685
10	0x3d6111ab	0.05494849
11	0xbc65ee92	-0.01403393
12	0x3d7cafef	0.06169122
13	0x3d7baaa3	0.06144203
14	0xbd8628b0	-0.06550729
15	0x3d21bf1a	0.03948889
16	0xbdce2cde	-0.100671515
17	0xbd7604d4	-0.0600632
18	0x3d4582d4	0.04822047
19	0x3cc05565	0.02347822
20	0x3dd17f62	0.102293745
21	0x3d0d898b	0.034555
22	0xbdb98159	-0.09057874
23	0xbd938e68	-0.07204896
24	0x3b1223f9	0.0022299273
25	0xbd1a55e8	-0.037679583
26	0x3cc7d50d	0.024393583
27	0x3d970425	0.073738374
28	0xbd84c88a	-0.06483562
29	0xbc70ac25	-0.01468948
30	0xbdb8047f	-0.089852326
31	0x3cc07548	0.023493424
32	0xbcfe1886	-0.031017553
33	0x3da2ae9b	0.079434596
34	0xbdc67f55	-0.096922554
35	0x3d7cb910	0.061699927
36	0x3c9ff60d	0.019526506
37	0xbb7817a2	-0.0037855883
38	0xbd1ed30f	-0.0387755
39	0xbd0fabbe	-0.035075895
40	0xbdbb8b06	-0.09157376
41	0x3dac96a8	0.08427173
42	0xbc15e49b	-0.009148742
43	0xbd970592	-0.07374109
44	0xbd025ac4	-0.031824842
45	0x3d2edc77	0.04269072
46	0xbd838ece	-0.06423722
47	0xbdce149c	-0.10062525
48	0x3da08630	0.07838094
49	0x3d9d3120	0.076753855
50	0x3dbe92a0	0.0930531
51	0x3da02959	0.078203864
52	0x3cbfe397	0.023423953
53	0xbdc55fd3	-0.09637418
54	0xbd68cc3f	-0.05683541
55	0x3d995b9d	0.07488177
56	0x3d65e555	0.05612691
57	0x3d75f1e1	0.060045127
58	0x3dc08366	0.09400062
59	0x3ccb9f68	0.024856284
60	0x3c0a0d63	0.008426043
61	0xbd82a48b	-0.0637904
62	0xbd0a1c48	-0.033718377
63	0x3b0475c6	0.00202118
64	0xbd5723a4	-0.052524224
65	0xbd9e7849	-0.07737786
66	0xbd0f4e96	-0.034987055
67	0x3d5f58b3	0.05452795
68	0xbd93d813	-0.07218947
69	0x3da77cea	0.08178122
70	0x3d3307ff	0.043708798
71	0xbd3744a2	-0.044743188
72	0x3d4dd066	0.050247572
73	0xbd93db0b	-0.072195135
74	0x3c186507	0.009301431
75	0x3d426e29	0.04746834
76	0x3d9fe777	0.0780782
77	0xbd782381	-0.060580734
78	0x3d7ce231	0.06173915
79	0xbccfb614	-0.025355376
80	0xbd616a70	-0.055033147
81	0xbc9d7ca1	-0.019224467
82	0x3d83bda8	0.064326584
83	0xbce12bf7	-0.027486784
84	0xbdb76b00	-0.089559555
85	0x3d80ba60	0.06285548
86	0xbcd90e61	-0.026496114
87	0x3d68e2fb	0.05685709
88	0x3d754ca4	0.059887543
89	0x3d2fe3af	0.042941745
90	0x3dc63015	0.0967714
91	0xbcb25724	-0.021770068
92	0x3dc69726	0.09696798
93	0xbd71d271	-0.059038583
94	0xbd6ab4c8	-0.057301313
95	0x3d2fff0a	0.042967834
96	0x3ca0af1a	0.019614745
97	0xbdcd59d5	-0.100269
98	0xbdb8069d	-0.089856364
99	0x3cffcd73	0.031225896
100	0xbdb97e45	-0.09057287
101	0x3d90d4f7	0.0707187
102	0xbd70320b	-0.058641475
103	0x3d843ec1	0.06457282
104	0x3d233322	0.039843686
105	0xbd65c1d1	-0.05609304
106	0xbdb6dc4d	-0.08928738
107	0x3dcf3394	0.101172596
108	0xbc2f4add	-0.010699001
109	0x3ceb981e	0.028759059
110	0xbd8d896f	-0.06910979
111	0xbdbeed0e	-0.09322558
112	0x3da6abd0	0.081382394
113	0x3ccdc493	0.025118148
114	0x3c83cfe3	0.016090339
115	0xbc14f198	-0.009090804
116	0xbd90f4fb	-0.07077976
117	0x3d24f979	0.04027698
118	0xbdc0d26a	-0.09415133
119	0x3ce0b652	0.027430687
120	0xbc9018ce	-0.017589953
121	0xbdcbc39d	-0.0994942
122	0xbd5e0761	-0.054206256
123	0xbd4dbfb7	-0.05023166
124	0x3d731d42	0.059354074
125	0xbdc1a25e	-0.09454797
126	0xbd700983	-0.05860282
127	0xbdadfcd1	-0.084954865
128	0x3dcb4497	0.09925192
129	0x3d43b359	0.04777846
130	0x3c5b37b9	0.013379985
131	0xbd8da56c	-0.06916317
132	0x3d64a395	0.055820066
133	0xbcfc8f00	-0.030829906
134	0xbd0edf27	-0.034880783
135	0xbdd18a34	-0.10231438
136	0xbd6e2573	-0.058141183
137	0x3c882a60	0.016621768
138	0xbae4b884	-0.001745001
139	0xbda65ab1	-0.08122767
140	0x3bb491db	0.0055105514
141	0x3d40e372	0.04709191
142	0x3d501d2a	0.050809063
143	0x3d99026e	0.074711666
144	0xbd06e3de	-0.032932155
145	0x3d8a1cab	0.06743749
146	0xbbed9919	-0.0072509167
147	0x3c89d550	0.016825348
148	0xbd9a1fbf	-0.07525586
149	0x3cc85f83	0.024459606
150	0x3d16b37d	0.036792267
151	0xbcd033bb	-0.025415292
152	0xbbf2ba9b	-0.007407499
153	0x3da75399	0.08170242
154	0xbdc3a90d	-0.09553728
155	0x3db658e7	0.089036755
156	0x3c1d1dcd	0.009589625
157	0xbdd01414	-0.101600796
158	0x3d2d3681	0.042288307
159	0xbda5ddd6	-0.080989525
160	0x3d607576	0.05479952
161	0xbdd329d2	-0.10310711
162	0x3bb87b23	0.0056299134
163	0x3d6ac28b	0.057314437
164	0x3d0423da	0.032260753
165	0x3d598a0c	0.053110167
166	0x3d8fbd18	0.07018489
167	0xbda09737	-0.07841342
168	0xbd1d450d	-0.03839593
169	0x3c5df023	0.013546023
170	0xbd5c35b2	-0.053762145
171	0xbb2add1c	-0.0026071733
172	0x3cc35179	0.02384256
173	0x3d94ee7e	0.07272051
174	0xbdb66dac	-0.08907637
175	0xbdbc7be0	-0.09203315
176	0x3dc8bf97	0.09802168
177	0xbd88477b	-0.06654259
178	0x3cba05b2	0.022707794
179	0x3ca4d993	0.020123279
180	0x3c83df7e	0.01609778
181	0x3c9a95fe	0.01887035
182	0xbd202c1a	-0.03910456
183	0xbd349f6d	-0.044097353
184	0xbc751199	-0.014957809
185	0x3b411070	0.002945926
186	0xbd8495f8	-0.06473917
187	0x3ca8d4da	0.020609308
188	0xbc02b736	-0.007978251
189	0xbd8d5d3c	-0.06902549
190	0xbdf495d0	-0.11942637
191	0xbcbe753b	-0.02324926
192	0xbd36885b	-0.044563632
193	0x3d373579	0.04472873
194	0x3d29122a	0.04127709
195	0x3cf91756	0.030406635
196	0x3c1b29d7	0.009470425
197	0x3df80d8e	0.1211196
198	0xbbce8f35	-0.0063036927
199	0x3d0ae7fa	0.033912636
200	0x3d43d229	0.047807846
201	0xbda909c2	-0.08253814
202	0xbd7a52f1	-0.061114255
203	0xbd9988bd	-0.07496784
204	0xbd22cca5	-0.039745945
205	0x3da6f011	0.08151258
206	0xbb41b624	-0.0029558027
207	0x3d3bf111	0.045884196
208	0xbd2e4519	-0.042546365
209	0x3db8e7ac	0.09028563
210	0x3d80f967	0.0629757
211	0xbd10e9fc	-0.035379395
212	0xbcdd4b4a	-0.02701344
213	0x3dc08cb3	0.09401836
214	0x3c36ef97	0.011165521
215	0xbdbbdb67	-0.09172707
216	0xbd248e44	-0.040174738
217	0x3d109cae	0.03530567
218	0x3b987d9a	0.0046536447
219	0xbd67c68f	-0.056585845
220	0x3c30f136	0.010799697
221	0x3b81aacb	0.0039571277
222	0xbd31cb0d	-0.043406535
223	0x3d901052	0.07034363
224	0x3c8015d7	0.015635414
225	0xbdb79a6a	-0.08964999
226	0x3d9ea8c3	0.077470325
227	0x3ccd6377	0.025071843
228	0x3c8f6918	0.017506167
229	0x3daaeec9	0.08346326
230	0xbdc8d50b	-0.0980626
231	0x3c1cff86	0.009582406
232	0x3c0f866a	0.008760074
233	0x3c9e59ea	0.019329984
234	0xbd5eb799	-0.05437431
235	0x3db40efc	0.087919205
236	0xbd97148c	-0.07376966
237	0x3dc28eb9	0.094998784
238	0xbc69ca28	-0.014269389
239	0x3cda7928	0.0266691
240	0xbd017731	-0.03160781
241	0xbdab7d0b	-0.083734594
242	0x3d8afb9d	0.06786273
243	0xbdcbb379	-0.09946341
244	0x3d3b9e6c	0.04580538
245	0xbd93df84	-0.072203666
246	0xbd714fc3	-0.058913957
247	0x3c3c9b2b	0.011511604
248	0xbd8f2bea	-0.06990798
249	0xbcf151e0	-0.029457986
250	0xbdb63d3a	-0.08898397
251	0xbbd9432f	-0.0066303234
252	0xbd18f4fe	-0.037343018
253	0x3c96ff33	0.018432235
254	0x3d6f061b	0.058355432
255	0x3cd42f2f	0.025901405

fc.0.bias f4 [128]
0	0x3cd2332b	0.025659164
1	0xbdc3c09d	-0.095582224
2	0x3d162a38	0.036661357
3	0x3d76d390	0.060260355
4	0x3db53337	0.08847659
5	0xbd39e6f3	-0.045386266
6	0xbd43c5ba	-0.04779599
7	0xbdd2954b	-0.102823816
8	0x3c1b24d8	0.009469233
9	0xbd71e9a8	-0.059060723
10	0xbda077ae	-0.07835327
11	0x3dba7478	0.09104246
12	0x3d413596	0.047170244
13	0xbd0331d0	-0.032029927
14	0xbcf3959a	-0.029734422
15	0x3d9e6bc7	0.07735401
16	0x3dac4c80	0.08413029
17	0x3da8e13f	0.08246087
18	0xbd92d5ea	-0.07169707
19	0x3de46313	0.111517094
20	0xbd410a63	-0.047129046
21	0xbd48963f	-0.04897141
22	0x3cd90a2e	0.026494112
23	0xbd6fafa5	-0.058517117
24	0x3dc289b9	0.09498925
25	0x3d38a0e6	0.04507532
26	0x3d1f14ab	0.03883807
27	0x3d226056	0.039642654
28	0xbdab5d72	-0.08367433
29	0xbd2062db	-0.039156776
30	0x3dd048d9	0.101701446
31	0x3da99e3e	0.082821354
32	0x3d46611e	0.048432462
33	0x3cb69cdf	0.022291599
34	0x3dab5b36	0.083670065
35	0x3d0e080d	0.034675647
36	0x3d4a3620	0.049368024
37	0xbd0d6a6f	-0.03452533
38	0xbccc3c80	-0.024931192
39	0xbd90c872	-0.07069482
40	0xbde3572a	-0.111006096
41	0x3da5ce54	0.080959946
42	0x3d588015	0.052856524
43	0x3d675e65	0.056486506
44	0x3cc82583	0.02443195
45	0x3d473a33	0.048639487
46	0x3dc61889	0.096726485
47	0xbd8f95e4	-0.07011011
48	0x3da99973	0.08281221
49	0xbc99fb03	-0.01879645
50	0xbd3b9e7b	-0.045805436
51	0xbdc83f7c	-0.09777734
52	0x3c575521	0.013142855
53	0xbd4d8299	-0.050173376
54	0xbd251a76	-0.04030844
55	0xbd41f320	-0.047351003
56	0xbd1b5b4d	-0.037928868
57	0x3d535f85	0.051604766
58	0x3d922d97	0.07137602
59	0xbd5c1a34	-0.053735927
60	0xbca23c74	-0.019804217
61	0xbd64f722	-0.055899747
62	0x3d88ec8e	0.06685744
63	0xbc10edaa	-0.008845726
64	0x3d7cc021	0.061706666
65	0x3d2be5fa	0.04196737
66	0x3d52667f	0.05136728
67	0xbd31d2bc	-0.043413863
68	0x3d70670c	0.058692023
69	0xbd2e79b5	-0.042596538
70	0x3a47b4ef	0.0007618209
71	0xbd9f3e6e	-0.077755794
72	0x3dc8d34a	0.09805925
73	0xbd37b6c1	-0.044852022
74	0xbcbda360	-0.023149192
75	0x3d09d257	0.03364786
76	0xba6a0d8f	-0.0008928412
77	0xbd35efc1	-0.0444181
78	0xbdcf86cc	-0.10133132
79	0xbda8e000	-0.082458496
80	0xbdb9f814	-0.0908052
81	0x3cc174f8	0.023615345
82	0x3c66232d	0.0140464725
83	0xbdade6c6	-0.08491282
84	0xbca40112	-0.020020042
85	0x3b0dcc91	0.0021636824
86	0xbc925440	-0.01786244
87	0x3d98efb8	0.07467598
88	0x3d675f41	0.056487326
89	0xbd8434df	-0.06455397
90	0x3cf188d5	0.029484192
91	0x3d70f6e9	0.058829222
92	0xbb9225b0	-0.004460059
93	0xbc83429c	-0.016022973
94	0x3d0eaa62	0.03483046
95	0xba0e4220	-0.00054267235
96	0xbdb4cd4a	-0.08828218
97	0x3daa80bd	0.08325336
98	0x3be97ece	0.007125712
99	0x3ce44d55	0.027868906
100	0x398c6f3a	0.0002678575
101	0xbdab9bb7	-0.083793096
102	0xbb08e2bb	-0.0020887095
103	0xbd94e2df	-0.07269835
104	0x3de5c83c	0.11219832
105	0xbc6a0627	-0.014283693
106	0xbd77579f	-0.060386296
107	0x3dbb14a5	0.09134797
108	0xbd1f5f1b	-0.03890906
109	0x3cabf7ad	0.020992124
110	0x3d302e69	0.04301301
111	0xbd1088a8	-0.035286576
112	0xbdd346b3	-0.10316219
113	0xbd742a9c	-0.059610948
114	0xbda756b9	-0.08170838
115	0x3bcaf494	0.0061937068
116	0xbd401798	-0.0468975
117	0x3d789751	0.06069118
118	0xbd8322a1	-0.06403089
119	0x3d68f856	0.056877457
120	0x3c1c486c	0.009538751
121	0xbc5658af	-0.013082667
122	0xbd5c5a45	-0.053797025
123	0x3c79ef66	0.015254831
124	0xbd91e3e9	-0.071235485
125	0xbda48e8d	-0.08035002
126	0x3d67ea5e	0.056619994
127	0x3d648745	0.055793066

fc.2.weight f4 [128, 128]
0	0x3d8c029f	0.068364374
1	0x3d6cb7b7	0.05779239
2	0x3d8b11ad	0.06790481
3	0xbc78d270	-0.015186891
4	0xbcbd1baf	-0.02308449
5	0xbc3b039f	-0.011414438
6	0xbb86957e	-0.0041071763
7	0xbd60e1fe	-0.054903023
8	0xbd3417e7	-0.043968108
9	0xbaf573d9	-0.0018726542
10	0xbd2a64ce	-0.04160004
11	0x3d1fb4ca	0.038990773
12	0xbd578178	-0.052613705
13	0xbd5d1c17	-0.053981867
14	0x3ca88e07	0.020575536
15	0x3d8bceb2	0.068265334
16	0x3cdfdc03	0.02732659
17	0x3c823f7c	0.015899412
18	0x3d52d06f	0.05146831
19	0x3c556cff	0.013026475
20	0x3d00868e	0.03137832
21	0x3d78cc68	0.060741812
22	0x3d6839f2	0.056695886
23	0x3c955eff	0.018233774
24	0x3d9670ab	0.073457085
25	0xbdd38403	-0.103279136
26	0x3d5f116b	0.05445997
27	0x3ce28fd8	0.02765648
28	0x3d460b17	0.04835042
29	0xbcf1192a	-0.029430944
30	0x3cba320a	0.022728939
31	0x3d51938d	0.051166106
32	0xbd649633	-0.055807304
33	0x3bf7b4c0	0.007559389
34	0xbc4844e3	-0.012223455
35	0x3d1c8d5d	0.038220752
36	0xbd53f230	-0.05174464
37	0xbca5ec90	-0.020254403
38	0x3c95f0c2	0.018303279
39	0x3a9a2e59	0.001176308
40	0x3d888834	0.06666604
41	0x3cf7c514	0.030245341
42	0xbc726d7f	-0.014796614
43	0xbcb173b3	-0.021661615
44	0x3d239053	0.03993256
45	0x3c52597c	0.012838718
46	0x3dc7c7a4	0.09754875
47	0xbcd5f026	-0.026115488
48	0x3d19cc34	0.03754826
49	0x3d695bcf	0.05697232
50	0xbd1a615e	-0.037690513
51	0xbd080037	-0.03320333
52	0xbd2467ac	-0.04013793
53	0xbd7cd41e	-0.06172573
54	0xbd07eca1	-0.03318465
55	0x3d2d1180	0.042253017
56	0x3d847da5	0.06469277
57	0x3d279182	0.04091025
58	0x3e005268	0.12531435
59	0x3d91eee0	0.0712564
60	0x3b7d878d	0.003868553
61	0x3d85dec4	0.0653663
62	0xbd2b4557	-0.041814175
63	0x3d5e24f4	0.05423446
64	0x3d8089d7	0.06276291
65	0x3cb072dc	0.021539144
66	0xbd8cf5aa	-0.06882794
67	0xbd06fb0f	-0.032954272
68	0x3d95ed89	0.07320697
69	0xbd54e866	-0.051979445
70	0x3af52c85	0.0018705284
71	0xbc4c9b60	-0.012488216
72	0x3d0a4ef6	0.03376671
73	0xbd2a49db	-0.04157434
74	0xbd35cd27	-0.0443851
75	0xbcc6fff3	-0.024291968
76	0x3d8cc481	0.06873418
77	0xba0f777d	-0.0005472822
78	0x3d2cad84	0.042157665
79	0xbc8ba270	-0.01704523
80	0x3db08acd	0.08620224
81	0xbd900011	-0.07031263
82	0x3db3c40f	0.087776296
83	0x3cfa0228	0.030518606
84	0xbd53f728	-0.05174938
85	0x3d8bf958	0.06834668
86	0xbd0c3183	-0.034226906
87	0xbc7ce45b	-0.015435304
88	0xbd963c19	-0.073356815
89	0x3d572478	0.052525014
90	0x3dc8200b	0.09771737
91	0x3b8ee7c4	0.0043611247
92	0x3d859a54	0.065235764
93	0xbd0909d5	-0.033456642
94	0xbd914d93	-0.07094874
95	0x3b6da4c5	0.003626154
96	0xbd07481a	-0.033027746
97	0xbc43c728	-0.011949338
98	0x3c7e6f43	0.015529457
99	0xbd9d42bb	-0.076787435
100	0x3d8830dc	0.06649944
101	0x3cd4dcea	0.025984246
102	0x3da349a3	0.079730295
103	0x3ceb416b	0.028717717
104	0xbc1d5218	-0.009602092
105	0x3d736875	0.05942579
106	0x3d7d42c4	0.06183125
107	0x3d966ba8	0.073447526
108	0xbca79888	-0.020458475
109	0xbd7582b9	-0.05993912
110	0x3c660047	0.014038152
111	0xbd0834b4	-0.033253387
112	0xbd0fcdf8	-0.035108536
113	0xbda7a491	-0.081856854
114	0x3d2874cc	0.04112701
115	0x3da0ef5c	0.07858154
116	0xbc024326	-0.00795058
117	0xbdc81306	-0.097692534
118	0x3d161043	0.036636602
119	0x3ba5f155	0.0050641694
120	0xbd38102c	-0.044937298
121	0xbd885d36	-0.066584036
122	0x3d8aeec4	0.06783822
123	0xbb0b6a30	-0.002127301
124	0x3d9969ab	0.07490858
125	0x3cee6f8b	0.029105922
126	0xbd72e313	-0.059298586
127	0xbd494f34	-0.0491478
128	0x3d05bcf6	0.03265091
129	0xbd6003f3	-0.054691266
130	0x3d6ad3e3	0.057330977
131	0x3d92ba82	0.0716448
132	0x3c238ac6	0.009981817
133	0x3bbba7af	0.0057267766
134	0xbc94513a	-0.018105138
135	0xbd8f90c5	-0.070100345
136	0xbdb4ab84	-0.088217765
137	0xbd6b4a76	-0.05744406
138	0xbcbd97c4	-0.023143657
139	0x3d47b7ad	0.04875915
140	0x3c5a4498	0.013322018
141	0x3dafea2c	0.085895866
142	0xbb028737	-0.001991702
143	0x3c5d2ad6	0.013498982
144	0xbca2cc90	-0.019872934
145	0x3d22af0b	0.039717715
146	0x3db1e200	0.08685684
147	0x3d7bae5d	0.061445583
148	0xbcf6ead6	-0.030141275
149	0x3d4f41cd	0.050599862
150	0xbced957b	-0.029001942
151	0x3b7a9761	0.0038237202
152	0x3c9462ae	0.01811346
153	0x3cfa8e3b	0.030585399
154	0x3d2c6d9d	0.042096723
155	0xbd3c3f86	-0.04595902
156	0x3d7e14cc	0.062031552
157	0xbcc7b443	-0.024377948
158	0xbd9dc6bd	-0.07703922
159	0x3c9c83a7	0.019105745
160	0x3d64ff9b	0.055907827
161	0x3d8d66a0	0.0690434
162	0x3cdc5eae	0.026900616
163	0x3b13d6d4	0.0022558467
164	0x3b18cbe9	0.00233149
165	0xbc8f2f1c	-0.017478518
166	0x3d8fad89	0.07015521
167	0xbb80dd45	-0.0039326274
168	0xbbfea3e8	-0.007771004
169	0x3cb2c8a8	0.021824196
170	0xbd843ec2	-0.064572826
171	0x3dad0653	0.08448472
172	0x3db11887	0.08647256
173	0xbda9634d	-0.08270893
174	0xbb90ea5b	-0.0044224686
175	0xbd117c96	-0.035519205
176	0xbd91e8e7	-0.07124501
177	0xbc82d7b7	-0.015972001
178	0xbd7f3601	-0.06230736
179	0xbd40c7fd	-0.047065724
180	0x3d5642b7	0.052309718
181	0xbd1ef91f	-0.0388118
182	0xbcf8b60f	-0.03036025
183	0xbd3c011a	-0.045899488
184	0x3c0f5d73	0.008750307
185	0xbc7d3979	-0.015455597
186	0xbd26be17	-0.040708628
187	0xbdafa9ff	-0.08577346
188	0xbda92651	-0.082592614
189	0xbd940ee8	-0.07229406
190	0x3d2e6e77	0.042585816
191	0xbd97c7c4	-0.07411149
192	0xbd73d253	-0.059526753
193	0x3d8b1880	0.067917824
194	0x3ce6d254	0.028176464
195	0xbc041d94	-0.008063693
196	0xbcb2c35a	-0.021821667
197	0xbdaa7717	-0.08323496
198	0xbc8431e3	-0.01613707
199	0x3d6930f8	0.056931466
200	0x3daf7554	0.085673004
201	0x3ca85990	0.02055052
202	0xbc9e770c	-0.019343875
203	0x3c82691e	0.015919264
204	0x3d0079d8	0.0313662
205	0xbc2a62c4	-0.010399524
206	0xbd189d21	-0.037259225
207	0x3d1f1f37	0.03884813
208	0x3cb412ad	0.021981562
209	0x3b5735df	0.0032838506
210	0xbd78b75d	-0.060721744
211	0xbd98fdce	-0.074702844
212	0x3d205e36	0.039152347
213	0x3d241684	0.040060535
214	0x3d153f36	0.036437236
215	0xbd6c3497	-0.05766734
216	0x3d4a6121	0.049409036
217	0x3d4e6f4b	0.050399106
218	0xbd9f651e	-0.077829584
219	0xbcc95574	-0.02457688
220	0xbd8a8deb	-0.0676535
221	0xbd5032e7	-0.050829794
222	0xbc630e79	-0.013858431
223	0x3c5d5b5c	0.013510551
224	0xbbd34f86	-0.006448689
225	0xbd7aef5b	-0.061263423
226	0xbc8986b7	-0.01678787
227	0x3cd2590e	0.02567723
228	0x3d770e29	0.06031624
229	0x3c68707e	0.0141869765
230	0x3c63cb0d	0.013903392
231	0xbdae7e36	-0.085201666
232	0x3da35bcf	0.079764955
233	0xbc826b5a	-0.01592033
234	0xbcc02e97	-0.023459716
235	0x3c17f07c	0.009273645
236	0x3cc61b50	0.024182945
237	0xbd99a73c	-0.075026006
238	0x3cc890ec	0.024483167
239	0x3d4a52e0	0.049395442
240	0xbdacba1c	-0.08433935
241	0xbd0c9be1	-0.034328345
242	0x3cf0f497	0.029413505
243	0xbd7277cd	-0.059196282
244	0xbd9116b7	-0.07084411
245	0x3da580ad	0.080811836
246	0xbd60a1cd	-0.054841805
247	0xbd93cd0f	-0.07216846
248	0x3cccf243	0.025017863
249	0xbba80428	-0.0051274486
250	0xbce03c36	-0.02737246
251	0x3c8eb545	0.01742042
252	0x3cf6313e	0.030052777
253	0x3cf0ff8d	0.029418731
254	0x3d931834	0.07182351
255	0xbc63fb5b	-0.013914908

fc.2.bias f4 [128]
0	0x3d256bb8	0.04038593
1	0xbcdc20c9	-0.026871102
2	0x3d67055f	0.056401607
3	0x3c44f40d	0.012021077
4	0xbc4f5b7a	-0.012656087
5	0xbd860a35	-0.065449156
6	0x3cb85268	0.022500232
7	0xbc721955	-0.014776547
8	0x3d25d7d3	0.04048903
9	0xbdbaf369	-0.09128458
10	0xbda890f3	-0.08230772
11	0x3cd79569	0.026316362
12	0x3d8b9228	0.068149865
13	0x3cf33d24	0.02969224
14	0x3cedb93f	0.029018996
15	0x3c2308ff	0.009950875
16	0x3d25db9b	0.040492635
17	0x3b2f2d51	0.0026729892
18	0x3d5e90ae	0.054337196
19	0x3cd09f32	0.025466535
20	0x3cb20514	0.021730937
21	0x3d8f471f	0.06995987
22	0x3da5316b	0.08066066
23	0x3d075575	0.033040483
24	0x3d91bea5	0.07116441
25	0x3d22fd83	0.03979255
26	0x3dd641fe	0.10461806
27	0xbd24c513	-0.040227007
28	0x3dac1717	0.084028415
29	0x3c40e0f4	0.011772383
30	0xbc87d785	-0.01658226
31	0x3bfffac3	0.0078118755
32	0x3d0c17d1	0.0342024
33	0xbd71acd9	-0.05900273
34	0xbcc66675	-0.024218777
35	0x3d158ce5	0.03651132
36	0x3d26ee81	0.0407548
37	0x39ad8f0d	0.00033103712
38	0xbbe3608a	-0.0069389986
39	0xbc97510a	-0.01847126
40	0x3d84db49	0.06487138
41	0xbcc13d5a	-0.023588825
42	0xbcf05ee9	-0.029342132
43	0x3d8e4cb4	0.06948224
44	0x3dec1e7e	0.115292534
45	0x3c8363d5	0.016038815
46	0x3d89d020	0.0672915
47	0xbc389040	-0.011264861
48	0x3d2d3302	0.042284973
49	0x3d6c142d	0.05763643
50	0xbd8c0022	-0.06835963
51	0x3d2fa3d5	0.04288085
52	0x3d3edbc0	0.04659629
53	0xbbbdf0d8	-0.005796533
54	0xbd512045	-0.051056165
55	0x3d16ec8b	0.03684668
56	0x3daedfa5	0.085387506
57	0x3d941471	0.072304614
58	0xbc5a9a07	-0.013342387
59	0xbd100675	-0.035162408
60	0x3d5d0608	0.05396083
61	0xbd79f7e2	-0.061027415
62	0xbdae515b	-0.08511611
63	0xbd29b409	-0.04143146
64	0x3d41a141	0.047272924
65	0xbd6275d2	-0.055288143
66	0x3ca53440	0.020166516
67	0xbc8d3f4c	-0.017242096
68	0x3be03864	0.00684266
69	0xbd171f20	-0.036894917
70	0xbcc5a1a5	-0.02412493
71	0xbd879d8b	-0.06621846
72	0xbc9655d0	-0.018351465
73	0x3cc041bb	0.023468843
74	0xbd1c0c51	-0.038097683
75	0x3d249045	0.04017665
76	0xbc9055c1	-0.017619016
77	0xbd9afbcd	-0.075675584
78	0x3d8fc8ae	0.070206985
79	0x3cf46edc	0.029838018
80	0x3d54ed8f	0.051984366
81	0x3b1d0a9c	0.0023962623
82	0x3d8a7921	0.06761385
83	0x3d52e19e	0.051484697
84	0x3d6afee7	0.057372
85	0xbd92e833	-0.07173195
86	0xbc7c9d7b	-0.015418406
87	0xbc1a04c1	-0.0094005475
88	0xbd441a1d	-0.047876466
89	0x3d6dfc75	0.05810209
90	0x3d558cf4	0.052136377
91	0x3dcb6b03	0.0993252
92	0x3d8d284c	0.06892452
93	0x3d0b9085	0.03407337
94	0x3c969b98	0.01838474
95	0xbd573b62	-0.052546866
96	0x3c60701a	0.013698602
97	0x3cff6975	0.031178216
98	0x3d12f178	0.035874814
99	0x3dde11d2	0.10843243
100	0xbd1ff89e	-0.03905546
101	0xba1ac508	-0.0005903994
102	0xbbb762d2	-0.005596497
103	0xbd9286a7	-0.07154589
104	0x3daaec83	0.08345892
105	0x3d988f4d	0.074492075
106	0xbce72f49	-0.02822079
107	0x3d8bceed	0.06826577
108	0x3d9dc4c0	0.07703543
109	0xbda16457	-0.078804664
110	0x3db15fb4	0.08660832
111	0x3d7fdfa0	0.062469125
112	0xbd3e7c20	-0.046505094
113	0xbb12af3b	-0.0022382278
114	0xb9cb8e65	-0.0003882527
115	0x3d2dc109	0.04242042
116	0xbc0cbe78	-0.008590333
117	0x3babe2bf	0.005245536
118	0x3d14b141	0.036301855
119	0x3d8ff1bf	0.07028531
120	0xbcf2283b	-0.029560199
121	0x3db2b6a8	0.08726245
122	0xbd6b58cd	-0.057457734
123	0x3d56e22a	0.05246178
124	0xbd3a0e6d	-0.045423914
125	0x3d01d72e	0.031699352
126	0xbd905bd4	-0.07048765
127	0xbdd69a8e	-0.10478698

fc.4.weight f4 [6, 128]
0	0x3da8db84	0.08244994
1	0xbd8911d6	-0.06692855
2	0xbd842cfd	-0.06453893
3	0xbd9664c6	-0.0734344
4	0xbd355406	-0.044269584
5	0xbd4290fb	-0.047501545
6	0x3bf68972	0.007523709
7	0x3d4f8d61	0.05067194
8	0xbd0fb3d2	-0.0350836
9	0x3d6205c5	0.055181284
10	0x3daca254	0.08429399
11	0xbd8ac7a3	-0.06776359
12	0xbccc849a	-0.024965573
13	0xbd2cbaee	-0.042170458
14	0x3ce7365d	0.028224165
15	0x3bd7573c	0.0065716784
16	0x3cddbaff	0.027066706
17	0xbd53734b	-0.051623624
18	0xbc9fdde4	-0.019514985
19	0xbd0f3783	-0.03496505
20	0xbc1dfbe9	-0.00964258
21	0x3cff23f2	0.03114507
22	0x3da1fae0	0.07909179
23	0x3d5badaf	0.053632434
24	0x3d5879cb	0.052850526
25	0x3d435029	0.04768387
26	0x3d9952fe	0.07486533
27	0xbcc2011f	-0.023682175
28	0x3d878f48	0.066191256
29	0x3c9e6a98	0.019337937
30	0x3d3275e0	0.043569446
31	0x3d952116	0.07281701
32	0xbd6bf58b	-0.057607215
33	0x3cd6b0c5	0.026207337
34	0xbc254cf4	-0.010089148
35	0xbd363466	-0.044483565
36	0x3d229916	0.039696775
37	0x3bfc7938	0.00770488
38	0x3c9c92ff	0.019113062
39	0xbd6aabfc	-0.057292923
40	0x3d12327b	0.035692673
41	0x3d108cd5	0.035290558
42	0x3dad8d77	0.08474248
43	0xbdc5fcc1	-0.096673496
44	0xbc359a0f	-0.011084094
45	0xbd8b7b87	-0.0681067
46	0x3dbdd6dd	0.092694975
47	0x3bf26a3b	0.0073979176
48	0xbc3837a5	-0.011243735
49	0xbb2974f1	-0.0025857056
50	0x3c349b57	0.011023364
51	0x3d09ceb0	0.03364438
52	0x3d42018b	0.047364753
53	0xbce03b7b	-0.027372112
54	0x3d0eb00a	0.034835853
55	0x3b227fff	0.002479553
56	0xbd067b34	-0.03283234
57	0xbda9aa0c	-0.08284387
58	0xbc71c49e	-0.01475635
59	0xbd1439a0	-0.036187768
60	0x3b870a37	0.0041210908
61	0x3d4063a1	0.046970014
62	0x3d04f806	0.032463096
63	0xbb77b128	-0.0037794802
64	0x3db42a06	0.08797078
65	0x3d169af4	0.03676887
66	0x3d52a66d	0.051428247
67	0xbc68a674	-0.014199842
68	0xbd6902da	-0.056887485
69	0xbd142382	-0.036166675
70	0x3d2ff7b3	0.042960834
71	0xbda9e369	-0.08295328
72	0xbc92ae7c	-0.017905466
73	0xbc25115b	-0.010074939
74	0x3b767120	0.003760405
75	0xbd92e03e	-0.07171677
76	0xbd4798c3	-0.04872967
77	0xbc963006	-0.018333446
78	0xbd290843	-0.041267645
79	0xbb29b962	-0.002589785
80	0xbd3883f3	-0.04504771
81	0xbc89dc64	-0.016828723
82	0xbd088f6a	-0.033339895
83	0xbd8aaffe	-0.06771849
84	0x3d1b991c	0.037987813
85	0xbd24b87b	-0.040214997
86	0x3b8664ee	0.004101387
87	0xbdb3e63e	-0.087841496
88	0x3dbf4c13	0.09340682
89	0xbd0a91fb	-0.033830624
90	0xbd989f2f	-0.07452237
91	0xbd6f4e1c	-0.0584241
92	0x3d563531	0.05229682
93	0xbceaffbb	-0.028686395
94	0x3d1389da	0.036020137
95	0xbc2ca71f	-0.010537892
96	0xbd9587da	-0.07301302
97	0x3d29cfc7	0.041457918
98	0xbd3104f9	-0.043217633
99	0x3ca2dcb2	0.019880626
100	0x3d94e47e	0.07270144
101	0x3bd55acf	0.0065110694
102	0xbc435de5	-0.011924242
103	0x3d44dc67	0.048061755
104	0x3d006d7a	0.031354405
105	0x3d8b239e	0.06793903
106	0x3bc4bac2	0.0060037086
107	0x3d1e86a4	0.038702622
108	0xbceefba1	-0.02917272
109	0x3d70c2db	0.05877958
110	0xbd897ce3	-0.067132734
111	0xbc240c33	-0.010012674
112	0xbc893045	-0.01674665
113	0xbd858f85	-0.06521515
114	0x3d91562d	0.07096515
115	0x3d9f3d8f	0.07775413
116	0x3d127664	0.035757437
117	0x3db67fc0	0.08911085
118	0xbd2c2dc2	-0.042035826
119	0xbd6476cd	-0.05577736
120	0x3d95dfd4	0.073180825
121	0xbd3e0661	-0.046392802
122	0xbd7a9b29	-0.06118313
123	0x3d825157	0.063631706
124	0x3d945027	0.0724185
125	0xbd6f8548	-0.058476716
126	0x3ca46ef3	0.020072436
127	0x3d8cca36	0.06874506
128	0xbd909c41	-0.07061053
129	0x3cb7535c	0.022378616
130	0xbb9dc26c	-0.0048144367
131	0xbc2af5bb	-0.010434563
132	0xbcbb6187	-0.022873653
133	0xbda0325f	-0.078221075
134	0x3c714ba3	0.014727506
135	0xbbd4b447	-0.0064912173
136	0xbd589395	-0.05287512
137	0xbda8103b	-0.08206221
138	0x3d70be14	0.058775023
139	0x3b209d54	0.0024507837
140	0x3d8d37f4	0.06895438
141	0xbce6367d	-0.028102154
142	0x3d8622ec	0.065496296
143	0x3cc6f12a	0.024284918
144	0xbd8acaa2	-0.067769304
145	0x3b875878	0.0041304193
146	0xbb5856c4	-0.00330107
147	0x3cc74534	0.02432499
148	0xbd99a212	-0.075016156
149	0x3d9890dc	0.07449505
150	0x3dad715f	0.084688894
151	0xbd11da59	-0.035608623
152	0x3d9fb295	0.07797734
153	0xbd8cb60f	-0.068706624
154	0x3d92e67e	0.07172869
155	0x3db8fe53	0.090328835
156	0x3d9a7bd6	0.07543151
157	0x3cb40835	0.02197657
158	0x3d98f452	0.074684754
159	0x3c278215	0.010223885
160	0x3d936126	0.07196264
161	0xbd72a596	-0.059239946
162	0xbcd96b0e	-0.026540305
163	0x3d14c162	0.036317237
164	0x3d45e0f4	0.048310235
165	0xbd67e220	-0.056612134
166	0xbbd9f0c1	-0.0066510146
167	0xbd340674	-0.043951467
168	0x3c8f55fb	0.017497053
169	0x3d95038a	0.07276066
170	0x3da8b8a5	0.08238343
171	0xbd84bf38	-0.064817846
172	0x3da29a96	0.07939641
173	0xbd1486fa	-0.036261536
174	0x3d52d0ce	0.051468663
175	0xbc8ee497	-0.017442985
176	0xbd93dd30	-0.072199225
177	0x3c769472	0.015050041
178	0xbd7a8ea7	-0.0611712
179	0xbc071967	-0.0082458025
180	0xbd483db2	-0.048886962
181	0xbd448127	-0.04797473
182	0x3c799a87	0.015234596
183	0x3cbe2f1a	0.02321582
184	0x3ca39b37	0.019971473
185	0xbd3870c6	-0.045029424
186	0x3d66f872	0.05638928
187	0xbd706474	-0.05868955
188	0xbc811b32	-0.015760038
189	0x3bad10ff	0.005281567
190	0x3d0a4ad3	0.033762764
191	0x3d6ebb3e	0.058284037
192	0xbd1fb4a7	-0.038990643
193	0xbaab5c0e	-0.0013073699
194	0xbd9025d9	-0.07038469
195	0xbda69d87	-0.08135515
196	0xbd05c587	-0.03265908
197	0x3d6bf5dc	0.057607517
198	0x3c3ec8ba	0.011644537
199	0x3d66f6d5	0.05638774
200	0xbb41194e	-0.0029464546
201	0x3db255ee	0.08707796
202	0x3d549c5d	0.051906932
203	0x3c3d79ad	0.011564654
204	0xbd12f870	-0.03588146
205	0xbd0c60b6	-0.03427192
206	0x3da1a80a	0.07893379
207	0xbd1e99cd	-0.038720895
208	0x3d4355f0	0.04768938
209	0xbb535c17	-0.0032250935
210	0x3da60763	0.08106878
211	0xbcf861b1	-0.03032002
212	0xbd213994	-0.03936155
213	0xbd0100db	-0.031494956
214	0xbd3f7c7a	-0.04674957
215	0xbd5d8640	-0.05408311
216	0x3d0b852f	0.03406256
217	0xbdb97b5d	-0.09056733
218	0xbd42ad32	-0.047528453
219	0x3d580dc2	0.052747495
220	0xbce00f66	-0.027351093
221	0xbd452cd1	-0.048138443
222	0x3d6472aa	0.055773415
223	0x3db3620e	0.08758937
224	0x3c6ca453	0.014443475
225	0x3c248511	0.010041491
226	0xbd2347db	-0.03986345
227	0xbbf32df0	-0.0074212477
228	0x3c4592d1	0.01205893
229	0x3d757ab7	0.059931483
230	0xbd5f501e	-0.054519765
231	0xbd8a9d82	-0.067683235
232	0x3d7b4b6b	0.06135122
233	0x3ba859f9	0.0051376787
234	0x3d9bc7e9	0.07606489
235	0x3db1a85e	0.086746916
236	0x3d9c7b76	0.07640736
237	0xbcc16096	-0.023605626
238	0x3ca763ca	0.020433325
239	0x3cbdf806	0.023189556
240	0x3d39f194	0.045396402
241	0xbc0948fa	-0.008379215
242	0x3ca2216f	0.019791333
243	0x3cf7d81f	0.030254422
244	0x3d269b0e	0.040675215
245	0xbd3bb7f1	-0.045829717
246	0xbd3b0979	-0.04566333
247	0x3d2fbfb3	0.042907428
248	0xbcbf7043	-0.02336896
249	0xbd16910b	-0.036759418
250	0xbc9f3d55	-0.019438425
251	0xbc8fb436	-0.017541986
252	0x3d433dcf	0.047666367
253	0x3ca965dc	0.020678453
254	0x3d0de362	0.034640677
255	0xbd8a8201	-0.067630775

fc.4.bias f4 [6]
0	0x3bfc86c9	0.0077064973
1	0xbd1264a0	-0.035740495
2	0x3c6a8041	0.014312805
3	0x3cd0b232	0.025475595
4	0xbc8bce96	-0.017066281
5	0x3cc46517	0.023973985
