main/models/mlp_full/best_model.pt (torch, 120888 bytes, 7 tensors)

hist_emb.weight f4 [7, 8]
0	0x3ec96a11	0.39338735
1	0xbf88ac24	-1.0677533
2	0x3ddb906d	0.107209064
3	0x3fbbd493	1.4674248
4	0xbf3bb4ba	-0.7332264
5	0x3e6826c1	0.22671033
6	0x3f84b19c	1.0366702
7	0x3ee395cd	0.44450226
8	0x3e70c934	0.23514253
9	0xbe3541c4	-0.17700869
10	0xbede567e	-0.43425363
11	0xbf6a1dd5	-0.9145177
12	0xbfa920a4	-1.3213086
13	0xbeddbc5d	-0.43307772
14	0x3f84c4a2	1.0372508
15	0xbecab5b6	-0.3959176
16	0xbf84e718	-1.0383024
17	0x3f4c1307	0.79716533
18	0x3eb687dc	0.35650527
19	0x3f1d41a1	0.61428267
20	0x3fecb751	1.8493444
21	0xbfed9151	-1.8559972
22	0xbfd0ac4c	-1.6302581
23	0x3ebdf39a	0.37099916
24	0x3ef7afd8	0.48376346
25	0x3dc5006c	0.09619221
26	0xbf0751b7	-0.5285906
27	0xbfa9e2ef	-1.327238
28	0x3f04ad5c	0.51827025
29	0x3f9ec9f7	1.2405385
30	0x3f5c1841	0.8597451
31	0x3ef88e68	0.48546147
32	0xbf972d91	-1.1810781
33	0x3f835161	1.025921
34	0x3f5359e4	0.8255904
35	0xbf92c7ce	-1.1467226
36	0x3ea87ceb	0.32907805
37	0xbe887481	-0.26651385
38	0xbe6809b4	-0.22659951
39	0xbe1a06e5	-0.15041693
40	0xbee23389	-0.44179943
41	0x3f8bbc5d	1.0916859
42	0x3f696a41	0.91177756
43	0xbea848b8	-0.3286798
44	0xbb408b2f	-0.0029379835
45	0x3f8c94af	1.0982875
46	0x3f98344e	1.1890962
47	0x3c7081c5	0.014679377
48	0x00000000	0.0
49	0x00000000	0.0
50	0x00000000	0.0
51	0x00000000	0.0
52	0x00000000	0.0
53	0x00000000	0.0
54	0x00000000	0.0
55	0x00000000	0.0

fc.0.weight f4 [128, 93]
0	0xbcee7f08	-0.029113308
1	0x3cf5fc04	0.030027397
2	0x3d83df62	0.06439091
3	0xbd1e403a	-0.03863547
4	0xbdc1a8aa	-0.09455998
5	0x3cf090cc	0.02936592
6	0xbd5fd636	-0.054647647
7	0x3d1cd54f	0.038289364
8	0xbd8067e7	-0.06269818
9	0x3da2350f	0.079202764
10	0x3ccda4cc	0.025102995
11	0xbcb46207	-0.0220194
12	0x3c2d8a91	0.010592119
13	0x3c819c2d	0.01582154
14	0xbcdde6b5	-0.027087549
15	0xbdb6d34f	-0.08927023
16	0xbda400fa	-0.08007999
17	0xbca35a80	-0.019940615
18	0x3d8f0dbc	0.069850415
19	0x3c8b9089	0.017036693
20	0x3c8d6c29	0.017263489
21	0x3d485443	0.048908483
22	0x3cf49e7a	0.029860724
23	0xbd389a81	-0.04506922
24	0x3dd25371	0.102698214
25	0x3d4f1a5c	0.050562248
26	0x3d5445a0	0.051824212
27	0x3d93c043	0.072144054
28	0xbca3631c	-0.01994472
29	0x3beda41e	0.0072522303
30	0xbdc34214	-0.09534088
31	0x3dc37e64	0.095455915
32	0x3d7ed63d	0.062216032
33	0x3dd264f9	0.10273165
34	0xbccc9662	-0.024974052
35	0xbd1d55bf	-0.038411852
36	0xbd9fb927	-0.07798987
37	0xbc81bed6	-0.015838068
38	0x3caea895	0.02132062
39	0x3d6c4345	0.05768134
40	0x3c3fd300	0.011708021
41	0x3d9c749b	0.07639428
42	0xbda47f3f	-0.08032083
43	0x3dbfebfc	0.09371182
44	0x3dc0f8a1	0.09422422
45	0x3db537a6	0.08848505
46	0x3da3d3b4	0.079993635
47	0x3d5404d4	0.051762417
48	0x3cff498c	0.031163
49	0x3daa2266	0.08307342
50	0x3d67cc6f	0.056591447
51	0xbce0f40c	-0.02746012
52	0x3bfc22d9	0.007694584
53	0x3d974085	0.07385353
54	0x3d4f0101	0.050538067
55	0xbbe73b24	-0.0070566107
56	0xbd497c4a	-0.049190797
57	0x3d80c493	0.062874936
58	0x3cb6fa3f	0.022336124
59	0xbd0bd58c	-0.0341392
60	0x3d15cdc5	0.03657319
61	0xbbf8cdc0	-0.0075928867
62	0xbd86ee3b	-0.065884076
63	0xbd5eafae	-0.05436676
64	0xbc46d206	-0.012135034
65	0xbdd15c18	-0.102226436
66	0xbda333fe	-0.07968901
67	0x3d3d120b	0.046159785
68	0x3d22e2af	0.039766964
69	0xbd895f62	-0.06707646
70	0xbc0164ef	-0.0078976
71	0x3d06bd76	0.032895528
72	0x3d31a1f3	0.043367337
73	0x3d655612	0.055990286
74	0x3cd8c370	0.02646038
75	0x3dd36905	0.10322765
76	0x3d1852e8	0.03718844
77	0xbd9fb24a	-0.07797678
78	0x3c632d4f	0.013865783
79	0xbdabfb50	-0.083975434
80	0xbcd9d9e9	-0.026593165
81	0x3d652acd	0.05594902
82	0x3c0aa6e3	0.00846264
83	0xbd74aaaf	-0.05973309
84	0x3d021644	0.031759515
85	0x3ad8805f	0.001651775
86	0xbd522ea9	-0.05131403
87	0x3d194e83	0.03742839
88	0xbd8aab74	-0.06770983
89	0xbc7813ed	-0.015141469
90	0x3dc424fd	0.095773675
91	0xbcb4d61d	-0.022074753
92	0x3cc6604c	0.02421584
93	0x3d7f16c8	0.062277585
94	0xbdd5b732	-0.10435332
95	0x3cd1c5a8	0.025606945
96	0xbd8c8472	-0.068611994
97	0x3d36c5ec	0.044622347
98	0x3d4e5b6e	0.050380163
99	0x3d51c982	0.051217563
100	0x3d0a6169	0.033784304
101	0xbbaa1502	-0.0051904926
102	0x3cee1f20	0.029067576
103	0x3b6b5277	0.0035907307
104	0xbb7e5b4e	-0.0038811746
105	0xbd3de3ad	-0.046359707
106	0x3dbd9062	0.092560545
107	0xbbeb2363	-0.0071758493
108	0xbc7cbaf8	-0.015425436
109	0x3d99b597	0.07505339
110	0xbd519eed	-0.051176954
111	0x3ce03ed1	0.027373703
112	0x3dbc084b	0.09181269
113	0x3d8ce4be	0.068795666
114	0x3d5278de	0.0513848
115	0xbc1fbba6	-0.009749329
116	0x3d894ee2	0.06704499
117	0xbbd1d49d	-0.0064035193
118	0x3bbcf321	0.005766288
119	0x3ce44dff	0.027869223
120	0xbd04997c	-0.032372937
121	0x3bab1e78	0.005222138
122	0x3dcaff5b	0.099119864
123	0xbd07e2e5	-0.033175368
124	0xbccacd3f	-0.024756072
125	0xbdc362df	-0.095403425
126	0x3da151c0	0.07876921
127	0x3d974991	0.073870786
128	0xbd8cdd76	-0.06878178
129	0x3d441928	0.047875553
130	0xbd5db84d	-0.05413084
131	0xbdd19adf	-0.102346174
132	0xbd4aba73	-0.049494218
133	0xbd9f9688	-0.077923834
134	0xbce73f93	-0.028228557
135	0x3d27e54d	0.040990163
136	0xbdd27ab5	-0.10277311
137	0xbb22d70b	-0.0024847414
138	0xbdcfb431	-0.10141791
139	0xbda67b52	-0.0812899
140	0xbdb03dc0	-0.08605528
141	0xbc980ba5	-0.01856024
142	0x3c853d14	0.016264476
143	0x3c0bc4b9	0.008530789
144	0xbd6eadae	-0.058271103
145	0xbda36a57	-0.07979267
146	0xbdad0ac3	-0.08449318
147	0x3cfadb04	0.030622013
148	0x3d4d050e	0.05005365
149	0x3cbe552c	0.023233972
150	0x3cde76de	0.02715629
151	0x3d421c6d	0.04739039
152	0x3c84a8f3	0.016193843
153	0x3db74526	0.08948736
154	0x3d1b2a72	0.037882276
155	0x3dae95ac	0.085246414
156	0xbda75eb9	-0.08172364
157	0x3cf38494	0.029726304
158	0x3b1338f9	0.0022464378
159	0x3cdddd7a	0.027083147
160	0x3d006ab1	0.03135175
161	0xbcd8da04	-0.026471145
162	0xbbe37b57	-0.0069421935
163	0xbd804687	-0.06263452
164	0x3d0e9926	0.034814022
165	0xbd959c2f	-0.0730518
166	0xbdcd9b0b	-0.10039338
167	0xbd9a2283	-0.07526114
168	0x3c8a5540	0.016886353
169	0xbce1e5c3	-0.02757538
170	0xbdcd6bc5	-0.10030321
171	0x3dbf888c	0.09352216
172	0x3cfa1a88	0.03053023
173	0xbdb670a0	-0.089082
174	0xbcd154a8	-0.025553063
175	0x3d484d5b	0.048901897
176	0x3c6a67f5	0.014307012
177	0xbd7936c4	-0.060843244
178	0x3cdd336b	0.027002057
179	0x3d43de59	0.04781947
180	0xbd2a96e6	-0.041647814
181	0xbdb20943	-0.08693173
182	0xbd9d78f4	-0.076890856
183	0x3d9ad2a8	0.07559711
184	0x3dac7d96	0.08422391
185	0x3d1a5f24	0.03768839
186	0x3c4a72f8	0.012356512
187	0x3d2dcf28	0.042433888
188	0xbe612d67	-0.21989976
189	0x3d588197	0.05285796
190	0x3dc22d5c	0.09481308
191	0xbd91b8a2	-0.07115294
192	0xbd60f455	-0.054920513
193	0x3dabf79b	0.08396836
194	0x3d7fbe73	0.062437486
195	0xbdd3aa7a	-0.1033525
196	0x3db35dc2	0.08758117
197	0x3d68c76d	0.056830812
198	0xbcc5e337	-0.024156196
199	0xbc7129da	-0.014719451
200	0x3d663b2f	0.056208786
201	0xbd8d6a7a	-0.069050744
202	0xbdb5c38d	-0.08875189
203	0xbd95f904	-0.073228866
204	0x3cea1f87	0.028579487
205	0xbdc73305	-0.09726528
206	0x3dbe8a57	0.0930373
207	0xbd2328a3	-0.039833676
208	0xbdb43de1	-0.08800865
209	0x3c307e16	0.010772249
210	0xbd1c0b98	-0.038096994
211	0x3d945c24	0.07244137
212	0x3c29224f	0.010323121
213	0xbbdfbcc8	-0.0068279244
214	0x3db8dd8f	0.09026634
215	0x3d9793c2	0.074012294
216	0x3d42d444	0.047565714
217	0xbd98541f	-0.0743792
218	0x3dabd3d3	0.08390012
219	0xbdb2c4f2	-0.087289706
220	0x3dd120be	0.10211323
221	0xbbe5c072	-0.0070114667
222	0x3db3a159	0.08771009
223	0xbda8a535	-0.08234636
224	0xbdc6e37e	-0.097113594
225	0xbdb3ad1d	-0.08773253
226	0xbd75f2ac	-0.060045883
227	0x3d10ae88	0.035322696
228	0x3d571bc0	0.0525167
229	0xbdc1ac05	-0.09456638
230	0xbd9e3e17	-0.077266864
231	0xbd9ce290	-0.07660401
232	0xbd5ab6cb	-0.05339698
233	0xbb09e3a1	-0.0021040218
234	0xbdb83e5a	-0.089962676
235	0x3c4164df	0.011803835
236	0x3dbd1bae	0.09233795
237	0xbd9334cf	-0.07187807
238	0xbd4ee107	-0.05050757
239	0xbd919713	-0.07108893
240	0xbcfe1d7a	-0.031019915
241	0x3c83fe30	0.016112417
242	0xbd943bee	-0.07237993
243	0xbc87977e	-0.01655173
244	0x3da0cab2	0.07851161
245	0xbc829782	-0.015941385
246	0xbd114aee	-0.03547185
247	0x3db0fe16	0.08642213
248	0x3dbee347	0.093206935
249	0x3cb4e481	0.022081615
250	0x3c9a2bcf	0.018819718
251	0xbdb38795	-0.087660946
252	0x3cc63cb4	0.024198867
253	0xbc8e3067	-0.017357064
254	0xbdc32463	-0.095284246
255	0x3dd3d9c8	0.10344273

fc.0.bias f4 [128]
0	0xbeeb671e	-0.4597711
1	0x3ea7118d	0.32630578
2	0x3d3019c9	0.04299334
3	0x3dd69b39	0.10478825
4	0x3e3292f4	0.1743887
5	0x3ecec04d	0.4038109
6	0xbddbe4b1	-0.10736979
7	0xbe7912d9	-0.24323596
8	0x3e44c776	0.19216713
9	0x3e8beccd	0.27329102
10	0xbe109b27	-0.14121686
11	0xbd911592	-0.07084192
12	0x3e76cf15	0.24102433
13	0x3e7168ef	0.23575185
14	0x3d4a466c	0.049383566
15	0x3d8e1b9e	0.06938861
16	0x3e970fa6	0.29504126
17	0xbd08ca4e	-0.033396058
18	0x3d270d0f	0.040783938
19	0xbe07340f	-0.13203453
20	0xbcd13379	-0.02553724
21	0xbe878999	-0.26472166
22	0x3db6d95c	0.08928177
23	0xbeea45e9	-0.45756462
24	0x3e831cbd	0.25607863
25	0xbd78b8b3	-0.060723018
26	0xbe1a32a7	-0.15058385
27	0xbea30c79	-0.31845453
28	0x3d127f3d	0.035765875
29	0xbdcca7a1	-0.0999291
30	0xbd7f3ea8	-0.062315613
31	0xbde9c2a6	-0.11414079
32	0xbd3f8055	-0.046753246
33	0x3e7b9d75	0.24571784
34	0xbe3dc954	-0.18533832
35	0xbf1cea12	-0.6129466
36	0xbd0af093	-0.033920836
37	0xbef6cc90	-0.48202944
38	0x3ba84ca5	0.00513609
39	0x3e2bdb2e	0.16782829
40	0xbd0bd6d1	-0.03414041
41	0xbe85b16c	-0.26111925
42	0x3d25dc3c	0.040493235
43	0xbe7566a6	-0.23964939
44	0xbd9df479	-0.07712645
45	0x3df3c200	0.11902237
46	0x3d2cbfea	0.04217521
47	0xbf216bc8	-0.63055086
48	0x3e8e29e4	0.27766335
49	0x3e314e9f	0.17315148
50	0xbee27bad	-0.44234982
51	0xbcc446c6	-0.023959529
52	0x3c178b16	0.009249469
53	0x3e2717ee	0.16317722
54	0x3f1144c9	0.5674558
55	0xbda57194	-0.08078304
56	0x3cf7cfc6	0.030250441
57	0xbee8b173	-0.45447883
58	0x3e523fd2	0.20532158
59	0x3df8f7e0	0.121566534
60	0x3e8f002e	0.27929825
61	0xbd88bd56	-0.06676738
62	0x3ea2c987	0.31794378
63	0xbf08b28c	-0.5339744
64	0xbee8c6b7	-0.45464107
65	0x3e63ca8b	0.22245233
66	0x3e324143	0.17407708
67	0x3e03b8a8	0.1286341
68	0x3ebf4609	0.3735812
69	0x3e4f5169	0.202459
70	0xbf2455f8	-0.6419368
71	0x3e8beaf8	0.27327704
72	0xbdb75537	-0.089518
73	0xbdc74c0c	-0.09731302
74	0x3eee83be	0.46584886
75	0x3d6f53b9	0.058429454
76	0x3e8e3f20	0.27782536
77	0x3ef3c990	0.47614717
78	0xbc26864b	-0.010163854
79	0x3ebc8064	0.36816704
80	0xbe079324	-0.13239723
81	0xbd73962a	-0.05946938
82	0x3e0e9c7c	0.13926882
83	0xbe76618b	-0.24060647
84	0xbd508b96	-0.05091437
85	0x3f026bf0	0.5094595
86	0x3dc9a982	0.09846784
87	0xbebbb270	-0.36659575
88	0xbe3ad92d	-0.18246908
89	0x3da46728	0.08027488
90	0x3e373550	0.17891431
91	0xbea4aa3f	-0.32161137
92	0xbe964bba	-0.2935465
93	0x3c8bbe85	0.01705862
94	0x3f00142c	0.5003078
95	0xbd86bf81	-0.06579495
96	0x3e903430	0.28164816
97	0x3e181ffd	0.14855953
98	0x3db9348a	0.09043224
99	0x3d55e372	0.052218862
100	0x3ebc23bb	0.3674601
101	0xbf184ff4	-0.59497
102	0x3de62a38	0.11238521
103	0x3df768f8	0.12080568
104	0x3d446f39	0.047957633
105	0xbf2b1ba0	-0.6683903
106	0x3ec82fec	0.3909906
107	0x3e9b14a8	0.30289197
108	0xbf12c78a	-0.5733572
109	0xbcc71ce2	-0.024305765
110	0xbd903638	-0.070415914
111	0x3d8fb19c	0.07016298
112	0x3dbcbe84	0.092160255
113	0xbe55afb2	-0.20867804
114	0x3f01779e	0.50573146
115	0x3e7b9e08	0.24572003
116	0xbdf5f84c	-0.120102495
117	0x3c544392	0.012955563
118	0x3e71e7eb	0.23623626
119	0xbd5197b2	-0.05117006
120	0xbead15b2	-0.33805615
121	0xbccaa1e4	-0.024735399
122	0x3d8694ef	0.065713756
123	0x3ee61be2	0.44943148
124	0xbe9d8696	-0.30766743
125	0x3e9d5403	0.30728158
126	0x3e844cd2	0.2583986
127	0x3d824fdd	0.06362889

fc.2.weight f4 [128, 128]
0	0x3d8f8d66	0.070093915
1	0xbda7cc69	-0.08193285
2	0xbd61624c	-0.055025384
3	0xbdb5ba42	-0.088734165
4	0x3daa487d	0.08314607
5	0x3cfd320d	0.030907655
6	0xbc94892c	-0.018131815
7	0x3d9ef4bd	0.07761524
8	0x3d07f482	0.033192165
9	0xbd484739	-0.04889605
10	0x3cd1a55e	0.025591549
11	0x3d9b6139	0.07586903
12	0x3d1211be	0.03566145
13	0x3da7acb0	0.081872344
14	0x3d9f37fd	0.07774351
15	0x3d4602e2	0.048342593
16	0x3da4eb82	0.08052732
17	0xbd5253b7	-0.051349368
18	0x3ca0c761	0.019626321
19	0xbbc119cc	-0.005892968
20	0x3cca5b15	0.024701634
21	0x3da90eb6	0.08254759
22	0x3c870f1f	0.016486702
23	0x3e2477b7	0.16061293
24	0xbd7696bf	-0.060202356
25	0x3daaf53b	0.08347555
26	0xbc9f00f1	-0.019409629
27	0x3db6c30d	0.08923922
28	0x3c77dac4	0.015127841
29	0x3d8646e7	0.06556492
30	0x3d24d8f8	0.04024598
31	0xbba87058	-0.0051403455
32	0x3c283ea5	0.010268842
33	0xbdc87238	-0.097874105
34	0x3d97021d	0.0737345
35	0x3db1407b	0.08654877
36	0xbd580f78	-0.052749127
37	0xbd3fe93a	-0.04685328
38	0x3cda7b1a	0.026670028
39	0x3d8758e7	0.06608754
40	0x3d4ee207	0.050508525
41	0x3ce84407	0.02835275
42	0x3d9faa34	0.077961355
43	0xbc852833	-0.01625452
44	0xbc8d0d06	-0.017218124
45	0x3d255b18	0.040370077
46	0x3d4b2e72	0.04960484
47	0x3dbd2beb	0.09236892
48	0xbceff2ed	-0.02929064
49	0x3da8930c	0.08231172
50	0xbcb611cc	-0.022225283
51	0xbcf0ee79	-0.029410588
52	0xbc0fa76b	-0.008767943
53	0x3d90a14b	0.07062014
54	0xbdabdfed	-0.0839232
55	0xbcae1617	-0.021250768
56	0x3d89ecdb	0.0673463
57	0xbd0ed783	-0.034873497
58	0x3d81bad7	0.06334465
59	0x3d9110ee	0.07083307
60	0xbc842d96	-0.016135018
61	0x3c4a57b3	0.012350011
62	0x3bd846f5	0.0066002556
63	0xbc3d5d43	-0.01155788
64	0x3cb797dd	0.022411281
65	0x3baf6664	0.005352782
66	0x3ceb7546	0.028742444
67	0xbd869e24	-0.06573132
68	0xbda08f51	-0.078398354
69	0x3c9e820c	0.01934912
70	0xbb3c11d1	-0.0028697143
71	0xb8abd16e	-8.192925e-05
72	0xbca478ed	-0.020077193
73	0x3c1a42bb	0.009415324
74	0xbd95ed7c	-0.07320687
75	0xbda3acc5	-0.079919375
76	0xbd828162	-0.06372334
77	0xbcc48173	-0.023987507
78	0x3c992b2d	0.018697346
79	0xbda0b453	-0.07846894
80	0x3d8752ce	0.066075906
81	0x3c8fd7e9	0.017559009
82	0x3aa64d2d	0.0012687795
83	0x3bcb3512	0.006201395
84	0x3d82eb6f	0.06392562
85	0xbc985863	-0.018596834
86	0xbd155e84	-0.03646709
87	0xbd83f961	-0.064440496
88	0x3d48fa39	0.049066756
89	0x3d0c6b65	0.034282107
90	0xbd5be1d5	-0.053682167
91	0x3d82d40e	0.063881025
92	0x3cfc226c	0.030778132
93	0xbd9eee12	-0.07760252
94	0x3d8219ab	0.06352552
95	0xbd06697a	-0.032815434
96	0x3d70d027	0.05879226
97	0x3bc7146d	0.006075433
98	0xbb9feda2	-0.004880623
99	0x3c3e67bc	0.011621412
100	0x3d58bdd1	0.052915398
101	0xbda11633	-0.07865562
102	0x3d2d7d42	0.042355783
103	0xbd2fe098	-0.0429388
104	0xbc8ed41a	-0.017435122
105	0x3d225601	0.0396328
106	0x3cf5ec94	0.030020036
107	0xbd7556bd	-0.059897173
108	0x3d31b3ee	0.043384485
109	0xbd908ee2	-0.07058503
110	0xbbb13200	-0.005407572
111	0xbc913494	-0.017725267
112	0xbd2e2c0b	-0.04252247
113	0xbd0c9d7e	-0.034329884
114	0x3bc1b509	0.0059114737
115	0x3c9aa742	0.018878583
116	0x3d3c51aa	0.04597632
117	0xbc040a3f	-0.0080590835
118	0xbd9e89dc	-0.07741138
119	0x3db22026	0.08697538
120	0x3d42efcc	0.04759197
121	0x3dd740e3	0.10510423
122	0xbd820dfc	-0.063503236
123	0x3b247e9b	0.0025099877
124	0xbd60b194	-0.05485685
125	0xbde67de6	-0.11254482
126	0xbca5d881	-0.020244839
127	0x3cffb272	0.031213019
128	0xbd3d8779	-0.046271775
129	0xbd5250ba	-0.051346518
130	0x3d687664	0.05675353
131	0x3db61908	0.08891493
132	0xbdafd374	-0.08585253
133	0xbd3d561a	-0.04622469
134	0xbd65c854	-0.05609925
135	0xbce3980b	-0.02778246
136	0xbddb9840	-0.10722399
137	0x3d406028	0.0469667
138	0x3d4f4dc4	0.050611272
139	0x3d8513e3	0.06497934
140	0x3d99f4e5	0.07517413
141	0x3c8c8102	0.01715136
142	0x3bacbebb	0.0052717603
143	0x3da45255	0.08023516
144	0xbd1e12a4	-0.038591996
145	0x3d909b31	0.070608504
146	0xbd8cf8f7	-0.06883424
147	0xbd7971d0	-0.060899556
148	0x3cc43482	0.023950819
149	0xbd9f1d83	-0.07769301
150	0xbe3d1481	-0.18464853
151	0x3d310b05	0.0432234
152	0x3d9f29d0	0.07771647
153	0x3d5f7443	0.054554235
154	0xbd21138f	-0.039325293
155	0x3c980a54	0.018559612
156	0xbc597990	-0.013273612
157	0xbd48257c	-0.048863873
158	0x3d828924	0.06373814
159	0x3bf0d30f	0.007349379
160	0xbd81c6d0	-0.063367486
161	0xbd25fa9d	-0.040522207
162	0x3d1a8774	0.037726834
163	0x3d7d678c	0.061866328
164	0xbcccc512	-0.024996314
165	0x3d6fc65e	0.058538787
166	0x3d16a175	0.03677507
167	0x3d8ad0c7	0.06778102
168	0x3c0768c7	0.008264727
169	0x3b3e8409	0.0029070398
170	0xbd5032c0	-0.05082965
171	0xbcf0165a	-0.029307533
172	0xbd6cacdc	-0.05778204
173	0x3bb6ffec	0.0055847075
174	0xbd54a56e	-0.05191558
175	0x3c8f4965	0.017491052
176	0xbbc7df7b	-0.006099639
177	0x3db1c381	0.086798675
178	0xbd995354	-0.07486597
179	0x3d7c6c88	0.06162694
180	0xbc61dd8e	-0.013785733
181	0xbda620ff	-0.08111762
182	0xbd964d3c	-0.0733895
183	0xbd9b8ed1	-0.075955994
184	0xbb6b0153	-0.0035858944
185	0x3d22f37c	0.039782986
186	0xbdba0ad8	-0.090840995
187	0x3b16e139	0.0023022427
188	0xbd57d6ef	-0.05269521
189	0xbc968109	-0.018372076
190	0xbd63766a	-0.05553285
191	0x3d9f8c33	0.07790413
192	0x3cacfd6a	0.021116931
193	0xbd1928cb	-0.03739242
194	0xbd420cf3	-0.04737563
195	0x3c9b434a	0.018952984
196	0x3cabf881	0.02099252
197	0xbdb86230	-0.09003103
198	0x3d9176c6	0.07102732
199	0xbdb4f944	-0.08836606
200	0xbd1363ce	-0.035983853
201	0xbd4424b4	-0.047886565
202	0x3d191b33	0.037379455
203	0x3d93b0b4	0.07211438
204	0xbd819527	-0.06327277
205	0x3d8b3e3e	0.06798981
206	0xbd5e4cb6	-0.054272376
207	0xbd24b1d4	-0.040208653
208	0xbd5e0f97	-0.054214086
209	0xbd98ffdb	-0.074706756
210	0xbd3025d8	-0.04300484
211	0x3db2166f	0.08695685
212	0xbcd68693	-0.026187217
213	0x3d94ce93	0.072659634
214	0x3cdc609a	0.026901532
215	0xbd56de23	-0.05245794
216	0x3d765c2f	0.060146507
217	0xbd9d2438	-0.07672924
218	0x3d2e7aee	0.042597704
219	0x3ca646e8	0.020297483
220	0x3cb52957	0.022114439
221	0x3c89a8c3	0.016804105
222	0xbd943060	-0.07235789
223	0xbd2ea52b	-0.042637985
224	0x3c9aa888	0.01887919
225	0xbc5ec4c6	-0.013596719
226	0xbdabec3a	-0.08394666
227	0xbca35649	-0.019938605
228	0x3d124e7d	0.035719384
229	0x3dc1972b	0.09452661
230	0x3da23a2f	0.07921254
231	0xbd705fe6	-0.058685206
232	0x3c5c8dd3	0.013461548
233	0xbd04d4bc	-0.03242944
234	0xbd495874	-0.04915662
235	0xbcad6819	-0.021167802
236	0x3c94d798	0.01816921
237	0xbcd99709	-0.026561277
238	0xbbd6652b	-0.006542822
239	0xbd983026	-0.074310586
240	0xbda02ffb	-0.078216515
241	0x3d9d6ecd	0.07687149
242	0x3aa7f0ec	0.0012812889
243	0x3db0beff	0.086301796
244	0x3d9aac40	0.07552385
245	0x3beebcb6	0.0072856797
246	0xbc1b4c43	-0.009478631
247	0xbcc7e1d8	-0.024399683
248	0x3dd7e9e8	0.10542661
249	0x3d18adec	0.03727524
250	0x3d6c39b7	0.05767223
251	0xbd97b10c	-0.07406816
252	0x3d6ab835	0.05730458
253	0x3de832f3	0.11337843
254	0x3d118c20	0.035534024
255	0xbd9b05c6	-0.075694606

fc.2.bias f4 [128]
0	0xbea076be	-0.31340593
1	0xbe25da84	-0.16196638
2	0x3e5f7307	0.21821223
3	0x3e3f6e11	0.18694331
4	0x3ed8f2c8	0.42372727
5	0x3e175acb	0.14780729
6	0xbe05870f	-0.13039802
7	0xbe0b42a0	-0.13599634
8	0x3ce11e93	0.0274804
9	0x3e0d9d49	0.13829531
10	0x3d39878a	0.045295276
11	0x3da077b7	0.07835334
12	0x3ddf9bde	0.10918401
13	0xbd3bc9e4	-0.045846835
14	0xbcd788be	-0.026310321
15	0x3e93492a	0.28766757
16	0x3e2da25a	0.16956463
17	0x3ee31798	0.44353938
18	0x3e36c62b	0.17849033
19	0x3dc857b5	0.09782354
20	0x3db2128b	0.08694943
21	0x3e1a747b	0.15083496
22	0xbe481fbc	-0.19543356
23	0xbd0f8c00	-0.035045624
24	0xbea0e912	-0.3142782
25	0x3c734aad	0.014849347
26	0xbdc21c63	-0.094780706
27	0xbeaf4cce	-0.34238285
28	0x3e3eda00	0.18637848
29	0x3ef71727	0.4825985
30	0x3d8edece	0.0697609
31	0x3e938e29	0.28819397
32	0xbb7ff934	-0.0039058449
33	0xbdc2a6e6	-0.095044896
34	0xbe01b9fa	-0.126686
35	0xbe14322a	-0.14472261
36	0x3e111601	0.1416855
37	0x3c4edc84	0.012625817
38	0x3deb4b85	0.114890136
39	0xbe915713	-0.28386745
40	0x3e136695	0.143946
41	0xbe94657c	-0.28983676
42	0x3e5e09ca	0.21683422
43	0xbe7421f7	-0.23841082
44	0xbe0199e0	-0.12656355
45	0x3dec83cc	0.11548576
46	0xbc9e5e60	-0.01933211
47	0x3de1cbbc	0.110251874
48	0x3e55750d	0.20845433
49	0xbcb95ac1	-0.022626283
50	0x3ceee398	0.02916126
51	0xbd9a3ac1	-0.07530738
52	0x3ed61127	0.4180996
53	0xbccdf6f6	-0.025142174
54	0xbbc6de0c	-0.0060689505
55	0x3dcaeccf	0.09908449
56	0x3e0f38b6	0.13986477
57	0x3d704996	0.058663927
58	0x3e4be723	0.1991239
59	0x3e5df995	0.21677239
60	0xbd92922d	-0.07156787
61	0xbef32aa8	-0.47493482
62	0x3da9569b	0.08268472
63	0x3dbf123f	0.09329652
64	0x3e42f020	0.19036913
65	0xbdd68847	-0.104752116
66	0x3e349ca7	0.17637883
67	0xbcb49ad7	-0.02204649
68	0x3eaab860	0.33343792
69	0xbca98893	-0.020695006
70	0xbdd926c8	-0.106031
71	0x3e8b9c20	0.2726755
72	0xbd43e564	-0.047826186
73	0x3d0dc2ff	0.03460979
74	0xbcbc3b52	-0.022977505
75	0x3c954fa7	0.018226458
76	0xbf0ab894	-0.54187894
77	0x3de01cdd	0.10943005
78	0x3dab3cd7	0.08361214
79	0x3d93dbe2	0.07219674
80	0x3e07d218	0.13263738
81	0xbc16379a	-0.00916853
82	0x3e20afed	0.1569211
83	0xbcc75532	-0.024332616
84	0x3ca92c91	0.020651134
85	0xbe36667a	-0.17812529
86	0x3e946950	0.28986597
87	0x3ee51cb0	0.4474845
88	0xbb83e478	-0.0040250383
89	0xbd8bf64e	-0.06834088
90	0xbcae3ab9	-0.021268236
91	0x3e5668d1	0.20938422
92	0xbbfdde08	-0.0077474155
93	0xbe2cadec	-0.16863221
94	0x3db6f92d	0.08934245
95	0xbbea07ce	-0.0071420437
96	0x3dfbbbbe	0.12291668
97	0xbc94ca87	-0.018162979
98	0x3e07007d	0.1318378
99	0xbd30ab59	-0.04313216
100	0xbd2d2c30	-0.04227847
101	0x3ea69e5b	0.3254269
102	0xbd8d1f30	-0.06890714
103	0xbf109a25	-0.56485206
104	0x3e9b5322	0.30336863
105	0x3e0d075a	0.13772336
106	0x3f0e0c68	0.5548768
107	0xbc2aa2b1	-0.010414765
108	0x3e2ab0ac	0.16668957
109	0x3d579390	0.05263096
110	0x3e355921	0.17709781
111	0x3ccbd798	0.024883077
112	0x3c2efa60	0.010679811
113	0x3eb495dd	0.35270587
114	0x3dd138a9	0.10215885
115	0xbd3a5735	-0.045493323
116	0x3d015dd1	0.03158361
117	0x3d4ec393	0.050479483
118	0xbd4878a8	-0.04894319
119	0xbeca3708	-0.3949511
120	0xbd8343af	-0.06409394
121	0x3e96d1c0	0.29456902
122	0x3e16ed4b	0.14738958
123	0x3e35e8cd	0.17764588
124	0x3e97df4c	0.2966255
125	0x3e3f85c2	0.18703368
126	0xbd1684a4	-0.03674759
127	0xbd313e08	-0.04327205

fc.4.weight f4 [6, 128]
0	0xbda5c853	-0.080948494
1	0x3b842750	0.0040330067
2	0xbc923416	-0.017847102
3	0x3dbbdd4a	0.09173067
4	0xbe26ff6a	-0.1630837
5	0x3cc215f4	0.023692109
6	0x3c7007d9	0.0146503085
7	0xbd826bb8	-0.06368202
8	0xbd90f85c	-0.07078621
9	0x3d3a80ed	0.04553311
10	0x3d98d093	0.074616574
11	0xbddfbefe	-0.10925101
12	0x3dd5a8a0	0.10432553
13	0xbc2ccba5	-0.0105465995
14	0x3db6063f	0.0888791
15	0x3dc48c1f	0.095970385
16	0xbcffda24	-0.031231947
17	0x3d79d4a6	0.060993813
18	0x3daa154f	0.083048455
19	0xbd850519	-0.06495113
20	0xbd83aeb9	-0.0642981
21	0x3c40f750	0.011777714
22	0x3da38e60	0.0798614
23	0x3da5f879	0.08104033
24	0x3c90f3de	0.01769441
25	0x3d17f69d	0.037100423
26	0x3d3b26d8	0.04569134
27	0x3cd76a45	0.02629579
28	0x3d5ffeac	0.054686233
29	0xbe222b6e	-0.1583688
30	0x3d909406	0.07059483
31	0xbe01e845	-0.1268626
32	0xbd1c3f4b	-0.0381463
33	0xbd9135eb	-0.07090362
34	0x3ca9de9a	0.020736028
35	0xbc72879b	-0.014802839
36	0xbd9735d7	-0.07383316
37	0xbd0579a2	-0.0325867
38	0xbd76dfbe	-0.06027197
39	0xbd176902	-0.036965378
40	0xbe55bc33	-0.20872574
41	0xbd16c4fe	-0.03680896
42	0xbd7b475e	-0.061347358
43	0x3ca44d65	0.020056436
44	0xbdcc6b72	-0.09981431
45	0x3c9c18d7	0.019054813
46	0xbe755c4e	-0.23960993
47	0x3b3cbad7	0.0028797889
48	0x3d575d30	0.052579105
49	0x3d8bbf58	0.06823605
50	0x3da3dbc1	0.08000899
51	0x3da3595b	0.079760276
52	0x3d711cae	0.05886524
53	0x3d2dc91f	0.042428132
54	0xbdb4b855	-0.08824221
55	0xbd0388f0	-0.032113016
56	0x3c9d1ad7	0.019177837
57	0xbd861a33	-0.06547966
58	0x3d83b545	0.06431059
59	0x3e71814f	0.23584484
60	0xbce6fb9d	-0.02819615
61	0xbd0075cd	-0.031362344
62	0x3d007f88	0.031371623
63	0x3ddb26af	0.10700738
64	0xbd2ac3b2	-0.041690536
65	0xbd8aadca	-0.06771429
66	0x3d12111a	0.03566084
67	0xbcc3e6fb	-0.023913851
68	0xbdd7f37f	-0.1054449
69	0x3d4452f8	0.047930688
70	0x3d4645df	0.048406478
71	0xbcbd1de8	-0.02308555
72	0xbd98b25d	-0.07455895
73	0xbd82d8ad	-0.06388984
74	0x3ce30799	0.027713584
75	0x3d0562e6	0.03256502
76	0xbe8ae17f	-0.27125165
77	0xbc8a4dd4	-0.016882814
78	0xbda0b4bb	-0.078469716
79	0xbcc3ffeb	-0.023925742
80	0x3e4f1b59	0.20225276
81	0xbd1f88da	-0.03894887
82	0xbd145282	-0.036211498
83	0xbc4c1278	-0.012455575
84	0xbc54c197	-0.012985609
85	0x3c610332	0.013733672
86	0x3d90b594	0.07065883
87	0xbe125497	-0.14290081
88	0xbd3f90e2	-0.04676903
89	0xbbd73ed0	-0.006568767
90	0xbdaf5569	-0.085612126
91	0x3d507452	0.05089218
92	0x3d69f90c	0.057122275
93	0x3cd09861	0.025463285
94	0xbcfee8e2	-0.031116907
95	0x3d7432d2	0.05961878
96	0x3e0ca0c5	0.13733204
97	0xbcf7df41	-0.030257823
98	0x3d1ec0bf	0.038758036
99	0x3d9695e9	0.07352812
100	0x3d6766d3	0.056494545
101	0xbd27c3b5	-0.040958125
102	0x3dad5443	0.08463337
103	0x3d3b4fac	0.045730278
104	0x3cf7337a	0.030175913
105	0xbca6035d	-0.020265276
106	0xbe0e5fe7	-0.13903771
107	0xbd76008d	-0.06005912
108	0x3cb31f80	0.021865606
109	0x3d9d2582	0.0767317
110	0xbe54f22b	-0.20795505
111	0x3d3cf901	0.046135906
112	0x3d69525d	0.056963313
113	0xbc0e685e	-0.008691875
114	0xbcf721ec	-0.030167542
115	0xbd46d296	-0.048540674
116	0x3d85090b	0.064958654
117	0xbd986ccb	-0.074426256
118	0xbcb11146	-0.021614682
119	0xbd300024	-0.042968884
120	0x3d4762ff	0.048678394
121	0xbe0bdaef	-0.13657735
122	0x3da1c33e	0.078985676
123	0x3c948eed	0.018134559
124	0xbd64e039	-0.055877898
125	0xbcf1e4a6	-0.029527973
126	0xbd0b55ea	-0.03401748
127	0x3dd6e865	0.104935445
128	0xbdaacca0	-0.0833981
129	0xbd580ea7	-0.05274835
130	0x3d257f96	0.04040488
131	0x3d8ca569	0.06867487
132	0x3ebca8db	0.36847576
133	0x3d5d36b8	0.054007262
134	0xbbe4fd9f	-0.006988242
135	0xbd573b6e	-0.05254691
136	0x3d0a3dc9	0.03375033
137	0x3d03f0b4	0.032211974
138	0x3d9c1b6c	0.07622418
139	0xbd04d00e	-0.03242498
140	0xbdcc3594	-0.09971157
141	0x3c4edbf7	0.012625686
142	0x3c1518a7	0.009100116
143	0xbc2fc7de	-0.010728804
144	0x3d969d5d	0.073542334
145	0x3d7b2bad	0.06132095
146	0x3ccb9b61	0.024854364
147	0xbce2244d	-0.0276052
148	0xbc9afdc1	-0.018919827
149	0x3e002a77	0.12516199
150	0xbddb351c	-0.10703489
151	0xbcfd44ff	-0.030916689
152	0xbc2f3200	-0.010693073
153	0xbd0ac8bf	-0.033882853
154	0xbc380397	-0.011231325
155	0xbcf77042	-0.030204896
156	0x3d493df8	0.049131364
157	0x3dc4f1c9	0.09616429
158	0x3d5e876e	0.054328375
159	0x3da66a7d	0.0812578
160	0x3d9b3d55	0.075800575
161	0xbd7fd579	-0.062459443
162	0xbc2e6f70	-0.010646686
163	0xbd2fa633	-0.04288311
164	0x3e863894	0.2621504
165	0xbd62bd62	-0.05535639
166	0x3dd0371e	0.10166763
167	0xbd36f27d	-0.04466485
168	0x3cd9a858	0.02656953
169	0xbda1d6f8	-0.0790233
170	0x3d01ac35	0.03165837
171	0xbc1c5214	-0.009541053
172	0xb87d9727	-6.0460672e-05
173	0x3e98b656	0.2982661
174	0x3c667f5b	0.01406845
175	0xbc980fa5	-0.018562147
176	0x3d1916db	0.037375312
177	0x3c8a5848	0.016887799
178	0xbd03b761	-0.032157306
179	0x3d1549d8	0.036447376
180	0x3d95c697	0.07313269
181	0x3d08f547	0.03343704
182	0x3d878dde	0.06618856
183	0x3c13e3dc	0.009026494
184	0x3cea15d1	0.028574856
185	0xbc1d3fe2	-0.00959775
186	0x3d451e7a	0.048124768
187	0xbdba4bbc	-0.090964764
188	0xbbeb06fd	-0.007172464
189	0xbd3f678b	-0.046729606
190	0xbd3aa438	-0.045566767
191	0xbe27ebe5	-0.1639858
192	0xbc70956f	-0.014684065
193	0xbccdb739	-0.025111781
194	0x3d9b47b8	0.07582039
195	0x3d462815	0.04837807
196	0x3dae186e	0.08500753
197	0xbd8ec434	-0.069710165
198	0xbce79d82	-0.028273348
199	0x3d248854	0.040169075
200	0x3d83b809	0.06431586
201	0x3c302f52	0.01075347
202	0xbd44b69a	-0.048025705
203	0xbd92262b	-0.07136186
204	0x3e9b6807	0.30352804
205	0x3be2efea	0.0069255726
206	0x3d68e0f1	0.056855146
207	0xbe1c5e79	-0.15270413
208	0xbe71d179	-0.23615064
209	0x3d2b8d32	0.0418827
210	0xbc99dd16	-0.01878218
211	0xbc4b3561	-0.012402863
212	0x3c937899	0.018001841
213	0xbc44beb8	-0.0120083615
214	0xbd98cb7f	-0.07460689
215	0x3db0fcce	0.08641969
216	0xbc7dcc9b	-0.015490676
217	0x3c881606	0.016612064
218	0xbda75e75	-0.08172313
219	0x3d3bedb6	0.045880996
220	0x3d1bfa5d	0.038080562
221	0xbce75ce1	-0.02824253
222	0xb9838e43	-0.0002509226
223	0xbc095d25	-0.008384024
224	0x3ce020ec	0.027359448
225	0xbc78af66	-0.015178537
226	0x3d3c5b96	0.04598578
227	0x3cfd04c8	0.030886069
228	0x3db24897	0.08705252
229	0x3e052b25	0.1300474
230	0xbd1eaa6a	-0.03873674
231	0xbde208bf	-0.110368244
232	0x3d56d143	0.05244566
233	0x3d1fe94e	0.039040856
234	0x3e96dcc7	0.29465315
235	0xbd12cec3	-0.035841715
236	0x3c959e67	0.018264009
237	0x3d353e0f	0.044248637
238	0x3df817d2	0.12113918
239	0x3da0402d	0.078247406
240	0x3b55c09d	0.0032616027
241	0x3db21b4c	0.08696613
242	0x3d7f44b4	0.06232138
243	0xbd38d761	-0.045127276
244	0x3ccad320	0.024758875
245	0x3cea2fba	0.02858721
246	0xbb6cafc7	-0.0036115514
247	0xbd5ca080	-0.053864002
248	0xbd2c67f8	-0.04209134
249	0x3e3bbd14	0.18333846
250	0xbd0c458d	-0.034246016
251	0x3b44f771	0.0030054713
252	0x3d2f200f	0.042755183
253	0x3c888025	0.016662667
254	0xbc95ca4d	-0.018284941
255	0xbd39ba34	-0.045343593

fc.4.bias f4 [6]
0	0x3d031557	0.032002773
1	0x3e41880b	0.18899553
2	0x3d78db2c	0.060755894
3	0xbe282016	-0.1641849
4	0xbe6bbeee	-0.23022053
5	0xbe6eac01	-0.23307802
